results/3dball_test/3DBall/checkpoint.pt (torch, 450997 bytes, 44 tensors)

network_body.observation_encoder.processors.0.normalizer.running_mean f4 [8]
-0.003258283 0.0004287702 -0.06560416 3.0908053 -0.0361604 0.022645744 -0.5969577 0.005272615
00000000: eb88 55bb 90cc e039 795b 86bd c1cf 4540
00000010: ed1c 14bd 9183 b93c 38d2 18bf e6c5 ac3b

network_body.observation_encoder.processors.0.normalizer.running_variance f4 [8]
575.41174 521.1587 113899.16 12607.012 112489.51 82630.875 111586.99 76791.53
00000000: 5ada 0f44 284a 0244 9475 de47 0cfc 4446
00000010: c1b4 db47 7063 a147 7ff1 d947 c4fb 9547

network_body.processors.0.normalizer.running_mean f4 [8]
-0.003258283 0.0004287702 -0.06560416 3.0908053 -0.0361604 0.022645744 -0.5969577 0.005272615
00000000: eb88 55bb 90cc e039 795b 86bd c1cf 4540
00000010: ed1c 14bd 9183 b93c 38d2 18bf e6c5 ac3b

network_body.processors.0.normalizer.running_variance f4 [8]
575.41174 521.1587 113899.16 12607.012 112489.51 82630.875 111586.99 76791.53
00000000: 5ada 0f44 284a 0244 9475 de47 0cfc 4446
00000010: c1b4 db47 7063 a147 7ff1 d947 c4fb 9547

network_body._body_endoder.seq_layers.0.weight f4 [128, 8]
0.14541015 -0.012671138 -0.6616031 -0.12712812 1.0428785 -0.41990876 -0.5155457 0.084860556
0.4332291 0.6703715 -0.0091930125 0.33131614 0.42243466 0.3459593 0.16589426 0.02727746
-0.3261751 -0.23131426 -0.2692024 -0.19206013 -0.60489315 0.063162886 0.8044402 0.29793236
0.24974443 0.5558388 -0.5173582 -0.5270109 0.32811493 0.28639928 -0.35229632 -0.19067256
0.18421344 -0.9545137 -0.059772354 0.34531483 0.6571603 -0.44230446 0.22074205 0.1433753
0.3572069 -0.11696953 -0.028232273 0.3371994 0.2118863 0.3107835 -0.19978851 -0.5404246
-0.3771407 -0.4872759 -0.14699781 -0.3912832 0.69889075 0.62854 0.24334016 0.38493258
0.40262273 -0.027144972 -0.8543413 -0.2248293 0.17626148 -0.6234109 0.3411124 0.453988
0.43108895 0.00574144 0.3270971 0.5292291 0.079791844 0.758076 0.6128165 0.22452185
-0.097981334 0.14300264 0.02099556 -0.2707109 -0.14184675 -0.45342016 -0.04960928 -0.5741818
-0.046888195 0.5970999 0.08001589 0.04586929 -0.09037277 -0.31832555 0.72169346 0.9632274
0.59225625 -0.072648816 -0.23957336 -0.17191748 0.5708043 -0.7188458 0.016213955 0.07801262
-0.233524 -0.8524648 0.30414894 0.13393986 -0.61413616 -0.5653074 -0.23585851 -0.38629773
0.18968722 -0.06744712 -0.02215154 0.4622999 0.016473677 -0.060273573 0.12068562 0.28856823
-0.18953794 -0.719982 -0.047312703 0.38623732 0.20935103 0.72978675 -0.021382933 0.015315517
0.21553007 -0.13733734 0.10738965 -0.17704788 -0.13287568 0.3133174 -0.5868808 -0.17671597
0.119510435 -0.17720689 -0.77570164 0.5116765 -0.3318554 -0.24879014 0.18665354 -0.03674758
0.16327196 -0.012147402 0.031016918 -0.034013763 -0.081428155 0.929917 0.6727417 -0.40050048
0.2971647 0.484416 0.06007806 -0.3530557 -0.21546476 -0.19547592 -0.9540329 -0.46986076
0.39810443 -0.45459604 0.45811254 -0.17094588 -0.36523914 0.1614819 -0.35470504 0.047913425
0.1433006 0.34208265 0.49471816 0.27734858 0.04829334 -0.12857865 -0.30625892 0.41374075
0.4194644 0.118196815 0.24406943 0.51171196 0.21628293 0.40758657 0.34059873 0.4061839
-0.062221453 -0.34736088 -0.5976632 -0.119899206 -0.24330461 -0.19739372 0.41223142 -0.48137572
0.28564614 0.09983549 -0.54971 0.40075412 0.34791908 0.42727903 0.10368423 -0.29903775
0.65049225 0.0022975542 -0.423627 -0.5272933 -0.044097893 0.30823395 -0.73719186 -0.0015674181
0.5353519 -0.31780717 1.0050129 0.48487452 0.054503433 0.06871153 -0.26649007 -0.23693192
0.19257428 -0.5076673 -0.2792405 0.0031131452 -0.26966092 0.14305429 0.22217174 0.0020723576
0.14578487 -0.53326476 -0.45577824 -0.33765352 0.16220056 0.01716418 0.16798626 -0.10019863
0.13794325 0.79143804 -0.53670967 0.71131855 0.003126474 0.11291605 -0.046549052 -0.30461776
-0.59820807 0.5408404 -0.1033816 -0.020355523 0.049567524 0.17135277 -0.17890723 0.1192533
0.26491368 0.3255478 -0.14888963 -0.20109577 -0.23205248 -0.27300152 0.30670086 -0.11581328
0.5802157 -0.054665033 0.5777946 0.27652988 0.26027718 -0.05154257 0.23403564 -0.34950876
00000000: 66e6 143e 9b9a 4fbc d25e 29bf e02d 02be
00000010: 0b7d 853f 48fe d6be cefa 03bf 5fcb ad3d
00000020: 34d0 dd3e 779d 2b3f 4a9e 16bc 45a2 a93e
00000030: 5b49 d83e 9421 b13e 2fe0 293e fb74 df3c
00000040: 6c00 a7be a5dd 6cbe e6d4 89be 69ab 44be
00000050: 47da 1abf 8b5b 813d cbef 4d3f 978a 983e
00000060: 01bd 7f3e 744b 0e3f 9671 04bf 30ea 06bf
00000070: aefe a73e eda2 923e 2f60 b4be ab3f 43be
00000080: 73a2 3c3e 035b 74bf dbd3 74bd 1bcd b03e
00000090: a83b 283f bb75 e2be 340a 623e fad0 123e
000000a0: d3e3 b63e b98d efbd 5e47 e7bc 66a5 ac3e
000000b0: b9f8 583e 041f 9f3e 5c95 4cbe 4459 0abf
000000c0: 9618 c1be 3a7c f9be 9886 16be 4656 c8be
000000d0: 81ea 323f ffe7 203f 2a2e 793e e215 c53e
000000e0: 9124 ce3e 225f debc 1db6 5abf a739 66be
000000f0: e47d 343e db97 1fbf 49a6 ae3e 1d71 e83e
00000100: b1b7 dc3e b122 bc3b 4579 a73e 8f7b 073f
00000110: e869 a33d 4511 423f 8be1 1c3f 0ee9 653e
00000120: 70aa c8bd 496f 123e e1fe ab3c 9e9a 8abe
00000130: 4640 11be b026 e8be 1a33 4bbd 94fd 12bf
00000140: d60d 40bd 8adb 183f 5fdf a33d 70e1 3b3d
00000150: 5c15 b9bd 91fb a2be e7c0 383f 1296 763f
00000160: 1b9e 173f e7c8 94bd b852 75be 230b 30be
00000170: 3b20 123f 4706 38bf 21d3 843c 15c5 9f3d
00000180: ea20 6fbe 223b 5abf 69b9 9b3e 8827 093e
00000190: 0738 1dbf fcb7 10bf e584 71be d1c8 c5be
000001a0: 5e3d 423e b721 8abd 2577 b5bc 93b2 ec3e
000001b0: cef3 863c 6ce1 76bd 062a f73d 37bf 933e
000001c0: 3c16 42be be50 38bf f7ca 41bd e6c0 c53e
000001d0: 1e60 563e 4ed3 3a3f 432b afbc efed 7a3c
000001e0: eab3 5c3e 29a2 0cbe 1bef db3d 0a4c 35be
000001f0: 9010 08be 236b a03e d23d 16bf 08f5 34be
00000200: e3c1 f43d b975 35be 6294 46bf 3bfd 023f
00000210: f3e8 a9be d8c2 7ebe 1b22 3f3e a184 16bd
00000220: c430 273e e605 47bc 3117 fe3c 0452 0bbd
00000230: cec3 a6bd 0a0f 6e3f cd38 2c3f 660e cdbe
00000240: f925 983e 6005 f83e 6914 763d b7c3 b4be
00000250: cba2 5cbe d72a 48be 803b 74bf 9791 f0be
00000260: 58d4 cb3e d0c0 e8be ba8d ea3e 700c 2fbe
00000270: a000 bbbe 835b 253e e69b b5be de40 443d
00000280: 64bd 123e 7525 af3e b34b fd3e a200 8e3e
00000290: 3dcf 453d 1faa 03be f8cd 9cbe d4d5 d33e
000002a0: 0ac4 d63e 2c11 f23d 56ed 793e 8eff 023f
000002b0: 4679 5d3e 30af d03e f562 ae3e 56f7 cf3e
000002c0: ecdb 7ebd 49d9 b1be 7500 19bf b78d f5bd
000002d0: d824 79be 9421 4abe ff0f d33e e176 f6be
000002e0: 3640 923e 8d76 cc3d cbb9 0cbf a52f cd3e
000002f0: 7322 b23e 51c4 da3e 6658 d43d 7a1b 99be
00000300: a986 263f 9092 163b a3e5 d8be b2fc 06bf
00000310: fe9f 34bd d7d0 9d3e 9bb8 3cbf d371 cdba
00000320: d20c 093f 9fb7 a2be 43a4 803f 7941 f83e
00000330: fe3e 5f3d a1b8 8c3d 6371 88be 489e 72be
00000340: 3132 453e 7cf6 01bf 9cf8 8ebe e905 4c3b
00000350: ff10 8abe d37c 123e fd80 633e 64d0 073b
00000360: a148 153e 0a84 08bf c45b e9be ece0 acbe
00000370: e717 263e e59b 8c3c 9704 2c3e f034 cdbd
00000380: ff40 0d3e af9b 4a3f ce65 09bf f918 363f
00000390: 88e5 4c3b 8840 e73d 38aa 3ebd dcf6 9bbe
000003a0: 2a24 19bf 8474 0a3f bbb9 d3bd a0c0 a6bc
000003b0: 5107 4b3d 1a77 2f3e 7533 37be 133b f43d
000003c0: c4a2 873e 34ae a63e 8676 18be 0dec 4dbe
000003d0: 2a9f 6dbe dbc6 8bbe e507 9d3e 832f edbd
000003e0: 0489 143f 71e8 5fbd 59ea 133f 5395 8d3e
000003f0: 0d43 853e 4d1e 53bd 0aa7 6f3e d0f2 b2be

network_body._body_endoder.seq_layers.0.bias f4 [128]
-0.10874853 0.027839538 0.015669672 -0.014298952 -0.059917524 0.063827306 -0.02226568 -0.023752088
-0.008383363 -0.08471606 -0.019747073 -0.009234244 0.022560569 0.029793043 0.037509415 -0.028115783
-0.006434446 0.027688297 -0.035208132 -0.060958315 -0.013161987 0.036866266 0.007841128 0.0023550896
-0.084675014 -0.020313973 -0.068681195 -0.040087763 0.032110725 0.046136767 -0.09198175 0.008992854
0.035797693 0.054178335 -0.006142695 0.025359655 -0.02999115 0.029416498 0.0058084754 -0.063038744
-0.029796727 -0.08650409 -0.0480885 0.0010682115 -0.0152468495 -0.07783349 -0.10953858 -0.046277184
-0.027907044 0.020868236 0.013714696 -0.03826094 0.040612563 -0.07284905 -0.0069085266 -0.0010743106
0.0036028605 -0.008657539 0.020385109 0.019264217 0.00788229 -0.096434675 -0.0009219752 0.024899442
0.056000534 -0.05569873 -0.0031691394 -0.01399331 0.0063900063 -0.042319156 0.018437909 -0.0017136373
0.04421203 -0.107632585 -0.06345223 0.04685715 -0.0042267814 0.00031985305 -0.05363798 0.02641656
-0.047878366 0.001994703 -0.022044439 0.008703604 -0.0063737375 0.0035088577 -0.020604707 -0.05374074
-0.07614504 0.0034239315 -0.035850726 0.009567206 -0.09743625 -0.07450351 -0.010250993 -0.004849807
-0.06184039 -0.04822363 -0.0296611 -0.0037139852 -0.0846119 -0.056556057 0.0027360509 -0.103282206
-0.04047671 -0.0053855153 -0.04041079 -0.014275358 -0.0662432 0.0035659221 -0.120089896 -0.0155392345
0.03170792 -0.025374632 -0.060305122 -0.039677326 0.0006741529 0.028504657 -0.022692995 0.027617507
-0.11295089 0.0013867851 -0.031969395 0.049529474 0.04358053 -0.004982044 -0.040563308 -0.05021512
00000000: 8db7 debd be0f e43c af5d 803c 2746 6abc
00000010: 146c 75bd e4b7 823d 8466 b6bc bd93 c2bc
00000020: 5f5a 09bc 9d7f adbd 9dc4 a1bc 3a4b 17bc
00000030: f1d0 b83c 8a10 f43c 79a3 193d 1253 e6bc
00000040: 0cd8 d2bb 91d2 e23c 6736 10bd 6daf 79bd
00000050: 60a5 57bc 1501 173d 1378 003c d957 1a3b
00000060: 186a adbd 7d69 a6bc baa8 8cbd 1133 24bd
00000070: 8986 033d e8f9 3c3d ee60 bcbd c356 133c
00000080: 9aa0 123d 1aea 5d3d a948 c9bb 0dbf cf3c
00000090: 00b0 f5bc defa f03c 0655 be3b 751a 81bd
000000a0: 4418 f4bc 0e29 b1bd 72f8 44bd 3b03 8c3a
000000b0: eccd 79bc 2a67 9fbd c355 e0bd 258d 3dbd
000000c0: 509d e4bc ddf3 aa3c 9bb3 603c 81b7 1cbd
000000d0: 5c59 263d e231 95bd ec60 e2bb e2cf 8cba
000000e0: f81d 6c3b 5ad8 0dbc acfe a63c fecf 9d3c
000000f0: b824 013c 8b7f c5bd b5b0 71ba eaf9 cb3c
00000100: d160 653d 5a24 64bd 56b1 4fbb 3244 65bc
00000110: 4263 d13b da56 2dbd 190b 973c 209c e0ba
00000120: ac17 353d 796e dcbd 3ef3 81bd 48ed 3f3d
00000130: d080 8abb f3b1 a739 80b3 5bbd 8b67 d83c
00000140: 1b1c 44bd 90b9 023b 8a96 b4bc 9099 0e3c
00000150: c9da d0bb ddf4 653b 34cb a8bc 401f 5cbd
00000160: eef1 9bbd 0a64 603b 36d8 12bd c5bf 1c3c
00000170: a88c c7bd 4c95 98bd c8f3 27bc 21eb 9ebb
00000180: 594c 7dbd 2486 45bd d6fb f2bc 5566 73bb
00000190: 0149 adbd 53a7 67bd 514f 333b 9f85 d3bd
000001a0: e8ca 25bd fa78 b0bb c985 25bd 31e3 69bc
000001b0: 84aa 87bd 3fb2 693b b1f1 f5bd 4698 7ebc
000001c0: 2ae0 013d 76de cfbc 8102 77bd b184 22bd
000001d0: a3b9 303a 9982 e93c a9e6 b9bc 1c3e e23c
000001e0: cc52 e7bd c9c4 b53a 57f2 02bd 6bdf 4a3d
000001f0: 7f81 323d 6a40 a3bb b625 26bd 5fae 4dbd

network_body._body_endoder.seq_layers.2.weight f4 [128, 128]
0.0019970431 -0.12312821 -0.07895463 -0.021632945 0.106940165 -0.099726446 -0.06580185 0.0562976
-0.18799685 -0.15546916 0.13297212 -0.02759948 -0.050292235 0.12727527 -0.12342792 0.0454313
-0.0298155 0.12585294 -0.09709038 0.008920827 0.057813883 -0.053515565 -0.038484707 0.0023857898
-0.0025520357 -0.10033096 0.0529893 0.05024092 0.018814426 -0.10573163 -0.06524217 -0.1457666
-0.19290917 -0.0026471063 -0.05752479 -0.08194583 -0.053299095 0.018277414 0.09721347 -0.018005196
-0.0032471642 0.04288928 -0.064754784 0.0014406018 -0.06790717 0.11920449 -0.041553304 -0.057103705
-0.04791531 0.03376173 -0.033320438 0.052725244 -0.0008299559 0.048935696 0.18788783 -0.08765303
0.056116376 0.120896176 -0.1154279 0.1268802 0.13029656 -0.009841677 -0.04768017 0.100756936
0.089635156 0.086953 0.10252524 -0.02119816 -0.0068938266 -0.067484945 0.16905469 -0.10484621
0.017413175 -0.07458252 0.020580202 0.1500876 0.076111846 0.120538995 0.31180444 -0.20847394
0.006877818 0.010829227 -0.020285124 0.09412443 0.012899966 0.13795458 -0.13054883 -0.029177312
0.040983178 0.057199765 0.023155784 -0.062567756 -0.09771149 -0.0722087 0.07795994 -0.14262927
0.04501885 0.122973904 0.08630646 0.06716382 0.0020817383 0.08603644 0.20940135 -0.092252
-0.11489748 0.07860784 -0.0037341362 0.036664356 0.07422096 -0.021609848 -0.041110586 0.07686151
-0.04957909 -0.018738344 0.03824011 0.0041624666 0.0036574558 0.06456954 0.05839215 -0.08158137
-0.13720304 -0.10513363 0.051629014 -0.109043814 0.22084498 -0.0037339046 0.011149764 0.051331755
-0.16646694 -0.07578308 0.022975054 -0.07474867 0.0097991815 0.09284442 0.064882554 -0.093444414
-0.08166192 -0.06990831 -0.24621952 0.03488299 0.13952258 -0.033849563 -0.11694631 0.06253714
0.0654387 -0.12583682 0.10076539 0.2339771 0.0016187921 -0.07912898 0.04969942 0.046271518
-0.22656307 -0.10492879 0.24155582 0.030725263 -0.1284721 -0.13817658 0.11213445 -0.06947838
-0.2979241 -0.18583809 -0.057665702 -0.060150184 -0.0728744 0.033157036 -0.18024793 0.08529801
0.040400118 -0.010549862 -0.016841857 -0.016524708 -0.084160544 0.023268972 -0.13692695 -0.033207696
-0.045143656 -0.05546626 -0.07811852 0.03220641 -0.05792375 -0.12944916 -0.0019027918 0.05794646
-0.10972235 -0.013884964 0.035379604 -0.043743584 -0.12857303 -0.16030581 -0.10509663 -0.0065401564
0.010643055 0.026024597 0.021748457 0.011027534 0.053395357 0.016080063 -0.06305311 0.026140084
-0.10765548 0.0256405 -0.11422447 0.034968533 0.04193376 0.16592026 -0.017723765 -0.0142462235
-0.03783894 0.06175165 -0.065010644 0.07647374 -0.020359425 -0.0110829985 -0.06322912 -0.09941131
-0.08850572 -0.0029614705 -0.051700614 -0.11873535 -0.00052086817 0.05541839 0.038717814 0.040796444
0.13303761 -0.121082105 -0.13730937 0.13759716 0.082860954 0.13047944 0.011233298 0.003678077
-0.009246593 0.057201933 -0.073074184 -0.18297271 -0.17479487 -0.06161798 -0.021530887 0.023861434
0.05295126 -0.069135815 -0.02513607 -0.07850631 -0.06688599 0.03150712 -0.08340897 -0.10851007
-0.115839444 -0.03719962 -0.082902364 -0.04335339 -0.19909172 0.0016298457 0.009770985 0.036844745
00000000: d3e0 023b a52a fcbd f7b2 a1bd 9337 b1bc
00000010: 7203 db3d 613d ccbd 1fc3 86bd 5098 663d
00000020: 3f82 40be 4f33 1fbe d829 083e 4e18 e2bc
00000030: 3bff 4dbd 7354 023e c7c7 fcbd 2c16 3a3d
00000040: a33f f4bc 98df 003e 52d7 c6bd a928 123c
00000050: 40ce 6c3d 2333 5bbd 24a2 1dbd e95a 1c3b
00000060: 0e40 27bb 517a cdbd 4f0b 593d 6cc9 4d3d
00000070: b620 9a3c d389 d8bd b09d 85bd d743 15be
00000080: fb89 45be 137b 2dbb 1d9f 6bbd 37d3 a7bd
00000090: 2750 5abd 84ba 953c db17 c73d a27f 93bc
000000a0: 60ce 54bb abac 2f3d 289e 84bd 93d2 bc3a
000000b0: ea12 8bbd 7c21 f43d cc33 2abd 93e5 69bd
000000c0: d842 44bd bd49 0a3d 037b 08bd 6df6 573d
000000d0: 6691 59ba cc70 483d ab65 403e 6f83 b3bd
000000e0: 49da 653d 6a98 f73d 7665 ecbd e2ec 013e
000000f0: 766c 053e fc3e 21bc 484c 43bd a759 ce3d
00000100: a392 b73d 6a14 b23d c1f8 d13d c3a7 adbc
00000110: 9ce5 e1bb 8c35 8abd ac1c 2d3e 9cb9 d6bd
00000120: 13a6 8e3c b8be 98bd d097 a83c 90b0 193e
00000130: 87e0 9b3d 26dd f63d d5a4 9f3e 317a 55be
00000140: 525f e13b 126d 313c fd2c a6bc 4fc4 c03d
00000150: 615a 533c f743 0d3e 98ae 05be 4205 efbc
00000160: fadd 273d 4d4a 6a3d 33b1 bd3c 8623 80bd
00000170: f61c c8bd 28e2 93bd 76a9 9f3d 680d 12be
00000180: b065 383d bed9 fb3d 71c1 b03d 2f8d 893d
00000190: c66d 083b e033 b03d 4f6d 563e 9eee bcbd
000001a0: 5f4f ebbd 26fd a03d 69b8 74bb 5d2d 163d
000001b0: 2901 983d 2307 b1bc 9363 28bd 9169 9d3d
000001c0: 7213 4bbd 2881 99bc a9a1 1c3d 4d65 883b
000001d0: edb1 6f3b 093d 843d 9b2c 6f3d 2214 a7bd
000001e0: f47e 0cbe 4d50 d7bd f278 533d 5d52 dfbd
000001f0: 3025 623e 86b4 74bb 80ad 363c 3f41 523d
00000200: 4f76 2abe 2934 9bbd 2e36 bc3c d515 99bd
00000210: bf8c 203c 3725 be3d 25e1 843d c95f bfbd
00000220: 5d3e a7bd 172c 8fbd f820 7cbe 77e1 0e3d
00000230: 02df 0e3e d7a5 0abd 8c81 efbd 7913 803d
00000240: ba04 863d 5edb 00be 165e ce3d b197 6f3e
00000250: a62d d43a 600e a2bd 9e91 4b3d 3487 3d3d
00000260: 2600 68be e8e4 d6bd 695a 773e 8cb3 fb3c
00000270: 318e 03be 297e 0dbe bfa6 e53d ae4a 8ebd
00000280: 8289 98be 574c 3ebe df32 6cbd 0a60 76bd
00000290: 2c3f 95bd accf 073d ea92 38be b9b0 ae3d
000002a0: 987a 253d 54d9 2cbc eff7 89bc d35e 87bc
000002b0: 5d5c acbd 929e be3c 9436 0cbe cb04 08bd
000002c0: 8ee8 38bd 9730 63bd 9afc 9fbd deea 033d
000002d0: 7441 6dbd 528e 04be 1967 f9ba 4459 6d3d
000002e0: 1db6 e0bd c37d 63bc 34ea 103d 792c 33bd
000002f0: a6a8 03be 3527 24be e73c d7bd cf4e d6bb
00000300: 3560 2e3c 8931 d53c d229 b23c d4ac 343c
00000310: 17b5 5a3d 56ba 833c fd21 81bd bb23 d63c
00000320: 7a7a dcbd 070c d23c 85ee e9bd 2a3b 0f3d
00000330: bcc2 2b3d 00e7 293e 6e31 91bc fe68 69bc
00000340: 01fd 1abd 4cef 7c3d 4d24 85bd 449e 9c3d
00000350: cfc8 a6bc 7795 35bc 457e 81bd 2898 cbbd
00000360: 7d42 b5bd 3b15 42bb 06c4 53bd 852b f3bd
00000370: df8a 08ba 65fe 623d 9296 1e3d 2c1a 273d
00000380: 033b 083e e5f9 f7bd d49a 0cbe 45e6 0c3e
00000390: 01b3 a93d 679c 053e de0b 383c e40b 713b
000003a0: 067f 17bc 934c 6a3d eba7 95bd 335d 3bbe
000003b0: 6dfd 32be 2363 7cbd 8b61 b0bc 0e79 c33c
000003c0: 6ce3 583d 1497 8dbd 29ea cdbc ebc7 a0bd
000003d0: 86fb 88bd 9c0d 013d 52d2 aabd 873a debd
000003e0: 3b3d edbd a15e 18bd b7c8 a9bd 5393 31bd
000003f0: b3de 4bbe 8ca0 d53a 7b16 203c 84ea 163d

network_body._body_endoder.seq_layers.2.bias f4 [128]
-0.025409173 8.420239e-05 0.025209129 0.030504402 0.014415469 0.06349866 0.030057317 0.009980741
0.0076957894 0.077490285 -0.0040173037 -0.02832852 0.026126655 -0.0011892711 0.0039426507 0.01652092
-0.0215596 -0.00073009275 -0.01679607 0.02022241 0.0013649284 0.015331239 0.044106506 0.04151044
0.004311135 -0.016835261 -0.0007356383 -0.00095966074 -0.038693875 -0.022596987 -0.022955222 -0.018203948
0.024270512 0.007382422 -0.030982971 -0.018186666 -0.005328895 -0.03364095 0.02472286 0.0068868627
-0.024610754 0.027271865 0.0072351615 0.018026436 -0.027527327 -0.015275593 -0.036571566 -0.0034757426
0.07003934 0.02882667 -0.00412411 -0.024856213 0.030495247 -0.011382998 0.0008305459 0.024969513
0.012630148 0.03275288 -0.0070146387 0.0018257978 0.037350606 0.036192857 0.028383752 0.014660629
-0.028692838 -0.004737497 0.08842854 0.011465784 -0.02106093 0.021954698 0.025395911 -0.025215672
-0.02531907 0.044214085 -0.03743356 0.052517742 0.007970097 -0.036400974 -0.018449496 -0.011955272
0.0721842 0.013766798 -0.009640398 -0.028375456 0.0592865 -0.024188193 -0.0139273405 -0.03175084
-0.011934263 0.02392189 0.017437136 -0.014382873 0.008404326 -0.014912716 0.08460739 0.030549506
-0.038083173 -0.00067638716 0.037257954 -0.017106557 -0.034170214 0.08569677 -0.012416064 -0.037153915
0.006699129 0.060834434 -0.026046189 -0.023001043 -0.011819028 -0.0153751625 -0.029664038 -0.020040052
0.04262045 0.032342818 0.061340366 -0.020005194 -0.03380713 -0.030488864 0.07177186 0.015229175
0.0023603966 0.08415716 0.012575686 0.028545912 -0.03406645 -0.041767277 -0.020133885 0.07545484
00000000: e626 d0bc d095 b038 6083 ce3c 5ee4 f93c
00000010: dc2e 6c3c 960b 823d c33a f63c 4386 233c
00000020: f62c fc3b 3ab3 9e3d 96a3 83bb 3611 e8bc
00000030: 9107 d63c 51e1 9bba 5a31 813b e156 873c
00000040: c29d b0bc b263 3fba e997 89bc 78a9 a53c
00000050: 66e7 b23a e12f 7b3c 06a9 343d da06 2a3d
00000060: 6c44 8d3b 1aea 89bc dad7 40ba be91 7bba
00000070: 787d 1ebd 511d b9bc 970c bcbc 7220 95bc
00000080: f4d2 c63c 3fe8 f13b 00d0 fdbc 34fc 94bc
00000090: 039e aebb 18cb 09bd 9887 ca3c 31ab e13b
000000a0: 7e9c c9bc 3f69 df3c ef14 ed3b 2dac 933c
000000b0: fd80 e1bc 7b46 7abc 11cc 15bd 49c9 63bb
000000c0: c970 8f3d e925 ec3c 8b23 87bb 429f cbbc
000000d0: 2bd1 f93c c17f 3abc feb8 593a dd8c cc3c
000000e0: aeee 4e3c e227 063d 0edb e5bb 9c4f ef3a
000000f0: f3fc 183d f63e 143d 0b85 e83c 2333 703c
00000100: 3e0d ebbc 013d 9bbb 061a b53d fcda 3b3c
00000110: f987 acbc 57da b33c 160b d03c 1991 cebc
00000120: f069 cfbc d419 353d ef53 19bd d81c 573d
00000130: 0295 023c 3019 15bd 6623 97bc 0ce0 43bc
00000140: 4fd5 933d 238e 613c c3f2 1dbc a573 e8bc
00000150: 67d6 723d 5126 c6bc 802f 64bc 2b0d 02bd
00000160: ed87 43bc d7f7 c33c 53d8 8e3c 24a6 6bbc
00000170: 4cb2 093c 7754 74bc a446 ad3d f542 fa3c
00000180: 1afd 1bbd 934f 31ba cc9b 183d 0d23 8cbc
00000190: 11f6 0bbd ca81 af3d bf6c 4bbc b42e 18bd
000001a0: 5e84 db3b 872d 793d d15e d5bc af6c bcbc
000001b0: 99a4 41bc 1be8 7bbc ff01 f3bc 092b a4bc
000001c0: c892 2e3d e779 043d 0940 7b3d efe1 a3bc
000001d0: 5879 0abd c8c3 f9bc 20fd 923d ca83 793c
000001e0: e2b0 1a3b 975a ac3d 400a 4e3c 1ed9 e93c
000001f0: 4389 0bbd 2a14 2bbd d1ef a4bc 1188 9a3d

action_model._continuous_distribution.log_sigma f4 [1, 2]
-0.14609544 -0.11903021
00000000: 0b9a 15be 1cc6 f3bd

action_model._continuous_distribution.mu.weight f4 [2, 128]
-0.00712415 -0.0061713387 0.013244917 0.03698521 0.019817201 0.122337386 -0.021094471 -0.0045952727
-0.039481837 0.13418713 -0.014966153 0.0017545321 -0.11290856 -0.029990336 -0.070825785 0.038870577
-0.015566229 0.0029371313 -0.016869554 0.022174811 -0.027666762 0.031773694 0.01889558 -0.13514055
0.010062568 -0.015229154 -0.0108542675 0.00986285 -0.008733314 -0.002284137 -0.05195294 -0.063100874
0.030252079 0.010387125 -0.007688831 -0.01090642 0.021020764 -0.02176404 -0.12265642 0.0011556477
-0.0091452105 0.03201117 0.01859304 -0.013949732 -0.0076426915 -0.087012894 -0.008435201 -0.08365477
-0.06571724 0.033464573 0.0019789417 -0.0063771512 0.019770212 0.0030941698 -0.08124071 0.03638797
0.025317399 0.029808162 0.0030355884 0.01814307 -0.03090628 -0.10967433 -0.11602198 0.0059148157
-0.011764962 -0.09141205 0.05036744 0.014957981 -0.015700908 -0.0013563134 -0.081855044 -0.008010864
-0.020294812 0.05514142 -0.0028695539 0.020651292 0.017305791 -0.0036326104 -0.037109315 0.003774811
0.05707481 0.02684767 0.0012168693 -0.009005778 0.04899988 0.007660245 -0.012435402 -0.0059108804
-0.0037844728 0.04251685 0.007929495 0.014767559 0.02079586 -0.011806056 0.06512557 0.052706037
-0.002164158 0.011421948 0.04939351 -0.00011843948 -0.006825945 0.08433555 -0.040400386 -0.0010251043
-0.037863437 0.072325 -0.011673597 -0.0124116475 0.016829798 -0.06366952 -0.012138496 -0.020774843
0.040344063 0.028133443 -0.043290276 0.00070358545 -0.015304255 0.0018795283 0.09093903 0.046498332
0.0011235569 0.07865265 -0.017152462 0.03199209 -0.004949913 -0.04185305 -0.02298248 -0.018162586
0.021333225 0.09747591 0.10382729 -0.017242668 -0.0037271613 -0.026427247 -0.045727547 0.08518155
-0.045517508 0.046093117 -0.030112749 0.0048012356 0.009973125 -0.0601562 0.044055924 0.040488802
-0.0053320862 -0.0074147554 -0.023529211 -0.0074188397 0.0739263 0.05489345 -0.06799322 -0.051219687
0.0061388495 -0.017358325 -0.022512471 0.039670352 0.0012969328 0.038119037 -0.03342819 0.017708916
0.0047005448 -0.012518273 -0.008681539 0.042563006 0.03905719 0.012814102 -0.0275638 -0.0176909
0.020929137 -0.0053223427 -0.012598323 0.08657121 -0.00917316 0.028718619 -0.0057504694 -0.030333946
-0.112286694 0.036458682 -0.030892543 0.010394151 -0.0065837814 0.0016434622 0.00054008537 0.065153316
-0.017897533 -0.017544447 -0.0014837029 0.0129111195 -0.08079027 0.026381109 0.044368193 -0.0043985215
0.011486613 0.020405702 -0.09867098 0.07565702 0.016513212 -0.039379716 -0.07066033 -0.005475085
0.019146474 -0.028134676 0.011587052 -0.07225359 -0.0003493767 -0.010199487 0.029144863 -0.019453103
-0.062940285 -0.00025801352 0.043897405 -0.006577901 -0.0039341236 0.013859767 0.01472536 0.011794314
0.02675768 0.09108767 -0.030597145 0.0014999657 0.009944256 0.024502264 -0.04839419 -0.010600611
0.0009499729 0.019403782 -0.029248795 0.02157044 -0.0060280687 0.09393152 -0.028762031 0.0013103344
0.07756265 0.001545787 0.003637281 0.0228157 0.015367898 0.034078278 -0.0065963883 0.035866875
-0.03355289 -0.032989472 -0.10864765 -0.003516669 0.009798282 -0.005445264 0.020104269 0.041112233
-0.014728617 -0.029057482 -0.05213656 0.033845264 0.008718792 0.0054915315 -0.008505201 -0.11793418
00000000: b471 e9bb f138 cabb 3501 593c ce7d 173d
00000010: af57 a23c 068c fa3d 50ce acbc f193 96bb
00000020: b5b7 21bd 5a68 093e 9834 75bc 54f8 e53a
00000030: 9a3c e7bd 4bae f5bc 1c0d 91bd c136 1f3d
00000040: 7f09 7fbc e37c 403b 0532 8abc f3a7 b53c
00000050: 68a5 e2bc 2225 023d e7ca 9a3c 4962 0abe
00000060: 78dd 243c b483 79bc 19d6 31bc cb97 213c
00000070: 2d16 0fbc 76b1 15bb 9bcc 54bd 083b 81bd
00000080: 35d3 f73c c32e 2a3c 97f2 fbbb d7b0 32bc
00000090: bd33 ac3c 804a b2bc 4a33 fbbd 1a79 973a
000000a0: cbd5 15bc 251e 033d 6e50 983c 6b8d 64bc
000000b0: 8b6f fabb d133 b2bd cc33 0abc 3153 abbd
000000c0: c396 86bd 2612 093d 22b1 013b 6cf7 d0bb
000000d0: 24f5 a13c 8ec7 4a3b 8861 a6bd 8d0b 153d
000000e0: 6f66 cf3c 3f30 f43c b9f0 463b c7a0 943c
000000f0: 2b2f fdbc ef9c e0bd ef9c edbd 12d1 c13b
00000100: d4c1 40bc 3e36 bbbd 174e 4e3d 5212 753c
00000110: 319f 80bc 53c6 b1ba 9ea3 a7bd 0040 03bc
00000120: 4e41 a6bc f8db 613d 200f 3cbb e62c a93c
00000130: e0c4 8d3c 1711 6ebb f0ff 17bd d262 773b
00000140: 47c7 693d a5ef db3c 5c7f 9f3a f88c 13bc
00000150: 19b4 483d cb02 fb3b dbbd 4bbc 0fb0 c1bb
00000160: eb04 78bb 2626 2e3d b6ea 013c a2f3 713c
00000170: 145c aa3c 306e 41bc 8e60 853d 49e2 573d
00000180: 8cd4 0dbb 1f23 3b3c d950 4a3d b662 f8b8
00000190: 2dac dfbb 1eb8 ac3d e07a 25bd cb5c 86ba
000001a0: b116 1bbd 211f 943d 9d42 3fbc 395a 4bbc
000001b0: a5de 893c 2a65 82bd 8be0 46bc 0130 aabc
000001c0: d13f 253d 1b78 e63c 2551 31bd d270 383a
000001d0: b3be 7abc 815a f63a 3e3e ba3d 0975 3e3d
000001e0: 5044 933a a414 a13d 5283 8cbc 230a 033d
000001f0: e132 a2bb 1b6e 2bbd c145 bcbc b4c9 94bc
00000200: 04c3 ae3c 73a1 c73d 67a3 d43d 7f40 8dbc
00000210: 6443 74bb f47d d8bc cf4c 3bbd aa73 ae3d
00000220: 9170 3abd 23cc 3c3d 03af f6bc af53 9d3b
00000230: 5166 233c 5966 76bd fc73 343d 96d7 253d
00000240: c8b8 aebb 7af7 f2bb 55c0 c0bc bd19 f3bb
00000250: ac66 973d f4d7 603d 0840 8bbd bccb 51bd
00000260: 6728 c93b 0c33 8ebc 136c b8bc 617d 223d
00000270: d8fd a93a b522 1c3d ffeb 08bd 4a12 913c
00000280: 0707 9a3b 7119 4dbc 043d 0ebc 8c56 2e3d
00000290: 6ffa 1f3d 3df2 513c 7acd e1bc 82ec 90bc
000002a0: 9573 ab3c 0c67 aebb 3269 4ebc 3f4c b13d
000002b0: 064b 16bc 4f43 eb3c 6f6e bcbb e57e f8bc
000002c0: 91f6 e5bd b355 153d 5c12 fdbc 3b4c 2a3c
000002d0: c3bc d7bb 7169 d73a 8494 0d3a 1a6f 853d
000002e0: d99d 92bc 5fb9 8fbc cf78 c2ba 2989 533c
000002f0: 5e75 a5bd 321d d83c 6cbb 353d 7921 90bb
00000300: 5932 3c3c dc29 a73c 0314 cabd 11f2 9a3d
00000310: b746 873c a04c 21bd 5db6 90bd 5868 b3bb
00000320: 11d9 9c3c b17a e6bc 9ed7 3d3c b1f9 93bd
00000330: 8c2c b7b9 c01b 27bc 35c1 ee3c 1d5c 9fbc
00000340: d6e6 80bd fd45 87b9 c4cd 333d 6f8b d7bb
00000350: d2e9 80bb 1314 633c a342 713c f03c 413c
00000360: ec32 db3c 2c8c ba3d dda6 fabc 7f9a c43a
00000370: 3ced 223c f9b8 c83c fc38 46bd 2fae 2dbc
00000380: 9a07 793a aef4 9e3c 2b9b efbc 7eb4 b03c
00000390: 1b87 c5bb 2b5f c03d 5a9e ebbc 87bf ab3a
000003a0: 2bd9 9e3d 019c ca3a 735f 6e3b fee7 ba3c
000003b0: a3c9 7b3c aa95 0b3d 8426 d8bb 25e9 123d
000003c0: c16e 09bd f81f 07bd a982 debd ea77 66bb
000003d0: f988 203c 2f6e b2bb b5b1 a43c 4d65 283d
000003e0: 4c50 71bc f509 eebc 258d 55bd 55a1 0a3d
000003f0: 44d9 0e3c 4ef2 b33b 6659 0bbc 7a87 f1bd

action_model._continuous_distribution.mu.bias f4 [2]
0.024282146 -0.011943968
00000000: 5aeb c63c a2b0 43bc

exp_avg f4 [128, 8]
0.00012511086 0.00017047327 0.00024682336 -2.1995525e-06 0.0002322877 5.62417e-05 -1.838643e-05 0.00011129337
-0.00070361455 0.000114052295 0.00042335823 -2.9732235e-05 0.0002406773 0.00092107174 -5.56053e-05 0.0004500817
0.00021321372 -9.089622e-06 -0.00019334318 -6.0046286e-06 -0.0001300199 -0.00022349176 0.00011154255 -0.000113635484
-6.180793e-06 -0.00021178782 0.00016461882 -0.00016826663 1.4873854e-05 0.0002289041 0.00022342533 4.1110423e-05
0.00019241849 -0.0002176638 0.00020515354 6.6591674e-05 0.00040284527 0.00014507133 -1.842343e-05 -6.4223066e-05
-0.00019114652 0.00014844749 -0.0003618118 0.00025387952 5.473868e-05 -0.00028052527 -0.00031815952 0.00011747575
2.200348e-05 -1.0377755e-05 0.00013422119 -0.0001397106 -9.619353e-05 0.00011359197 0.00021135123 -6.956736e-05
-0.0001452905 0.000523319 5.807365e-05 -0.0001436908 4.651489e-05 0.00020514773 -0.00019345063 0.0006248808
0.00036603512 8.7797285e-05 0.00029378562 -5.088535e-05 -0.00024303449 -3.4215516e-06 0.0001758101 -0.00027111016
8.732996e-06 5.538819e-05 0.00012231254 3.589435e-05 3.0601022e-05 -2.9223595e-05 -6.682587e-05 -4.723345e-05
0.0002175412 -0.00034994117 0.00039974085 -0.00043781888 -7.896994e-05 0.00035065977 0.00042346772 0.00013234653
-0.0004359387 0.00042069584 0.00026146884 -0.00020256572 0.000514235 0.0004937663 -0.00011141697 0.0004373674
-0.0001494344 0.00015612527 -0.0006171059 0.0003192094 6.637871e-05 -0.0005643676 -0.0005515439 -3.155228e-05
-0.00026135423 0.00015698696 9.688685e-05 3.5706045e-05 0.00011398994 0.00021394849 -6.229764e-05 0.00018365697
0.0005174275 -0.00032107273 -9.1421076e-05 -1.0711529e-05 -0.00022774487 -0.0004741094 -0.000107969594 -0.00042249224
0.00041831675 -2.0596022e-05 2.3467814e-05 -4.1303592e-05 -0.00016847427 -0.00010421148 1.626576e-06 -0.00020091626
-0.000581517 0.0003126785 -0.00015767117 0.00028652596 3.3421904e-05 0.00014174695 -0.00048802403 0.00036365108
0.0009104568 0.00012711536 -0.0003816681 0.00014637715 -0.00060585415 -0.0009522007 -4.859054e-06 -0.0005411414
-3.499811e-05 2.743259e-05 0.00019323661 -8.823687e-05 0.00011565124 9.539604e-05 -3.7058024e-05 9.906165e-05
-0.00042171104 0.00022462626 1.1308991e-05 -5.033687e-05 0.00032451545 0.00017712305 -0.00016490956 -2.2434429e-06
6.731536e-05 -6.748849e-05 8.0448845e-05 -4.8487367e-05 1.41286655e-05 0.000105146595 0.00010517312 -2.5140043e-05
3.457995e-05 2.9527713e-05 0.0003438817 -0.0001595815 -0.00041055397 0.0004087767 0.00035867598 -6.7250985e-05
-0.00041850415 0.00023175262 -0.00027256826 0.00064499956 0.00023119047 -0.00039831924 -0.0007969712 9.802074e-05
-0.00023926038 4.698792e-05 -6.340965e-05 4.055344e-05 8.8587185e-05 0.00015052616 -0.00010735546 0.0001826057
0.00020333771 6.492151e-05 0.00010586817 -1.3192805e-05 -2.7084825e-05 -7.746884e-05 -6.0566177e-05 -0.00018041028
0.00039187277 -1.5579079e-05 -5.1667208e-05 -0.00013477384 -0.00012810995 -8.679596e-05 0.00021507862 -0.00013084592
0.00035124677 0.00010737478 0.00015494322 8.705095e-05 8.411625e-05 -0.00029793728 -0.00011897639 -0.00017607966
0.00019413955 -0.00012780538 0.0001043222 0.00014191767 0.0002697634 -8.401723e-05 -7.9278514e-05 -3.1645755e-05
-0.00019628934 9.212603e-05 0.00010765037 0.0001503201 0.00023478043 0.00036022798 -0.00014270985 0.0004381165
6.1184226e-05 -0.0009962616 2.0952892e-05 -0.00049332867 0.0002556948 0.00032042793 0.0011265415 -0.00020029023
-0.00010668303 5.610473e-05 0.00018290445 -7.944296e-05 0.0002768524 0.00011343567 -8.921597e-05 0.0002033434
-9.947879e-05 5.421368e-05 0.00016321805 0.0001612773 1.6235786e-05 0.00013093863 -4.2837266e-05 7.1595205e-05
00000000: 3130 0339 12c1 3239 1268 8139 069c 13b6
00000010: 4192 7339 11e5 6b38 8f3c 9ab7 2c66 e938
00000020: c672 38ba 5c2f ef38 2ef6 dd39 7d69 f9b7
00000030: 525e 7c39 1474 713a bc39 69b8 f1f8 eb39
00000040: 1f92 5f39 a17f 18b7 2abc 4ab9 5e7b c9b6
00000050: f355 08b9 1d59 6ab9 f3eb e938 964f eeb8
00000060: 9c64 cfb6 5c13 5eb9 879d 2c39 bb70 30b9
00000070: b78a 7937 fa05 7039 4847 6a39 fb6d 2c38
00000080: f2c3 4939 ae3c 64b9 7c1e 5739 22a7 8b38
00000090: fa34 d339 4a1e 1839 048c 9ab7 7faf 86b8
000000a0: 816e 48b9 92a8 1b39 8fb1 bdb9 221b 8539
000000b0: 3697 6538 7713 93b9 a6ce a6b9 505d f638
000000c0: 1d94 b837 1e1c 2eb7 babd 0c39 477f 12b9
000000d0: 82bb c9b8 3938 ee38 2a9e 5d39 b1e4 91b8
000000e0: 1f59 18b9 582f 093a 1b94 7338 b5ab 16b9
000000f0: fc18 4338 ed1c 5739 02d9 4ab9 0acf 233a
00000100: 67e8 bf39 cf1f b838 3d07 9a39 bb6d 55b8
00000110: 13d7 7eb9 cf9d 65b6 aa59 3839 ca23 8eb9
00000120: ef83 1237 9e50 6838 0641 0039 448d 1638
00000130: 9959 0038 3125 f5b7 de24 8cb8 881c 46b8
00000140: c51b 6439 4f78 b7b9 4f94 d139 0e8b e5b9
00000150: aa9c a5b8 c2d8 b739 e004 de39 80c6 0a39
00000160: b48e e4b9 d790 dc39 c115 8939 d267 54b9
00000170: bacd 063a 1870 013a 88a8 e9b8 754e e539
00000180: 7eb1 1cb9 8fb5 2339 47c5 21ba 8f5b a739
00000190: cc34 8b38 12f2 13ba 7c95 10ba 0157 04b8
000001a0: 5f06 89b9 de9c 2439 bb2f cb38 13c3 1538
000001b0: e20d ef38 5c57 6039 caa5 82b8 0b94 4039
000001c0: f9a3 073a a755 a8b9 51b9 bfb8 abb5 33b7
000001d0: ccce 6eb9 e391 f8b9 bc6d e2b8 f381 ddb9
000001e0: 8651 db39 9fc5 acb7 bfdc c437 653d 2db8
000001f0: 78a8 30b9 1d8c dab8 ba50 da35 0cad 52b9
00000200: f270 18ba ffee a339 8854 25b9 dd38 9639
00000210: 7f2e 0c38 e8a1 1439 7add ffb9 6ca8 be39
00000220: b9ab 6e3a 454a 0539 a01a c8b9 d17c 1939
00000230: 2fd2 1eba 1b9d 79ba f50a a3b6 62db 0dba
00000240: efca 12b8 0a1f e637 8f9f 4a39 cf0b b9b8
00000250: c989 f238 5c0f c838 c06e 1bb8 52bf cf38
00000260: 1919 ddb9 a789 6b39 bfbb 3d37 cd20 53b8
00000270: ba23 aa39 1bba 3939 93eb 2cb9 0e8e 16b6
00000280: a92b 8d38 9b88 8db8 a5b6 a838 ea5e 4bb8
00000290: 280a 6d37 2682 dc38 6490 dc38 d5e3 d2b7
000002a0: f009 1138 48b2 f737 054b b439 5555 27b9
000002b0: 9f3f d7b9 1451 d639 ad0c bc39 1909 8db8
000002c0: ad6a dbb9 9f02 7339 7ee7 8eb9 3015 293a
000002d0: b86b 7239 81d5 d0b9 d5eb 50ba 7c90 cd38
000002e0: f8e1 7ab9 e514 4538 ccfa 84b8 ed17 2a38
000002f0: e2c7 b938 8fd6 1d39 0624 e1b8 d879 3f39
00000300: 0d37 5539 7826 8838 8a05 de38 ab56 5db7
00000310: 3834 e3b7 c476 a2b8 7008 7eb8 842c 3db9
00000320: 4674 cd39 d1af 82b7 3eb5 58b8 1452 0db9
00000330: 4155 06b9 3a06 b6b8 ba86 6139 af33 09b9
00000340: 8b27 b839 652e e138 4178 2239 1f8f b638
00000350: 9167 b038 7734 9cb9 f782 f9b8 06a2 38b9
00000360: f091 4b39 7f03 06b9 8ec7 da38 bccf 1439
00000370: 086f 8d39 6832 b0b8 5442 a6b8 5fbb 04b8
00000380: 05d3 4db9 c933 c138 5ac2 e138 3f9f 1d39
00000390: 642f 7639 fbdc bc39 62a4 15b9 00b3 e539
000003a0: 0850 8038 fe94 82ba fec3 af37 ba52 01ba
000003b0: c60e 8639 1cff a739 76a8 933a 0005 52b9
000003c0: 04bb dfb8 ff51 6b38 0aca 3f39 9d9a a6b8
000003d0: 8026 9139 50e4 ed38 7619 bbb8 9438 5539
000003e0: 459f d0b8 7f63 6338 8325 2b39 8c1c 2939
000003f0: 1632 8837 924c 0939 2aac 33b8 6225 9638

exp_avg_sq f4 [128, 8]
1.6266262e-06 1.5996991e-06 1.554145e-06 9.341997e-07 1.6840379e-06 7.3135686e-07 1.7720719e-06 1.1729433e-06
1.3065529e-05 2.2047307e-05 1.15962985e-05 8.191078e-06 2.0197438e-05 5.456322e-06 8.352835e-06 1.07438655e-05
2.1235142e-06 2.7707667e-06 1.674703e-06 8.709775e-07 3.335441e-06 1.3108809e-06 1.6921985e-06 2.4867002e-06
5.822891e-07 8.3778724e-07 8.1514577e-07 2.6283016e-07 1.0818346e-06 3.4561106e-07 1.0238653e-06 7.331228e-07
1.3699715e-06 1.4889476e-06 1.1669097e-06 6.4964183e-07 1.5434535e-06 6.882227e-07 9.309761e-07 8.835609e-07
1.386794e-06 1.7045041e-06 1.1981818e-06 7.5116577e-07 2.2191489e-06 6.4219256e-07 9.568873e-07 1.5415828e-06
7.779788e-07 7.2993225e-07 6.64377e-07 3.1927732e-07 6.275912e-07 3.8976037e-07 7.010104e-07 4.7207752e-07
5.9297136e-06 8.020527e-06 5.2531936e-06 2.0350105e-06 5.1562583e-06 3.2184182e-06 5.0537783e-06 5.4009415e-06
1.1647171e-06 1.11666e-06 6.799195e-07 4.0331486e-07 7.954172e-07 3.639434e-07 6.418626e-07 6.2391683e-07
9.2289815e-07 1.6554098e-06 7.9063904e-07 3.9438746e-07 8.812264e-07 5.5716424e-07 8.7149823e-07 7.6360953e-07
4.7520166e-06 5.139023e-06 3.783077e-06 2.0837679e-06 6.1650685e-06 2.4458843e-06 3.5478322e-06 3.203463e-06
4.6510704e-06 5.5896476e-06 4.208825e-06 1.9155116e-06 4.0769837e-06 2.3475036e-06 3.4641703e-06 3.489788e-06
6.496591e-06 6.179959e-06 6.111344e-06 3.975642e-06 7.0238243e-06 3.5404234e-06 5.9914105e-06 4.2784823e-06
9.800185e-07 1.1177738e-06 1.0087042e-06 5.9418267e-07 8.063847e-07 4.8577664e-07 7.329149e-07 5.7387433e-07
4.6666964e-06 4.577699e-06 5.1389084e-06 2.5879901e-06 4.0545797e-06 2.1485514e-06 3.7623831e-06 2.7613496e-06
4.97607e-07 5.931921e-07 3.5034276e-07 3.9703383e-07 6.23604e-07 2.2192862e-07 7.958712e-07 4.724708e-07
5.7475236e-06 9.0866515e-06 6.2361914e-06 3.7385546e-06 1.0270865e-05 2.7966885e-06 4.215905e-06 6.213053e-06
1.1193459e-05 1.2840057e-05 8.511802e-06 3.537179e-06 1.0623952e-05 4.832689e-06 7.4940435e-06 8.024113e-06
3.710082e-07 1.0190929e-06 5.245173e-07 4.3590015e-07 1.3667736e-06 3.1107214e-07 8.0967106e-07 8.0054224e-07
1.73355e-06 1.3992678e-06 1.52151e-06 8.117792e-07 1.0171505e-06 6.875055e-07 1.1858999e-06 9.3420067e-07
1.7037998e-07 1.8890383e-07 1.895733e-07 1.7709502e-07 1.5942874e-07 7.421012e-08 1.4500989e-07 9.837727e-08
5.29487e-06 4.7965787e-06 4.302437e-06 2.7870265e-06 3.8512235e-06 2.2224965e-06 2.9374678e-06 2.522642e-06
1.2666652e-05 1.2447721e-05 1.1284436e-05 4.308809e-06 1.1403547e-05 5.6441454e-06 9.100611e-06 9.123154e-06
1.166255e-06 1.6965917e-06 1.5256835e-06 7.1049897e-07 1.7403785e-06 5.102682e-07 8.922059e-07 9.0145943e-07
3.7880068e-07 5.116052e-07 3.1084357e-07 1.8210775e-07 5.0962467e-07 2.1785524e-07 5.438419e-07 4.0614876e-07
1.1329269e-06 1.1344426e-06 5.3759254e-07 4.502482e-07 1.0178167e-06 4.4024236e-07 7.4178865e-07 6.599616e-07
1.0940921e-06 9.627852e-07 7.474861e-07 3.1851945e-07 9.420687e-07 5.9662835e-07 6.4328924e-07 8.9851045e-07
9.094464e-07 1.1636995e-06 7.3707486e-07 3.1892415e-07 8.1746583e-07 5.6377695e-07 6.771343e-07 6.633381e-07
6.848399e-06 1.4216387e-05 8.050305e-06 6.017496e-06 1.1359416e-05 3.3148297e-06 6.086207e-06 6.0225e-06
1.0385002e-05 1.7718652e-05 1.1287479e-05 6.537576e-06 1.51071345e-05 5.1820175e-06 9.564864e-06 9.508174e-06
9.0106636e-07 1.3227642e-06 7.957975e-07 3.1143185e-07 1.0652449e-06 5.4760574e-07 8.155935e-07 9.815165e-07
8.805213e-07 5.936159e-07 5.4240695e-07 2.6185236e-07 4.2669316e-07 2.9713703e-07 3.632959e-07 3.0908947e-07
00000000: 7352 da35 3eb5 d635 0498 d035 b7c5 7a35
00000010: 1a07 e235 7652 4435 edd7 ed35 066e 9d35
00000020: 0534 5b37 3bf2 b837 b98d 4237 6a6c 0937
00000030: ab6d a937 7315 b736 2723 0c37 8d40 3437
00000040: b281 0e36 69f1 3936 5bc6 e035 1ecd 6935
00000050: 71d6 5f36 86f1 af35 7f1f e335 2fe1 2636
00000060: 9a4e 1c35 4de4 6035 64d0 5a35 1a1b 8d34
00000070: 8e33 9135 6c8c b934 be6b 8935 d1cb 4435
00000080: dddf b735 dad7 c735 b69e 9c35 0c63 2e35
00000090: a928 cf35 4ebe 3835 31e8 7935 d82d 6d35
000000a0: e121 ba35 51c6 e435 37d1 a035 b8a3 4935
000000b0: b0ec 1436 2363 2c35 666e 8035 62e8 ce35
000000c0: 4cd6 5035 90f0 4335 a457 3235 2469 ab34
000000d0: bd77 2835 4240 d134 112d 3c35 d771 fd34
000000e0: daf7 c636 e78f 0637 9744 b036 3791 0836
000000f0: ec03 ad36 01fc 5736 a093 a936 bc39 b536
00000100: 6053 9c35 25e0 9535 b683 3635 2c87 d834
00000110: a784 5535 0064 c334 764c 2c35 3d7b 2735
00000120: 14bd 7735 732f de35 4d3c 5435 33bc d334
00000130: 6b8d 6c35 0990 1535 e7f0 6935 d9fa 4c35
00000140: 8373 9f36 df6f ac36 c5e0 7d36 dcd6 0b36
00000150: 89dd ce36 f923 2436 4b17 6e36 13fb 5636
00000160: 6410 9c36 b58e bb36 8839 8d36 3d8c 0036
00000170: 06cd 8836 ce89 1d36 fe79 6836 1a32 6a36
00000180: 4bfd d936 725d cf36 0c10 cd36 8166 8536
00000190: 31ae eb36 0398 6d36 d309 c936 e28f 8f36
000001a0: 2e89 8335 6a06 9635 d062 8735 ec7f 1f35
000001b0: 5676 5835 5166 0235 87bd 4435 580c 1a35
000001c0: 9e96 9c36 239a 9936 e36e ac36 55ad 2d36
000001d0: 930c 8836 d52f 1036 407d 7c36 a04f 3936
000001e0: 4b93 0535 da3b 1f35 be16 bc34 ea27 d534
000001f0: be65 2735 464b 6e34 daa3 5535 e4a7 fd34
00000200: dada c036 df72 1837 7a40 d136 e1e3 7a36
00000210: 0751 2c37 beae 3b36 5976 8d36 b879 d036
00000220: 8acb 3b37 a06b 5737 e9cd 0e37 4660 6d36
00000230: 873d 3237 7b28 a236 5875 fb36 4e9f 0637
00000240: fb2e c734 c4c7 8835 8ecc 0c35 a905 ea34
00000250: fc71 b735 6e01 a734 2c58 5935 d8e4 5635
00000260: 53ac e835 7ace bb35 af36 cc35 0be9 5935
00000270: 0685 8835 058d 3835 362b 9f35 c8c5 7a35
00000280: b1f1 3634 7dd5 4a34 838d 4b34 8227 3e34
00000290: 702f 2b34 725d 9f33 04b4 1b34 7a43 d333
000002a0: 96aa b136 4cf2 a036 a75d 9036 c008 3b36
000002b0: c239 8136 3326 1536 5021 4536 a94a 2936
000002c0: db82 5437 8ed6 5037 4952 3d37 6394 9036
000002d0: dd51 3f37 d762 bd36 d4ae 1837 a60f 1937
000002e0: 3788 9c35 72b6 e335 16c6 cc35 1eb9 3e35
000002f0: f396 e935 5df9 0835 ec7f 6f35 d2fb 7135
00000300: f85d cb34 3e55 0935 04e2 a634 6689 4334
00000310: 24cd 0835 98eb 6934 88fc 1135 a90c da34
00000320: 120f 9835 2743 9835 144f 1035 a4b9 f134
00000330: ea9b 8835 735a ec34 541f 4735 3728 3135
00000340: b8d8 9235 0c39 8135 dba6 4835 fb00 ab34
00000350: 78e2 7c35 fd27 2035 80ae 2c35 2b31 7135
00000360: ae20 7435 6930 9c35 66db 4535 9a38 ab34
00000370: d36f 5b35 7556 1735 51c4 3535 3f10 3235
00000380: 4dcb e536 eb82 6e37 cc0f 0737 e6e9 c936
00000390: 5294 3e37 5774 5e36 1f38 cc36 e214 ca36
000003a0: 3e3b 2e37 84a2 9437 5a5f 3d37 5a5d db36
000003b0: a674 7d37 31e1 ad36 c778 2037 4c85 1f37
000003c0: cfe0 7135 d589 b135 ca9e 5535 de32 a734
000003d0: 89f9 8e35 2eff 1235 29ef 5a35 a6bc 8335
000003e0: f75c 6c35 f958 1f35 ec99 1135 b794 8c34
000003f0: 4314 e534 3486 9f34 020b c334 eff0 a534

exp_avg f4 [128]
0.00012426823 0.0008108278 7.573574e-05 0.0003157443 -9.733632e-05 -0.00062828383 0.00044178986 -3.7223064e-05
0.0005056586 -0.00018304045 0.0011754768 0.00018162595 -0.0010666548 0.000102556 -0.00047035955 0.00027839138
-0.0006820779 -0.0002353694 0.0002524203 -0.0002935629 9.2594215e-05 0.00092669623 -0.0017019759 -6.6983885e-05
-6.123969e-05 0.00030712393 -0.00025857898 -0.00018272104 0.00027160175 0.0004894249 -2.5661655e-05 -1.0840763e-05
0.0012441998 0.0007152059 0.00013673426 -8.8715096e-05 -0.000215145 0.00069049484 0.0020200696 0.0005098062
0.00035739862 0.0004455667 0.00017304558 -0.00063804875 0.00023913455 0.00091024116 0.0009937529 0.0005041251
0.0007952813 -6.528066e-05 -0.0007239734 0.00034326973 8.1327846e-05 1.3308607e-05 0.00018949766 -9.5503645e-05
0.00055900385 -0.0004678629 0.00026971384 0.0007501731 -0.00086148974 0.0003775135 -0.00058684184 0.0001959645
0.00014602704 0.00013744624 -0.00013196032 -0.001071027 -0.00044634638 0.00012621518 -0.00030792356 -0.0011103442
0.00055989414 -8.700907e-05 0.00032035058 -0.00036862513 3.5388566e-05 -0.0007721684 -0.00025282954 -0.00029633782
0.00047558662 -0.0008801564 -4.793814e-06 -0.00017821671 -0.00049155415 -0.00052640913 -0.00062603963 0.00043358342
-0.00016863148 -0.00017165317 0.0008033518 -7.980108e-05 0.00011561386 -0.0002556712 -0.00019299731 0.00016579844
-0.00028997427 -1.42859335e-05 -0.00046799154 -0.00082304515 0.00033628297 0.00034175365 -0.00059104577 0.0003639778
0.00012258945 0.0005555134 -0.0005539369 4.742967e-05 0.00029276067 -0.00046850732 -0.00016812189 -0.0002598583
6.950829e-05 -0.0005534153 0.00030684445 -0.00012836266 -0.00020227431 -3.482886e-05 -0.00030209497 0.0003045589
0.00030768674 -0.00025150875 -0.0002755584 0.00034071406 0.0012996915 -9.329514e-05 -1.5128154e-05 0.0001913728
00000000: 004e 0239 bc8d 543a 51d4 9e38 7c8a a539
00000010: 0a21 ccb8 6ab3 24ba 08a0 e739 f61f 1cb8
00000020: 2d8e 043a 8cee 3fb9 7512 9a3a d872 3e39
00000030: ffce 8bba 5513 d738 979a f6b9 0ff5 9139
00000040: 79cd 32ba 7ecd 76b9 4757 8439 58e9 99b9
00000050: 242f c238 88ed 723a d614 dfba b379 8cb8
00000060: cf6d 80b8 7a05 a139 e291 87b9 ce98 3fb9
00000070: c565 8e39 c04c 003a fc43 d7b7 b9e0 35b7
00000080: 6b14 a33a a87c 3b3a 5360 0f39 8e0c bab8
00000090: 8c98 61b9 5302 353a 2563 043b 84a4 053a
000000a0: 3b61 bb39 f39a e939 9273 3539 ba42 27ba
000000b0: 31c0 7a39 409d 6e3a d040 823a 4327 043a
000000c0: 6d7a 503a 4ae7 88b8 08c9 3dba e2f8 b339
000000d0: 8e8e aa38 0848 5f37 e4b3 4639 2149 c8b8
000000e0: 1d8a 123a 7f4b f5b9 6168 8d39 44a7 443a
000000f0: 99d5 61ba 01ed c539 4ad6 19ba d27b 4d39
00000100: d61e 1939 721f 1039 d45e 0ab9 b461 8cba
00000110: 9903 eab9 a158 0439 cd70 a1b9 f888 91ba
00000120: dcc5 123a a478 b6b8 baf4 a739 0744 c1b9
00000130: 2f6e 1438 586b 4aba 358e 84b9 ca5d 9bb9
00000140: 2858 f939 4cba 66ba 8cda a0b6 afdf 3ab9
00000150: a4db 00ba b8fe 09ba cf1c 24ba 9552 e339
00000160: abd2 30b9 ccfd 33b9 0798 523a e15a a7b8
00000170: b875 f238 9c0b 86b9 525f 4ab9 2eda 2d39
00000180: b007 98b9 9ead 6fb7 c35c f5b9 a0c1 57ba
00000190: 234f b039 662d b339 69f0 1aba 46d4 be39
000001a0: 5b8b 0039 e09f 113a 1336 11ba 38ef 4638
000001b0: ac7d 9939 fda1 f5b9 e049 30b9 973d 88b9
000001c0: fbc4 9138 1213 11ba f7df a039 1799 06b9
000001d0: 9919 54b9 3415 12b8 8062 9eb9 34ad 9f39
000001e0: 0451 a139 efdc 83b9 d378 90b9 dea1 b239
000001f0: 695a aa3a 72a7 c3b8 edce 7db7 3fab 4839

exp_avg_sq f4 [128]
2.478722e-06 2.3001776e-05 4.6622317e-06 1.5932995e-06 2.6233001e-06 2.3391267e-06 1.5498599e-06 1.4107409e-05
1.9286786e-06 2.1077803e-06 9.504978e-06 9.374315e-06 1.224273e-05 1.7015913e-06 8.438002e-06 8.356183e-07
1.1849479e-05 2.1951759e-05 1.0264539e-06 2.1203268e-06 2.2005013e-07 7.657693e-06 2.65038e-05 2.2797065e-06
7.5124484e-07 1.7086135e-06 1.988741e-06 2.0717082e-06 1.3982711e-05 2.2807506e-05 2.226297e-06 9.88551e-07
1.0674239e-05 1.8245635e-05 1.1329951e-06 5.783475e-07 1.0238207e-06 2.2122836e-06 9.221728e-06 1.1479615e-06
1.7125553e-06 3.92309e-06 5.6179795e-07 8.338444e-06 3.7560912e-06 1.2865902e-06 2.7124347e-06 5.517996e-07
3.5958492e-06 1.8063469e-06 8.490679e-06 1.5522083e-06 1.937668e-06 3.7632978e-07 8.610148e-06 1.4427485e-06
8.537182e-06 3.3062374e-06 1.0454012e-05 3.2354972e-06 1.1317738e-05 6.429767e-07 5.878962e-06 4.609662e-06
1.8350634e-06 5.2589263e-07 5.26623e-06 1.0571584e-05 2.283292e-06 6.7408137e-06 5.607052e-06 1.1183092e-05
5.6430367e-06 1.4480169e-06 4.2777117e-07 7.642433e-06 1.012486e-05 4.457821e-06 4.2281263e-06 2.1089765e-05
1.2522358e-06 1.35179325e-05 2.4037927e-06 6.32188e-06 8.299634e-06 5.9908407e-06 5.9795384e-06 3.542982e-06
1.6429651e-06 3.5331357e-07 3.3394792e-06 4.6657715e-06 1.5277852e-06 2.5490863e-06 7.775115e-06 2.4135586e-06
3.62933e-06 1.7109603e-06 7.20396e-06 6.857928e-06 9.494334e-07 2.8173365e-06 5.8417454e-06 1.6441461e-06
3.2862613e-06 3.604432e-06 2.7352112e-06 3.0557683e-06 1.3145032e-06 6.396343e-06 2.2384704e-06 5.3519143e-06
6.028935e-06 5.9712056e-06 6.4346423e-06 3.8851917e-06 3.4358536e-06 1.3706324e-05 1.8811673e-06 3.7518596e-06
1.1724793e-06 1.3341323e-06 2.613254e-06 3.5411067e-06 1.1127706e-05 4.540343e-06 2.526956e-07 2.9345813e-06
00000000: 1f58 2636 f0f3 c037 4470 9c36 5bd9 d535
00000010: f40b 3036 e4f9 1c36 c804 d035 dcae 6c37
00000020: 726e 0136 6473 0d36 9277 1f37 6046 1d37
00000030: 2066 4d37 3b62 e435 f190 0d37 414f 6035
00000040: 20cd 4637 0b25 b837 b0c4 8935 f04a 0e36
00000050: eb46 6c34 8a79 0037 7a54 de37 0ffd 1836
00000060: 27a9 4935 8353 e535 4f76 0536 ad07 0b36
00000070: 4997 6a37 bf52 bf37 7e67 1536 5bae 8435
00000080: 8215 3337 340e 9937 6a11 9835 bd3f 1b35
00000090: 366a 8935 be76 1436 05b7 1a37 a813 9a35
000000a0: f4da e535 16a3 8336 76ce 1635 58e5 0b37
000000b0: 2811 7c36 e7ae ac35 4607 3636 611f 1435
000000c0: 3850 7136 9b71 f235 3073 0e37 7955 d035
000000d0: e208 0236 5f0a ca34 4e74 1037 76a4 c135
000000e0: eb3a 0f37 bae0 5d36 a463 2f37 6b21 5936
000000f0: 51e1 3d37 0699 2c35 e643 c536 b2ac 9a36
00000100: 4c4c f635 112b 0d35 92b4 b036 9c5c 3137
00000110: a83a 1936 262f e236 3624 bc36 049f 3b37
00000120: 5159 bd36 7b59 c235 6ca8 e534 0038 0037
00000130: f1dd 2937 6494 9536 54df 8d36 ede9 b037
00000140: 7f12 a835 14cb 6237 d850 2136 8920 d436
00000150: a83e 0b37 ee04 c936 d8a3 c836 f8c3 6d36
00000160: da83 dc35 0caf bd34 d11b 6036 ac8e 9c36
00000170: 4d0e cd35 f810 2b36 dd71 0237 9ff8 2136
00000180: 6a8f 7336 26a4 e535 8cb9 f136 271d e636
00000190: 91dc 7e35 7911 3d36 3604 c436 6eac dc35
000001a0: 8a89 5c36 ace3 7136 928e 3736 b311 4d36
000001b0: fc6d b035 2ba0 d636 a138 1636 9894 b336
000001c0: 284c ca36 445c c836 28e9 d736 8b5d 8236
000001d0: 8493 6636 37f4 6537 6b7c fc35 75c8 7b36
000001e0: 155e 9d35 7010 b335 5d5f 2f36 c0a3 6d36
000001f0: 22b1 3a37 4059 9836 38aa 8734 b9ef 4436
