results/3dball_test_5/3DBall/3DBall-133445.pt (torch, 451210 bytes, 44 tensors)

network_body.observation_encoder.processors.0.normalizer.running_mean f4 [8]
0	0xba12d556	-0.00056012475
1	0x3a88c9c9	0.0010436113
2	0x3dcc66bd	0.09980533
3	0x40454ccc	3.0828123
4	0xbd5b0402	-0.05347062
5	0x3ca7a18b	0.020462772
6	0xbf094ed4	-0.5363591
7	0xbbe68db7	-0.0070359367

network_body.observation_encoder.processors.0.normalizer.running_variance f4 [8]
0	0x440b59bf	557.4023
1	0x44121608	584.34424
2	0x47db69e8	112339.81
3	0x46450251	12608.579
4	0x47e0c86b	115088.836
5	0x479a7f2b	79102.336
6	0x47ddaea4	113501.28
7	0x479e0210	80900.125

network_body.processors.0.normalizer.running_mean f4 [8]
0	0xba12d556	-0.00056012475
1	0x3a88c9c9	0.0010436113
2	0x3dcc66bd	0.09980533
3	0x40454ccc	3.0828123
4	0xbd5b0402	-0.05347062
5	0x3ca7a18b	0.020462772
6	0xbf094ed4	-0.5363591
7	0xbbe68db7	-0.0070359367

network_body.processors.0.normalizer.running_variance f4 [8]
0	0x440b59bf	557.4023
1	0x44121608	584.34424
2	0x47db69e8	112339.81
3	0x46450251	12608.579
4	0x47e0c86b	115088.836
5	0x479a7f2b	79102.336
6	0x47ddaea4	113501.28
7	0x479e0210	80900.125

network_body._body_endoder.seq_layers.0.weight f4 [128, 8]
0	0x3e81a0ce	0.25317997
1	0xbe27a5a6	-0.16371784
2	0xbc86a317	-0.01643519
3	0xbf263f69	-0.64940506
4	0x3f629144	0.8850291
5	0x3e85832e	0.26076645
6	0x3df0fc30	0.11766851
7	0x3dfa3b21	0.12218309
8	0xbe0b49c3	-0.13602357
9	0x3f02f334	0.5115235
10	0xbf094e2a	-0.53634894
11	0xbdbd7c17	-0.09252184
12	0xbefa1d78	-0.48850608
13	0xbe479467	-0.19490205
14	0x3e4ece65	0.20195921
15	0x3d13c144	0.036072984
16	0x3c5db6bd	0.013532338
17	0x3f7c0030	0.98437786
18	0xbdc1c4fc	-0.094614
19	0x3d84c7b9	0.064834066
20	0xbd9c5694	-0.07633701
21	0xbef9c34c	-0.48781812
22	0x3ef934f9	0.48673227
23	0x3deb7d00	0.11498451
24	0xbf1d9cb7	-0.6156725
25	0x3d4eca1a	0.050485708
26	0xbeb24cf6	-0.34824342
27	0x3de54ba2	0.111960664
28	0xbec27ec7	-0.37987348
29	0x3e7bdde0	0.24596357
30	0xbed65c21	-0.41867164
31	0x3d840d89	0.06447894
32	0x3e7f26d9	0.24917163
33	0xbea4a18b	-0.32154498
34	0xbe45e058	-0.19323862
35	0xbede5d0f	-0.43430373
36	0xbd2a2b71	-0.041545335
37	0x3f47c578	0.7803569
38	0x3e65baec	0.22434586
39	0x3ea03db2	0.3129707
40	0x3e19ec35	0.15031512
41	0xbe41cf2c	-0.18926686
42	0xbe8d76b9	-0.2762964
43	0x3f69fb0c	0.9139869
44	0x3ee82044	0.45337117
45	0x3eba2034	0.36352694
46	0x3f056529	0.52107483
47	0x3e1f0951	0.15530898
48	0x3e6de872	0.23233202
49	0x3eadbd48	0.33933473
50	0xbe98d844	-0.29852498
51	0x3e8fcf9b	0.28088078
52	0xbe8494f6	-0.25894898
53	0x3f613afb	0.8798062
54	0xbd95b2c5	-0.07309488
55	0xbeb264fb	-0.34842667
56	0xbe72a111	-0.23694254
57	0xbdb9b4bc	-0.090676755
58	0x3e5310fd	0.2061195
59	0x3d9d183c	0.07670638
60	0xbde51f3a	-0.111875966
61	0xbe86d269	-0.26332405
62	0x3f1dfdb5	0.6171525
63	0xbebbe51e	-0.3669824
64	0x3e80e71b	0.2517632
65	0x3e033af5	0.12815459
66	0xbd568c86	-0.052380107
67	0x3ebf72a9	0.37392166
68	0xbe0b483f	-0.13601778
69	0x3f6ef4e2	0.9334241
70	0x3e0eae54	0.13933688
71	0x3ec0f4b7	0.37686703
72	0xbdfd9745	-0.12382368
73	0xbe865986	-0.26240176
74	0xbde67280	-0.11252308
75	0x3ec0f8ae	0.37689728
76	0xbee349d2	-0.44392258
77	0xbe279139	-0.16363992
78	0x3e144da5	0.14482744
79	0x3e09c2ac	0.13453168
80	0x3e3e3cde	0.18577906
81	0xbd000296	-0.031252466
82	0xbf2825a4	-0.65682435
83	0xbf163327	-0.586718
84	0x3e407e94	0.18798286
85	0xbf18610b	-0.59523076
86	0x3d9aa383	0.07550719
87	0x3d5ac978	0.05341479
88	0xbd4e1e7f	-0.050322052
89	0xbaa30a45	-0.0012438974
90	0x3d9a1182	0.075228706
91	0xbe2bef1a	-0.16790429
92	0x3e7bf1e1	0.24603988
93	0xbd5e1049	-0.05421475
94	0x3d9ce00b	0.0765992
95	0xbd257e6c	-0.04040377
96	0xbf1a2141	-0.6020699
97	0x3eb836a2	0.35979182
98	0xbe94e627	-0.29081842
99	0x3f0ff961	0.56239897
100	0x3bc065b7	0.0058715004
101	0x3ecfe999	0.40607908
102	0x3ee2cfd8	0.44299197
103	0xbe2c280f	-0.16812156
104	0x3e99beb2	0.300283
105	0xbd953f1f	-0.0728743
106	0x3ea311dc	0.31849563
107	0xbe2e365d	-0.17012925
108	0x3e6b3f87	0.22973453
109	0x3defd398	0.1171028
110	0x3c9be69f	0.019030867
111	0x3ef45362	0.47719866
112	0xbe0dda14	-0.13852721
113	0x3e5dc9a4	0.21658951
114	0x3ea51316	0.32241124
115	0xbed9a15b	-0.42505917
116	0xbe1ba93d	-0.15201278
117	0x3deeffbd	0.11669872
118	0xbebef41c	-0.37295616
119	0xbf43da65	-0.7650512
120	0xbd9bc1f3	-0.07605352
121	0x3e579136	0.21051487
122	0xbf0cc12f	-0.54982275
123	0x3e1c471e	0.15261504
124	0xbf1d923e	-0.6155127
125	0xbec4b55f	-0.38419625
126	0x3e50330c	0.20331973
127	0x3ed869e4	0.42268288
128	0x3bae3009	0.005315785
129	0x3e118a8c	0.14213008
130	0xbf552195	-0.8325437
131	0x3f1b965a	0.60776293
132	0xbe775ccd	-0.24156494
133	0x3e36d0eb	0.17853133
134	0xbcc4df4b	-0.024032256
135	0x3d6ea463	0.05826224
136	0x3e497463	0.19673304
137	0x3ecde246	0.40211695
138	0xbe26938b	-0.1626722
139	0xbc8f1686	-0.017466795
140	0x3f23c5dd	0.6397379
141	0x3e1dde9c	0.1541695
142	0x3bd2fd87	0.006438914
143	0xbf513977	-0.8172831
144	0xbe692749	-0.22768892
145	0x3ead0005	0.33789077
146	0xbdc29fc1	-0.09503127
147	0x3f4a6c8b	0.79071873
148	0x3ea6d091	0.32581
149	0x3ba05789	0.0048932475
150	0xbec9e6cb	-0.39433894
151	0x3d44040c	0.047855422
152	0xbe85c801	-0.26129153
153	0x3f13e1ee	0.57766616
154	0x3e0847df	0.13308667
155	0x3c972ff9	0.018455492
156	0x3cd40fec	0.025886498
157	0x3e27c0da	0.16382161
158	0x3e29f423	0.16597037
159	0xbd6e4bd8	-0.0581778
160	0x3ba47c9b	0.005019737
161	0x3e687019	0.22699012
162	0x3eaab207	0.3333895
163	0xbe99c36d	-0.3003191
164	0xbec02d33	-0.37534484
165	0x3eb74077	0.3579137
166	0xbf1c6a87	-0.6110005
167	0x3ec1b671	0.37834504
168	0xbec5a449	-0.38601902
169	0xbec842fb	-0.39113602
170	0x3f1c2e0c	0.6100776
171	0x3e12855e	0.14308688
172	0x3d8eb541	0.06968165
173	0xbdad4da5	-0.08462075
174	0xbe6c85a3	-0.23097853
175	0xbf0dd5a8	-0.5540414
176	0xbedf6d9f	-0.43638322
177	0x3ebb6157	0.36597702
178	0xbeb9c393	-0.36282024
179	0xbe8ae748	-0.2712958
180	0xbec76665	-0.38945308
181	0xbee9659b	-0.4558533
182	0x3d57db84	0.05269958
183	0xbf08f5ff	-0.5350036
184	0x3ec6f61a	0.38859636
185	0xbef6eabc	-0.48225963
186	0x3eeafbc9	0.45895222
187	0x3eecb54e	0.46232074
188	0x3d0d40a5	0.034485478
189	0x3e2fa73c	0.17153639
190	0xbdadc00e	-0.08483897
191	0xbcdca218	-0.026932761
192	0x3f81a47b	1.012832
193	0x3ee64bc9	0.44979694
194	0xbec16e4f	-0.3777947
195	0x3dfc3508	0.123148024
196	0x3e7c5e3e	0.24645326
197	0x3d2814a9	0.041035328
198	0x3e444de7	0.19170342
199	0x3e484ae5	0.1955982
200	0x3da26a6d	0.07930455
201	0xbe2b7330	-0.1674316
202	0xbef625fd	-0.48075858
203	0xbe7c08ff	-0.24612807
204	0x3d9fe8f7	0.078081064
205	0x3e876f79	0.26452234
206	0x3f58a0e4	0.846205
207	0xbe9af080	-0.30261612
208	0x3e229780	0.15878105
209	0xbeb10c23	-0.34579572
210	0x3e06eeb4	0.13176996
211	0x3ed3ec53	0.4139124
212	0x3d716160	0.058930755
213	0x3da07d9d	0.07836459
214	0x3c285863	0.010274979
215	0xbf0f9611	-0.5608836
216	0x3ee64d6a	0.44980937
217	0x3f104d20	0.56367683
218	0xbeaf0289	-0.34181622
219	0xbd6d1152	-0.057877846
220	0xbeb8a31f	-0.36061952
221	0xbd9d1223	-0.07669475
222	0xbed9ec68	-0.42563176
223	0x3d536eaf	0.051619228
224	0xbf33b8e1	-0.7020398
225	0xbef67b55	-0.4814097
226	0xbd474303	-0.04864789
227	0xbf1540a3	-0.5830175
228	0xbdecbbdc	-0.11559269
229	0xbf1ce0c9	-0.61280495
230	0x3d983660	0.07432246
231	0xbf612ea8	-0.87961817
232	0xbdb1a188	-0.08673388
233	0x3ecbbc6e	0.39792198
234	0x3e8247d2	0.2544542
235	0x3d971ba5	0.0737832
236	0xbd51d8dc	-0.051232204
237	0x3f15b352	0.58476746
238	0x3e00fb87	0.1259595
239	0xbe9ebb2a	-0.3100217
240	0xbf0e12de	-0.5549754
241	0x3f1ad8c6	0.6048702
242	0x3f1af1aa	0.60525
243	0xbe9f08da	-0.3106144
244	0xbee8f4e4	-0.45499337
245	0xbec7d7e0	-0.39031887
246	0xbee05d17	-0.43821022
247	0x3eaa19cd	0.3322281
248	0xbe856317	-0.26052162
249	0x3ebc1a8a	0.36738998
250	0xbe1f214d	-0.15540047
251	0x3e8c85f4	0.27445948
252	0xbf209916	-0.6273359
253	0x3f1077be	0.5643271
254	0x3eb382c7	0.35060713
255	0x3e29540b	0.16535966

network_body._body_endoder.seq_layers.0.bias f4 [128]
0	0x3b8c3cd1	0.004279711
1	0xbccca78a	-0.024982233
2	0xba8bf2e6	-0.0010677248
3	0xbb35c172	-0.002773371
4	0x3c597e45	0.013274734
5	0xbd854fc5	-0.065093555
6	0xbb7daca0	-0.003870763
7	0xbc6dc041	-0.014511169
8	0x3cd139b4	0.02554021
9	0xbc9ee859	-0.019397901
10	0xbdaa5b12	-0.083181515
11	0x3cdababd	0.026700372
12	0x3c569ecf	0.013099386
13	0xbd7bbcc1	-0.061459307
14	0xbd79c937	-0.06098291
15	0xbb54ae19	-0.0032452403
16	0xbbe5204c	-0.0069923755
17	0x3d0241d2	0.031801052
18	0xba9c7355	-0.0011936227
19	0x3cb1e918	0.021717593
20	0xbd57fc3a	-0.052730776
21	0x3d254956	0.04035314
22	0xbdaf14da	-0.08548899
23	0x3d998cbc	0.07497546
24	0xbd1a1ebd	-0.03762697
25	0x3cc6f7d4	0.024288096
26	0x3c715747	0.014730281
27	0xbc984d94	-0.01859168
28	0xbc88b983	-0.016690021
29	0x3d39d26c	0.04536669
30	0xbc210dde	-0.009829966
31	0x3d0d96f8	0.034567803
32	0xbd12bdbc	-0.035825476
33	0xbd8774c9	-0.06614072
34	0x3d6ed9c5	0.05831315
35	0x3cab94b2	0.020944927
36	0x3b2abeb1	0.0026053602
37	0xbdad5e55	-0.08465258
38	0xbccd4f42	-0.025062207
39	0xbc0a6b05	-0.008448367
40	0xbd98a992	-0.07454218
41	0xbbda8bed	-0.0066695125
42	0x3d12c549	0.035832677
43	0xbd814c2f	-0.06313359
44	0x3c643ca5	0.013930474
45	0xbbe1421d	-0.0068743364
46	0xbda4721c	-0.08029577
47	0xbd4d2981	-0.05008841
48	0xbd9dcfb0	-0.07705629
49	0xbd2bdb1a	-0.041957
50	0x3c0eb3a4	0.008709822
51	0xbd085445	-0.03328349
52	0x3d0d7d7b	0.034543496
53	0xbcb27687	-0.021785034
54	0x3cf228aa	0.029560406
55	0xbce9023d	-0.02844345
56	0xbaccf7dd	-0.0015637834
57	0xbd2f8361	-0.042849902
58	0xbbb21f43	-0.0054358556
59	0xbd618d26	-0.05506625
60	0xbcf59313	-0.029977357
61	0xbd708a15	-0.058725435
62	0xbd4d53c8	-0.05012873
63	0xbbfe28d8	-0.007756334
64	0xbd09b9f1	-0.033624593
65	0xbd91a8ee	-0.07112299
66	0x3c7e94b4	0.015538383
67	0xbbba1cbc	-0.005679695
68	0xbcaf2a34	-0.021382429
69	0xbd077798	-0.033073038
70	0xbd610575	-0.054936845
71	0xbccdb597	-0.025111003
72	0x39c46114	0.00037456362
73	0xbd8ee57d	-0.06977365
74	0x3a24ff85	0.0006294179
75	0xbc91113d	-0.017708415
76	0xbd25ea4d	-0.04050665
77	0xbdc1d3e9	-0.09464247
78	0xbd04cea9	-0.03242365
79	0xbb9781e2	-0.0046236375
80	0xbd80b537	-0.06284564
81	0x3c834061	0.01602191
82	0x3ce60bcb	0.028081795
83	0xbcb65b51	-0.02226034
84	0x3c3ab7b0	0.011396334
85	0xbb78b5ba	-0.0037950114
86	0xbca89707	-0.020579828
87	0xbd6d2359	-0.05789504
88	0xbd6d06d2	-0.057867832
89	0x3cf5f12a	0.030022223
90	0xbd27a028	-0.04092422
91	0x3d8746d1	0.06605304
92	0x3c8b26cb	0.016986271
93	0x3cfa3654	0.030543484
94	0xbd07c330	-0.03314513
95	0x3d1378fc	0.03600405
96	0xbbd5650a	-0.006512289
97	0x3a9d9886	0.0012023605
98	0xbbda597a	-0.0066634985
99	0x3cb86737	0.022510154
100	0x3d1fc6bc	0.039007887
101	0xbd3384ae	-0.043827705
102	0x3c8ae807	0.016956342
103	0x3d050b65	0.03248157
104	0x3d48199f	0.04885256
105	0x3c38e9a3	0.011286172
106	0xbc7adf63	-0.015312049
107	0xbcbd5d75	-0.023115853
108	0xbd7888c5	-0.06067731
109	0xbd27ed21	-0.040997628
110	0x3c267042	0.0101586
111	0xbd4a06ae	-0.049322776
112	0xbc648550	-0.0139478
113	0xbd81445d	-0.063118674
114	0x3bb23174	0.005438024
115	0x3a8c36ae	0.0010697448
116	0x3c2e6435	0.010644008
117	0xbb3b45c3	-0.0028575517
118	0x3c6a9aba	0.014319116
119	0xbd252c1f	-0.04032528
120	0xbddbba0c	-0.10728845
121	0x3d3d13be	0.046161406
122	0x3c37128c	0.0111738555
123	0xbd1e4b05	-0.038645763
124	0x3bec9350	0.0072197095
125	0x3c044b1c	0.008074548
126	0x3c8a5a4f	0.016888766
127	0xbd540d2a	-0.051770367

network_body._body_endoder.seq_layers.2.weight f4 [128, 128]
0	0xbe1fbaee	-0.15598652
1	0xbd804355	-0.062628426
2	0x3d1e5c00	0.038661957
3	0xbdf17e72	-0.11791696
4	0xbd147fbb	-0.036254626
5	0xbd6825aa	-0.056676544
6	0xbd2ad365	-0.041705508
7	0x3d352459	0.044224117
8	0xbb023102	-0.0019865637
9	0x3d84acb0	0.0647825
10	0xbe105ddd	-0.14098306
11	0xbd962ede	-0.07333158
12	0x3dcd0d19	0.10012264
13	0xbdcb8560	-0.09937549
14	0xbd8bcb56	-0.068258926
15	0x3dc419a4	0.09575203
16	0xbe0b9a79	-0.13633145
17	0xbd807ae9	-0.06273443
18	0xbe0284e6	-0.12746009
19	0x3d075300	0.03303814
20	0xbe34baa6	-0.17649326
21	0x3e4bcd15	0.19902451
22	0xbd2628fd	-0.040566433
23	0x3e6121fa	0.21985617
24	0xbdfda9a5	-0.12385873
25	0x3d3a26bc	0.045447096
26	0xbce2f1ef	-0.027703254
27	0xbe1f9c14	-0.15586883
28	0x3dcd7d6c	0.10033688
29	0xbd74ea4f	-0.059793767
30	0xbe479e55	-0.19493993
31	0x3dd71c08	0.105033934
32	0x3dc1b8c6	0.09459071
33	0xbda99f70	-0.082823634
34	0x3e41dff3	0.18933086
35	0x3dc78178	0.09741491
36	0xbd294544	-0.041325822
37	0xbd58be16	-0.052915655
38	0x3dcc822f	0.09985768
39	0x3c886b3f	0.016652701
40	0xbe14b95b	-0.14523832
41	0xbd96c9c5	-0.07362703
42	0xbba07277	-0.004896458
43	0xbe15025e	-0.14551684
44	0x3e3a8dbb	0.18218128
45	0xbe3221ec	-0.17395753
46	0xbde8b6b0	-0.1136297
47	0xbc60c113	-0.0137179075
48	0xbc7cff2d	-0.015441698
49	0xbb0a2660	-0.0021080002
50	0x3db7f0d0	0.08981478
51	0x3e957b9c	0.2919587
52	0x3e2a88e0	0.16653776
53	0x3e7145c6	0.23561773
54	0xbd91fc1b	-0.071281634
55	0xbe81dcd0	-0.2536378
56	0xbd04f67c	-0.03246163
57	0xbd7592f2	-0.05995459
58	0xbe74cd00	-0.23906326
59	0x3bd5c70e	0.0065239733
60	0x3dc3663f	0.09540986
61	0xbe2c0b3b	-0.16801159
62	0xbd8d63d0	-0.06903803
63	0xbe0f8c87	-0.1401845
64	0xbde12bed	-0.10994706
65	0x3e322a49	0.17398943
66	0xbd000613	-0.031255793
67	0xbcc490c5	-0.023994813
68	0xbda28edc	-0.079374045
69	0xbc112674	-0.008859266
70	0xbd014057	-0.0315555
71	0x3c327ab9	0.010893517
72	0x3d315a11	0.043298785
73	0xbdc80eb0	-0.097684264
74	0x3de011cd	0.10940895
75	0xbdf5ddf2	-0.12005223
76	0xbd631ddc	-0.055448398
77	0xbc00c44b	-0.0078593
78	0xbdd69605	-0.10477833
79	0x3d8a8b9c	0.067649096
80	0x3df0735c	0.11740753
81	0xbdf35083	-0.11880591
82	0x3dc7feb2	0.09765376
83	0x3cc7fde4	0.024413057
84	0xbd9263ff	-0.07147979
85	0xbbd8b68b	-0.0066135577
86	0x3d7a1b6e	0.061061315
87	0x3c09ff0b	0.008422623
88	0xbe299648	-0.16561234
89	0x3d7cc4ee	0.061711244
90	0xbe2d59a1	-0.16928722
91	0x3dc77b97	0.0974037
92	0xbc53f0ac	-0.012935799
93	0x3e0b3d0b	0.13597505
94	0xbdbfb59e	-0.093608126
95	0xbdec6937	-0.11543506
96	0x3d59b9c3	0.05315567
97	0x3e219676	0.15780053
98	0xbdb730f6	-0.089448854
99	0x3e145161	0.14484169
100	0x3dd43908	0.1036244
101	0x3d4b2e44	0.04960467
102	0x3db98c55	0.09059969
103	0xbccf1926	-0.025280546
104	0x3b535a00	0.003224969
105	0xbda5af77	-0.08090108
106	0xbc5a7d38	-0.013335519
107	0xbdbfd1ad	-0.09366164
108	0xbdab83c5	-0.083747424
109	0xbe259fc1	-0.16174223
110	0xbe5b1c84	-0.21397597
111	0x3d10c4ea	0.035344042
112	0x3cc7b47b	0.024378052
113	0x3da8953e	0.08231591
114	0xbbecf61c	-0.007231487
115	0xbd831ab8	-0.064015806
116	0xbcab9976	-0.0209472
117	0xbe32df02	-0.17467883
118	0x3d6c0621	0.057623032
119	0xbd2e0237	-0.04248258
120	0xbc4e70bf	-0.012600123
121	0xbd22197c	-0.039575085
122	0x3da47d28	0.08031684
123	0x3da1b44a	0.078957155
124	0xbdf49c3b	-0.11943861
125	0xbd750914	-0.05982311
126	0xbbb37c1b	-0.005477441
127	0xbc9e7d6e	-0.019346919
128	0x3ce8de19	0.028426217
129	0xbdd46247	-0.103703074
130	0x3e0edf92	0.13952473
131	0xbe3f65dc	-0.186912
132	0x3e281037	0.16412435
133	0x3d0bb856	0.034111343
134	0x3cdd122c	0.026986204
135	0xbdc174b0	-0.094460845
136	0x3e38cab8	0.18046081
137	0x3ce94641	0.028475882
138	0xbce23dc8	-0.02761735
139	0x3cec1944	0.028820641
140	0xbd17abe3	-0.03702916
141	0x3c3aa39c	0.011391547
142	0xbe3c5277	-0.18390833
143	0xbdeed384	-0.11661437
144	0xbde97c9e	-0.11400722
145	0x3d57eb3b	0.052714568
146	0x3dc34fc2	0.09536697
147	0xbca0c9e3	-0.019627517
148	0x3e0389a7	0.12845479
149	0xbe8132c8	-0.25234056
150	0xbc9f917e	-0.019478556
151	0x3e032ba6	0.1280962
152	0x3d44f49a	0.048084833
153	0xbd1d0b32	-0.038340755
154	0xbe5bfae4	-0.21482426
155	0xbdd89d10	-0.10576832
156	0xbe7fad3a	-0.24968424
157	0x3c27af36	0.010234645
158	0x3d7c976f	0.061667856
159	0x3d78def0	0.060759485
160	0xbe13d43d	-0.14436431
161	0x3d483a97	0.048884
162	0xbdcbc97c	-0.099505395
163	0xbd58266b	-0.052771013
164	0xbdccdfb1	-0.10003603
165	0x3cfac15d	0.03060978
166	0xbdc3bb2e	-0.09557186
167	0x3d69018d	0.056886245
168	0xbc808d6a	-0.015692431
169	0xbe63883b	-0.22219937
170	0xbbced90f	-0.0063124965
171	0xbc74516a	-0.014911989
172	0xbcff35e2	-0.031153623
173	0x3e051b07	0.12998591
174	0xbcb10308	-0.02160789
175	0x3d2a81b3	0.041627597
176	0xbd1038cc	-0.035210416
177	0xbd3ced01	-0.046124462
178	0x3c39e990	0.01134719
179	0x3d97dd81	0.074152954
180	0xbd7b7962	-0.061395057
181	0x3ccc7f1c	0.024962954
182	0xbe05b659	-0.13057841
183	0xbb8b362a	-0.0042484
184	0x3dc1c622	0.09461619
185	0xbe47cc78	-0.19511592
186	0x3d6e77a7	0.058219578
187	0x3b8b3b22	0.0042489925
188	0x3d0998d9	0.033593033
189	0xbd82fa55	-0.06395403
190	0x3c7b2cc7	0.0153305
191	0xbe204fc4	-0.15655428
192	0x3d936169	0.07196314
193	0x3d5cf015	0.053939898
194	0xbdd65c24	-0.10466793
195	0x3de03238	0.109470785
196	0xbd542904	-0.051796928
197	0xbc7c8fd2	-0.015415149
198	0x3ddb52ea	0.10709174
199	0xbe148587	-0.14504062
200	0xbda9f37a	-0.082983926
201	0xbc8ae73c	-0.016955964
202	0xbda1ae61	-0.07894588
203	0xbd61ee7f	-0.05515909
204	0xbe605054	-0.21905643
205	0xbdcf04cd	-0.101083376
206	0xbca440a6	-0.020050358
207	0xbd639c9f	-0.055569287
208	0x3be19aa2	0.0068848887
209	0x3ca3527b	0.01993679
210	0xbe9f8ef7	-0.3116376
211	0x3cda94f1	0.026682349
212	0xbdfeedb1	-0.1244768
213	0x3bbd5959	0.0057784733
214	0xbd8ca4d2	-0.068673745
215	0x3c57d4c9	0.0131732905
216	0x3d8fc29f	0.07019543
217	0xbe4bad4d	-0.19890328
218	0x3d0765f2	0.033056207
219	0x3d541c5c	0.051784858
220	0x3e01096c	0.1260125
221	0xbc24d6b8	-0.010060959
222	0x3d8cf1a5	0.068820275
223	0xbd4da659	-0.05020747
224	0x3dae6cad	0.08516822
225	0xbde8bf63	-0.11364629
226	0x3e1bf314	0.15229446
227	0x3dc19ed9	0.09454126
228	0x3e05fe93	0.13085394
229	0xbdac5e70	-0.0841645
230	0x3d769fd0	0.060211003
231	0xbcc742a0	-0.024323761
232	0xbdb8a6b7	-0.09016173
233	0xbe075172	-0.13214663
234	0x3e8b39bd	0.27192488
235	0xbd1eb753	-0.03874905
236	0xbe0963d2	-0.13416985
237	0xbd21d9bd	-0.039514292
238	0x3d196c6f	0.037456926
239	0xbd887e63	-0.06664731
240	0xbcc9923d	-0.024605865
241	0xbdffadf0	-0.12484348
242	0x3db5d85a	0.088791564
243	0xbdd065e8	-0.10175687
244	0x3d514f80	0.051101208
245	0x3d4e1329	0.05031124
246	0xbcb8ba16	-0.02254967
247	0xbdd6e378	-0.10492605
248	0x3d2981a2	0.041383393
249	0x3da50763	0.080580495
250	0xbd3ce72d	-0.046118904
251	0x3b7e0ee4	0.00387662
252	0xbc5a2295	-0.013313909
253	0xbda801fd	-0.08203504
254	0xbd0ea7f9	-0.03482816
255	0x3d537eb1	0.051634494

network_body._body_endoder.seq_layers.2.bias f4 [128]
0	0x3d3b8df6	0.04578968
1	0x3caf9051	0.02143112
2	0x3d9d1e04	0.07671741
3	0x3c780f00	0.015140295
4	0xbc883ccb	-0.01663055
5	0xbb8fff99	-0.0043944833
6	0x3cb0e0c2	0.021591548
7	0x3d032c96	0.032024942
8	0x3d2770d8	0.0408791
9	0x3c323e47	0.010879106
10	0xbcf332b2	-0.02968726
11	0xbb59a012	-0.0033206982
12	0xbc38a532	-0.011269854
13	0x3c4e1284	0.012577657
14	0x3c4d1fad	0.012519759
15	0x3c88b948	0.016689911
16	0x3b4224c6	0.002962397
17	0x3d2cdecf	0.042204674
18	0xbb7436fe	-0.0037264223
19	0xbcd54b02	-0.026036743
20	0xbcaa007a	-0.02075218
21	0x3cdd5026	0.027015757
22	0xbc94f6c8	-0.01818408
23	0xbc74f7a5	-0.014951621
24	0x3cf2b183	0.02962566
25	0xbc792e2d	-0.015208763
26	0xbc49458e	-0.01228465
27	0xbb8f8637	-0.0043800133
28	0x38c475f0	9.367976e-05
29	0x3bc6d6da	0.006068093
30	0x3c01a01b	0.007911707
31	0x3d98b109	0.07455642
32	0xbcc51f38	-0.024062738
33	0xbbe88daa	-0.007096966
34	0xbcdc18c7	-0.026867284
35	0x3c455b2c	0.012045663
36	0xbc90be02	-0.017668728
37	0xbca22d0c	-0.01979687
38	0xbb812c1c	-0.003942026
39	0xbcd553d2	-0.026040945
40	0x3cd546cf	0.02603474
41	0x3d08239c	0.033237085
42	0x3d8c5ddf	0.06853842
43	0xba729a29	-0.0009254539
44	0x3cc7edf9	0.024405466
45	0xbcbf122b	-0.023324093
46	0x3c90cacf	0.017674832
47	0xbc1761d2	-0.009239631
48	0xbcb13305	-0.021630773
49	0xbcc0df4d	-0.023543978
50	0x3d2a4b7c	0.041575894
51	0xbcc36aad	-0.023854578
52	0xba2f4cee	-0.00066871836
53	0xbc5d6623	-0.013513121
54	0x3cda2d93	0.02663306
55	0x3d34b3f5	0.044116933
56	0x3ad556a9	0.0016276437
57	0x3d57b17e	0.052659504
58	0x3cae5468	0.021280482
59	0x3bd00a21	0.0063488637
60	0xb8e2aa38	-0.000108082255
61	0xbc581639	-0.013188892
62	0x3b6edb6a	0.00364467
63	0x3ca88e5e	0.020575698
64	0xba2f0594	-0.00066765514
65	0xbc04cd1b	-0.008105542
66	0x3c95b3af	0.018274156
67	0xbc271c8b	-0.010199676
68	0x3d13964b	0.036032002
69	0xbae5fb94	-0.001754629
70	0xbba15daf	-0.004924498
71	0x3b7795c6	0.003777848
72	0xbcf003ad	-0.029298628
73	0x3cd7ac81	0.026327373
74	0x3cb8de54	0.022566952
75	0x3d47dda9	0.048795376
76	0x3c8bffdc	0.017089777
77	0x3c186ffd	0.009304044
78	0xbce9795e	-0.028500255
79	0x3d4f6f9b	0.050643545
80	0xbcd3dec7	-0.025863064
81	0xbd0bff17	-0.03417882
82	0x3d48c566	0.04901638
83	0xbc38d9e1	-0.011282415
84	0x3d20532d	0.039141823
85	0xbd312d36	-0.043256007
86	0xbbc2a265	-0.005939769
87	0x3b9aebcd	0.0047278167
88	0xbb90a590	-0.004414268
89	0x3d5f2bbc	0.054485068
90	0xbbdd2518	-0.0067488067
91	0x3d484451	0.048893277
92	0x3b2cd6ac	0.0026373072
93	0x3d172ee4	0.036909953
94	0xbc8d6699	-0.017260836
95	0xbc736f06	-0.014858013
96	0xbbd9947c	-0.006640015
97	0xbc49cdcb	-0.012317131
98	0x3d69048f	0.056889113
99	0xbc238c27	-0.009982145
100	0xbc8049b4	-0.015660144
101	0xbc9afe4e	-0.01892009
102	0xbc832b9e	-0.01601201
103	0x3c3564f7	0.011071435
104	0x3c108f2f	0.0088232
105	0xbd01e247	-0.031709936
106	0xbc6d77fa	-0.014493937
107	0xbc2e49bd	-0.010637698
108	0x3d656f81	0.05601454
109	0xbd254025	-0.040344376
110	0x3ae34811	0.0017340203
111	0x3c1bcc7f	0.009509205
112	0x3c98c38d	0.018647933
113	0xbc7ab827	-0.015302694
114	0xbc770a84	-0.015078191
115	0xbcdc0a03	-0.026860243
116	0x3b56eafa	0.0032793866
117	0x3d239005	0.03993227
118	0xbb4999a6	-0.0030761748
119	0xbbedcd78	-0.00725716
120	0x3d23c690	0.039984286
121	0x3cf2e021	0.029647889
122	0x3b7a5f53	0.003820379
123	0x3bf1b78f	0.007376618
124	0xbbeaa045	-0.007160219
125	0xbc97b41c	-0.0185185
126	0xbcba3de9	-0.0227346
127	0x3cd6d1d4	0.0262231

action_model._continuous_distribution.log_sigma f4 [1, 2]
0	0xbdf9470b	-0.121717535
1	0xbdec82c0	-0.11548376

action_model._continuous_distribution.mu.weight f4 [2, 128]
0	0x3cfa8190	0.030579358
1	0x3c108a5a	0.008822048
2	0x3ddeb353	0.10874047
3	0xbd2d65ea	-0.04233352
4	0xbbfce842	-0.007718117
5	0xbd3b9822	-0.045799382
6	0xbb8fab93	-0.004384467
7	0xbca1a135	-0.01973019
8	0xbb381a05	-0.002809168
9	0x3d1ed65e	0.038778655
10	0xbbd8126d	-0.0065939934
11	0x3bb8ece3	0.0056434735
12	0xbbd46383	-0.0064815893
13	0x3b0c54bf	0.0021412817
14	0xbd4f5bfb	-0.05062483
15	0x3c36a621	0.011148007
16	0x3c9c7f58	0.019103691
17	0x3d826f2a	0.06368859
18	0xbaefcee7	-0.0018295915
19	0xbce677db	-0.028133323
20	0xbb875768	-0.0041302927
21	0x3ced652f	0.028978912
22	0xbcb9728d	-0.02263763
23	0xbd614833	-0.055000495
24	0xbc741aee	-0.014898999
25	0xbd49cc3a	-0.04926703
26	0xbc7a54d3	-0.015279013
27	0xbd4ea7e4	-0.05045308
28	0x3c9079f9	0.017636286
29	0xbd284b72	-0.041087575
30	0x3c113dcc	0.008864831
31	0x3db0496e	0.086077556
32	0xbb24763e	-0.0025094892
33	0xbd2ce70e	-0.04221254
34	0xbc231c3f	-0.009955465
35	0x3ca583fa	0.020204533
36	0xbafe73ff	-0.0019413232
37	0xba97c26d	-0.0011578329
38	0xbd48113a	-0.048844554
39	0xba99ceb6	-0.0011734578
40	0x3d33a154	0.043855026
41	0x3cd689c1	0.026188733
42	0x3de30d90	0.11086571
43	0x3c361659	0.0111137265
44	0xbcfd6d5a	-0.030935932
45	0xbb3fb01e	-0.002924926
46	0xbcc25009	-0.023719804
47	0xbcffee14	-0.031241454
48	0xbca81c92	-0.020521436
49	0xbc64fa8b	-0.01397575
50	0x3db2b20e	0.087253675
51	0xbbce9709	-0.006304626
52	0xbd9f902b	-0.0779117
53	0xbd012a67	-0.03153458
54	0x3c969063	0.018379396
55	0x3d84c0d4	0.064820915
56	0xbcdc703d	-0.026908988
57	0x3d8b8f87	0.06814485
58	0x3d4feff7	0.050765958
59	0xbd0d9d7c	-0.034574017
60	0xbb936830	-0.004498504
61	0xba5e9c47	-0.0008491915
62	0xbd1911ed	-0.03737061
63	0x3cf31049	0.029670851
64	0x3c8b4f76	0.017005663
65	0xbcc3f8c9	-0.023922341
66	0xbcb83f8d	-0.02249124
67	0xbc2a6771	-0.010400639
68	0x3d331fa4	0.043731347
69	0xbd125b14	-0.03573139
70	0xbcc346eb	-0.023837527
71	0xbc87c41b	-0.016573003
72	0x3aed45d7	0.0018102479
73	0x3c4481ec	0.011993866
74	0x3d4b6a87	0.04966214
75	0x3d563d37	0.052304473
76	0xbdea53be	-0.11441754
77	0x3c4e8582	0.012605073
78	0xbb1b40a9	-0.0023689664
79	0xbdc3dfe2	-0.09564187
80	0xbbfaa80b	-0.007649427
81	0xbcf1d63d	-0.029521102
82	0x3db45b09	0.08806426
83	0xbb86a3ee	-0.0041088974
84	0x3d681e05	0.056669254
85	0xbbffa6f0	-0.007801883
86	0xbca62504	-0.020281322
87	0x3c4ba63a	0.012429768
88	0xbbb33e5e	-0.005470081
89	0x3d948f44	0.07253888
90	0xbbae9061	-0.00532727
91	0x3dbf0ff2	0.09329213
92	0x3d2baad3	0.041910958
93	0x39b57a46	0.0003461411
94	0xbd030a6b	-0.031992357
95	0xba858ce7	-0.0010189087
96	0xbd74380a	-0.059623756
97	0xbd0a3040	-0.03373742
98	0x3dc9f19f	0.09860539
99	0x3ca1c045	0.019745002
100	0xbc99b076	-0.018760901
101	0xbcdd20b4	-0.026993133
102	0xbd2a687c	-0.04160355
103	0x3ce9b636	0.028529268
104	0x3c749d62	0.014930101
105	0x3832356f	4.248827e-05
106	0x3ba14d3d	0.0049225376
107	0xbd2afb06	-0.0417433
108	0x3d86afa1	0.06576467
109	0x3b2f209f	0.0026722325
110	0xbd6a697a	-0.057229497
111	0xbb97ff68	-0.004638601
112	0x3c9eab66	0.019368839
113	0x3b9af38b	0.0047287396
114	0xbca61e1b	-0.020278027
115	0xbca29f91	-0.019851478
116	0xbd3d82a8	-0.04626718
117	0x3bbfa0fb	0.005848048
118	0xbd8a7e6a	-0.06762393
119	0xba5b7d83	-0.000837289
120	0x3d4e8cfc	0.050427422
121	0x3d348b68	0.04407826
122	0xbd64eb8b	-0.055888694
123	0x3bb3bd56	0.005485217
124	0xbc99ad98	-0.018759534
125	0x392892a5	0.00016076358
126	0xbc943b1a	-0.018094588
127	0x3cc7a280	0.024369478
128	0x3dadb2fb	0.084814034
129	0xbd8f89a8	-0.07008678
130	0x3c68df12	0.01421334
131	0xbd5ce3d5	-0.053928215
132	0x3c4f4736	0.012651255
133	0x3bbfd85c	0.0058546495
134	0x3d416c52	0.047222443
135	0x3d3c73be	0.046008818
136	0x3dbeef77	0.09323018
137	0xbcda0115	-0.026611844
138	0xbc90ac75	-0.017660359
139	0xbccaec27	-0.02477081
140	0x3d11e956	0.035622917
141	0xbb0f844c	-0.0021898923
142	0xbd157f6e	-0.03649848
143	0x3d109ee1	0.03530777
144	0x3c6ec3f4	0.014573086
145	0x3ac3e753	0.0014946259
146	0x3d367e46	0.044554017
147	0x3c1780af	0.009246989
148	0x3b9a0915	0.0047007897
149	0xbd119214	-0.0355397
150	0xbd1e4cd4	-0.038647488
151	0xbc83bacf	-0.016080288
152	0x3d6eada7	0.058271077
153	0xbc9009db	-0.017582824
154	0xbd141283	-0.036150467
155	0x3c8ddc00	0.017316818
156	0xbd21ee92	-0.03953416
157	0xbd5a39cf	-0.053277787
158	0x3c95789a	0.018245984
159	0xbd133c20	-0.03594601
160	0xbb7e5494	-0.0038807737
161	0xbd87ea2d	-0.06636462
162	0xbcc1e98e	-0.023670938
163	0xbd859819	-0.06523151
164	0xba889140	-0.0010419264
165	0x3bb1ebe1	0.0054297303
166	0xbd0815ae	-0.0332238
167	0xbc882c73	-0.016622758
168	0xbd23442b	-0.039859932
169	0x3d528ae8	0.051402003
170	0x3ce87664	0.028376766
171	0xb8cf2951	-9.878225e-05
172	0x3d4c28e0	0.04984367
173	0xbb92d964	-0.0044814814
174	0x3d2a1e9c	0.041533098
175	0x3c17a71a	0.009256149
176	0xba713f92	-0.0009202893
177	0xbac8c60a	-0.0015317809
178	0xbd1de5eb	-0.038549345
179	0x3bb43185	0.0054990673
180	0xbca589ae	-0.020207252
181	0xba693885	-0.00088966667
182	0xbddb28fc	-0.107011765
183	0xbc5eac4a	-0.013590882
184	0x3c639263	0.013889882
185	0x3d81882c	0.06324801
186	0xbc9d5508	-0.019205585
187	0xbd68939a	-0.05678139
188	0x3ce467bc	0.027881496
189	0x3bb2db7a	0.0054582926
190	0x3cfcd955	0.03086535
191	0x3cbb6a9d	0.022877986
192	0x3d048e7f	0.032362457
193	0xbd0c8ac8	-0.03431204
194	0xbdc5b652	-0.096539155
195	0x3cc868ee	0.024464097
196	0xbdb0f29a	-0.086400226
197	0x3a36e88a	0.00069774
198	0xbd25132c	-0.040301487
199	0xbd678ace	-0.05652886
200	0xbd2516a5	-0.0403048
201	0x3d48bdd2	0.04900915
202	0x3c71f0e8	0.014766909
203	0x3c6b0421	0.014344246
204	0x3d30439e	0.043033235
205	0xbda8e800	-0.082473755
206	0xbbcbdfde	-0.0062217554
207	0x3d98c758	0.07459897
208	0x3c6aa3c0	0.014321268
209	0x3be9c05a	0.007133526
210	0xbc8fe648	-0.017565861
211	0xbccdf8f5	-0.025143126
212	0x39b18a91	0.0003386331
213	0x3c18bbf8	0.009322159
214	0x3ca5b9ea	0.020230252
215	0x3cb2cb29	0.02182539
216	0x3c5e7fae	0.013580246
217	0x3c5dabc0	0.013529718
218	0xbd5cea85	-0.053934593
219	0x3b7a97bf	0.003823742
220	0xbc420fc4	-0.011844579
221	0x3d9defc1	0.07711745
222	0xbcc5ba3f	-0.02413666
223	0xbd18dc89	-0.037319694
224	0xbafb008f	-0.0019149947
225	0xbd6f2d57	-0.05839285
226	0xbc92a688	-0.017901674
227	0xbcc4cf80	-0.024024725
228	0x3c1af50a	0.009457836
229	0xbc3597d4	-0.011083562
230	0xbbfadb46	-0.007655534
231	0xbc6f41a8	-0.014603056
232	0xbc8df3c0	-0.017328143
233	0xbb50c8d6	-0.0031857989
234	0xbc8d5b1e	-0.017255362
235	0x3c7b1c44	0.015326563
236	0x3d54d8ba	0.0519645
237	0x3a9b1977	0.0011833151
238	0x3cb1df58	0.021712944
239	0x3cf82485	0.030290851
240	0x3ce53852	0.027980957
241	0xbc4eee97	-0.012630126
242	0xbccecfe3	-0.025245612
243	0x3c07f9ba	0.008299286
244	0x3cc53fcc	0.024078272
245	0x3d9ec5c7	0.07752567
246	0x3c14fec7	0.009093947
247	0xbd07a2ef	-0.03311437
248	0xbd1f3d2d	-0.0388767
249	0xbda2311f	-0.07919525
250	0xbca51c75	-0.020155171
251	0xbd681dcf	-0.056669053
252	0x3cd92bff	0.026510237
253	0xbc82f0c8	-0.015983954
254	0x3b5a3408	0.0033295173
255	0x3d34161c	0.043966398

action_model._continuous_distribution.mu.bias f4 [2]
0	0x3c55dfe8	0.013053872
1	0x3c0f718d	0.0087551

exp_avg f4 [128, 8]
0	0x3aede999	0.0018151283
1	0xb98afeb7	-0.00026511188
2	0x3af1dc9f	0.0018452591
3	0x3a5e8b29	0.00084893644
4	0x3a230455	0.0006218602
5	0x3a8a9f8c	0.0010576113
6	0xba017489	-0.00049383246
7	0x3a3a73cd	0.00071125926
8	0x39a679cd	0.00031752736
9	0x39b5643d	0.00034597694
10	0x39661a02	0.00021944198
11	0x395aa7b9	0.00020852582
12	0xb8cea05b	-9.852714e-05
13	0xb7b34541	-2.1370712e-05
14	0x37b126d3	2.1118123e-05
15	0xb82a8281	-4.06527e-05
16	0x3921f62d	0.00015445864
17	0x39d6f037	0.00040996235
18	0x397d26eb	0.00024142458
19	0x376f4424	1.4261375e-05
20	0x38adec8f	8.293345e-05
21	0xb99111c9	-0.00027669806
22	0x38f35ad7	0.00011604063
23	0xb8dc897d	-0.00010516027
24	0x38ab94b2	8.181612e-05
25	0xb989a123	-0.00026250732
26	0xb82175c8	-3.8495084e-05
27	0x3916fabb	0.00014398519
28	0x396b9d11	0.00022469858
29	0x3704b064	7.908882e-06
30	0xb9cc1f62	-0.00038933294
31	0x38a14112	7.6891985e-05
32	0x3b477c5b	0.0030439112
33	0x3964f5a7	0.00021835287
34	0x3b32de42	0.002729312
35	0x3af04a49	0.0018332686
36	0x3989607d	0.00026202566
37	0x3ace5dbe	0.001574449
38	0xb9fb6715	-0.00047951253
39	0x3a848461	0.0010110253
40	0xba46d941	-0.0007585474
41	0xb9da1db3	-0.00041602328
42	0xba3ee0b6	-0.00072814093
43	0xba1adb35	-0.0005907298
44	0xb7b575d0	-2.1631742e-05
45	0xba00c85c	-0.00049126684
46	0x3993aa53	0.00028164926
47	0xb9d7a61d	-0.0004113176
48	0xba915e82	-0.0011090788
49	0xb98f9840	-0.0002738852
50	0xba99a2ec	-0.0011721528
51	0xba3046a0	-0.0006724391
52	0xb8ad413c	-8.261434e-05
53	0xba077726	-0.0005167596
54	0xb818fd6d	-3.6475645e-05
55	0xb93ce4b0	-0.0001801427
56	0xba26225c	-0.00063375174
57	0xba277d89	-0.00063892506
58	0xb9d853f9	-0.00041261295
59	0xb9d610a4	-0.0004082966
60	0x39a7db6c	0.00032016204
61	0xb998ee28	-0.0002916914
62	0xb9e9cae6	-0.00044592394
63	0x390877d1	0.00013014606
64	0x3b732f4f	0.0037107056
65	0x39ab60d1	0.00032687795
66	0x3b53ce9a	0.003231919
67	0x3b174275	0.0023080383
68	0x391b7ef1	0.00014829241
69	0x3b00c6a4	0.001964965
70	0xba15129c	-0.0005686672
71	0x3a8713e6	0.0010305613
72	0xba972cbf	-0.0011533721
73	0xba08dc1f	-0.0005220789
74	0xba827423	-0.0009952824
75	0xba7c5307	-0.0009625409
76	0x392920f1	0.00016129368
77	0xba4b0e1f	-0.00077459397
78	0x38bcdb5e	9.005399e-05
79	0xb9c8163f	-0.00038163547
80	0x39c62489	0.00037792724
81	0x38d8c5e1	0.000103365404
82	0x39f0f900	0.00045961887
83	0x392c8a05	0.00016454615
84	0xb9000e77	-0.0001221242
85	0x38a74adb	7.9771235e-05
86	0x3a59f6fc	0.00083146966
87	0xb8e4918c	-0.000108989974
88	0x38a918d4	8.0631726e-05
89	0x3890814a	6.890537e-05
90	0x3909f411	0.0001315626
91	0x38814120	6.16333e-05
92	0x39045fec	0.00012624235
93	0x38e1dc1d	0.00010769835
94	0xb98a897c	-0.00026423845
95	0x392565ad	0.00015773503
96	0x3795d08f	1.7859302e-05
97	0xb8a15373	-7.692622e-05
98	0xb8c046a8	-9.168434e-05
99	0x39711c77	0.00022994155
100	0xb8d30c4e	-0.00010063556
101	0x398238d4	0.00024837872
102	0xb966aa68	-0.0002199799
103	0x37923b07	1.7432043e-05
104	0x3a1b1f45	0.000591744
105	0x39b256de	0.00034015527
106	0x39fce2d1	0.00048234177
107	0x3a0d1ec2	0.00053833064
108	0xba1affa7	-0.0005912729
109	0x3989a9a7	0.00026257077
110	0x3ab186b0	0.0013544168
111	0xba1e06eb	-0.00060282525
112	0xba671fc9	-0.0008816687
113	0xba2f8e7f	-0.0006696954
114	0xba879224	-0.0010343236
115	0xb9e12ee6	-0.00042950286
116	0xb8dd691a	-0.00010557678
117	0xb9ed8cac	-0.0004530897
118	0x3863e0e7	5.4330474e-05
119	0xb988190f	-0.00025958612
120	0x392a7fa9	0.0001626002
121	0x39bb5cbd	0.00035736515
122	0x39d9742c	0.0004147602
123	0xb7141fc5	-8.828884e-06
124	0xb8fb2558	-0.000119755685
125	0x37c5969a	2.355436e-05
126	0x39aef3c4	0.00033369486
127	0xb891aac0	-6.9459435e-05
128	0x384e16e5	4.913555e-05
129	0x39c7d028	0.00038111326
130	0x3993a9d1	0.00028164548
131	0xb921cbe1	-0.00015430107
132	0xb9e7e178	-0.0004422774
133	0xb8398475	-4.4230797e-05
134	0x3a20ed98	0.000613892
135	0xb98a06d6	-0.00026326504
136	0x3a6dcfc2	0.0009071791
137	0x39873e6e	0.0002579572
138	0x3a68c59d	0.00088795443
139	0x3a2e0f96	0.0006639896
140	0x38fe9e15	0.00012141109
141	0x3a0f1e70	0.00054595526
142	0xb9434172	-0.0001862103
143	0x39bb3680	0.00035708025
144	0x3ad4f130	0.0016246196
145	0x3a34fd1c	0.00069041713
146	0x3adda53c	0.0016910206
147	0x3a8ade34	0.0010594786
148	0xb98bbcfc	-0.0002665295
149	0x3a6b71bf	0.0008981488
150	0x393b1830	0.0001784272
151	0x39ac8332	0.00032904145
152	0x3ade41c9	0.0016956861
153	0x39cad385	0.00038686037
154	0x3aae4488	0.001329557
155	0x3a8ed26a	0.0010896449
156	0xb92a4e55	-0.00016241644
157	0x3a89bec1	0.001050912
158	0x35ba8530	1.3896843e-06
159	0x39a39b70	0.00031205593
160	0x3965e538	0.00021924532
161	0x390c784e	0.00013396257
162	0x390b844b	0.00013305356
163	0x3858edea	5.1719988e-05
164	0xb94cdced	-0.00019537257
165	0xb8194e4a	-3.6550955e-05
166	0x399c24aa	0.00029781956
167	0xb911c58e	-0.00013901872
168	0xbb228fff	-0.0024805067
169	0xba3258af	-0.0006803376
170	0xbb1eded5	-0.0024241705
171	0xba97ada3	-0.0011572134
172	0xb7975d52	-1.8044058e-05
173	0xba586999	-0.00082554814
174	0xba2264ce	-0.00061948306
175	0xb79c59a9	-1.86384e-05
176	0x39fd5c73	0.000483248
177	0xb99d5a82	-0.00030012807
178	0x39dac1a4	0.00041724474
179	0x360c6e58	2.0925854e-06
180	0x39aa2fa5	0.00032460425
181	0xb8ac56b9	-8.2177525e-05
182	0xb9581d38	-0.0002061025
183	0x39398bdc	0.00017695077
184	0x3af60e95	0.0018772656
185	0x391c9395	0.00014932298
186	0x3ac73760	0.0015198998
187	0x3a9b450b	0.0011846138
188	0x39fe6b30	0.00048526516
189	0x3a68dbd0	0.0008882852
190	0xba518014	-0.00079918024
191	0x3a507d51	0.0007953244
192	0x3a571d11	0.00082059304
193	0x399922a3	0.0002920824
194	0x3a859358	0.0010191007
195	0x39fc46b4	0.00048117863
196	0xb83e6e99	-4.5402532e-05
197	0x39c678d3	0.00037855524
198	0x398f3205	0.00027312353
199	0xb919bc27	-0.00014661309
200	0xb9aba4e4	-0.00032738515
201	0x39cbafa3	0.00038850037
202	0xb9b25f3d	-0.00034021764
203	0xb88642a6	-6.402032e-05
204	0xb9a24ea4	-0.0003095764
205	0x37ad94a1	2.0692418e-05
206	0xb9519bf5	-0.00019989892
207	0x384145b8	4.6079716e-05
208	0xbb6bbc63	-0.0035970442
209	0xba57685e	-0.0008217151
210	0xbb729346	-0.0037014051
211	0xbb025e1b	-0.0019892517
212	0xb89be32a	-7.4332886e-05
213	0xbaf9ff02	-0.0019073191
214	0xb9aeba5f	-0.00033326723
215	0xba41bf45	-0.0007390867
216	0xbab2b5da	-0.0013634518
217	0x3a639634	0.0008681745
218	0xba4ef162	-0.0007894245
219	0xba9d358b	-0.0011994106
220	0xba4ab891	-0.0007733191
221	0xba9de159	-0.0012045308
222	0x3a9c89dd	0.0011942942
223	0xba8eec19	-0.0010904103
224	0xb8a00360	-7.630023e-05
225	0xb9bc2d0b	-0.00035891714
226	0xb4789e0c	-2.3154297e-07
227	0x388eff06	6.8185895e-05
228	0x3895313a	7.114043e-05
229	0x3904f448	0.00012679503
230	0xb9a3a236	-0.0003121064
231	0x393663e7	0.00017394089
232	0x3ac21930	0.0014808532
233	0x36a46374	4.8991587e-06
234	0x3a9762ec	0.0011549867
235	0x3a7a2c5c	0.0009543353
236	0x35fc738b	1.880909e-06
237	0x3a8fee54	0.0010981061
238	0xb9a0f9ee	-0.0003070379
239	0x3a0a8f1b	0.00052856066
240	0x3a3022fb	0.00067190797
241	0xb997efbb	-0.00028979577
242	0x39fc5a9e	0.000481327
243	0x39f2a1c9	0.00046278376
244	0x3906652e	0.00012816928
245	0x3a4b1b97	0.00077479467
246	0xba0d19c6	-0.00053825637
247	0x39e3c366	0.00043442397
248	0x39a2817b	0.00030995518
249	0x38863e18	6.401184e-05
250	0x396cdc70	0.00022588833
251	0x398cef16	0.00026881014
252	0xb87c5abe	-6.0165992e-05
253	0x398e4acc	0.0002714008
254	0xb90b454c	-0.00013281888
255	0x38dd54da	0.00010553906

exp_avg_sq f4 [128, 8]
0	0x3652e462	3.1425375e-06
1	0x35da4fa3	1.6265443e-06
2	0x366994b6	3.4806267e-06
3	0x36967455	4.483891e-06
4	0x360381b0	1.959601e-06
5	0x3643d519	2.9181303e-06
6	0x36b41079	5.3663357e-06
7	0x35e4c9f5	1.7046101e-06
8	0x35d883f3	1.6131656e-06
9	0x35bb1056	1.393734e-06
10	0x355f51b5	8.3192873e-07
11	0x34f2951d	4.5184507e-07
12	0x361d4dd5	2.3440127e-06
13	0x3517dbbf	5.6571656e-07
14	0x3581c707	9.669174e-07
15	0x35d53b0c	1.5886922e-06
16	0x36057313	1.9885526e-06
17	0x35dd5626	1.6490856e-06
18	0x3580e7a9	9.604165e-07
19	0x350e9967	5.312235e-07
20	0x35c35a12	1.4554846e-06
21	0x3541cfc6	7.2200453e-07
22	0x3577be94	9.2292e-07
23	0x356939ea	8.688354e-07
24	0x34e8d9a1	4.3371713e-07
25	0x356caa12	8.8164336e-07
26	0x355c804e	8.2143094e-07
27	0x355ca7a4	8.2200336e-07
28	0x352715bd	6.224398e-07
29	0x34bd293e	3.5234e-07
30	0x357aaaaf	9.3380635e-07
31	0x34dc1ef4	4.1000715e-07
32	0x3663c328	3.3939232e-06
33	0x36295565	2.5232669e-06
34	0x365b6c4d	3.2696582e-06
35	0x35d40de7	1.5799277e-06
36	0x35d8cdfa	1.6153201e-06
37	0x35cba225	1.5171869e-06
38	0x35c81631	1.490762e-06
39	0x35ed810c	1.7695434e-06
40	0x357a805d	9.331905e-07
41	0x351da3ed	5.87256e-07
42	0x3592f13f	1.094806e-06
43	0x35119117	5.422784e-07
44	0x34f287db	4.517486e-07
45	0x3502798d	4.8605654e-07
46	0x34d2db64	3.9275176e-07
47	0x34c23899	3.6176496e-07
48	0x36026d45	1.9435113e-06
49	0x35f5ab9f	1.8303871e-06
50	0x35d4e80e	1.5862768e-06
51	0x359b3ca2	1.1566046e-06
52	0x356eee81	8.900898e-07
53	0x358a018f	1.0282255e-06
54	0x3588a630	1.0181157e-06
55	0x3532d954	6.662642e-07
56	0x3634240f	2.684308e-06
57	0x36649c07	3.4065467e-06
58	0x35d40479	1.5796533e-06
59	0x3556962f	7.993976e-07
60	0x360d8070	2.1085398e-06
61	0x359079ee	1.0764322e-06
62	0x35bc61a4	1.4035509e-06
63	0x3611f5bd	2.1749722e-06
64	0x36e3846e	6.780544e-06
65	0x36494f54	2.999751e-06
66	0x36a496ee	4.9051514e-06
67	0x363ad10f	2.7837848e-06
68	0x36321dc1	2.6541386e-06
69	0x36156948	2.2264012e-06
70	0x35fe2f66	1.893827e-06
71	0x35f7f62b	1.8474578e-06
72	0x36245ed6	2.4493106e-06
73	0x361ba14f	2.3190694e-06
74	0x36066904	2.0028683e-06
75	0x35d85adf	1.6119701e-06
76	0x35b01a30	1.3120643e-06
77	0x357d23a5	9.4301714e-07
78	0x3595bc5c	1.1156185e-06
79	0x357048c8	8.951288e-07
80	0x3614654d	2.2112683e-06
81	0x368b928f	4.1595845e-06
82	0x360b5119	2.075982e-06
83	0x358d7b52	1.054121e-06
84	0x36169bde	2.2442468e-06
85	0x358a28dd	1.0293694e-06
86	0x361e9c27	2.3634727e-06
87	0x361d46bf	2.3436003e-06
88	0x34a2a964	3.02981e-07
89	0x349d6dbb	2.9323368e-07
90	0x3499e4fe	2.8665085e-07
91	0x34b67d49	3.39913e-07
92	0x34df4974	4.159043e-07
93	0x34848634	2.4684562e-07
94	0x35205bc9	5.973821e-07
95	0x349af10c	2.886012e-07
96	0x35f1dbc0	1.8019855e-06
97	0x35f11bc1	1.7963977e-06
98	0x3643dbc5	2.9185187e-06
99	0x35861922	9.991093e-07
100	0x35d01b21	1.5505103e-06
101	0x355900b6	8.0839834e-07
102	0x358d2ded	1.0518685e-06
103	0x356bc97d	8.7837526e-07
104	0x36a440e6	4.895136e-06
105	0x3670803b	3.5837427e-06
106	0x36a65aef	4.9577716e-06
107	0x36b4074c	5.3652675e-06
108	0x36a0dc06	4.7939857e-06
109	0x3664bbac	3.4083887e-06
110	0x372a8582	1.0163874e-05
111	0x364b2bfb	3.0274957e-06
112	0x3699933e	4.5768966e-06
113	0x35fd795a	1.8885287e-06
114	0x3675d4a4	3.6631618e-06
115	0x36bda64d	5.651999e-06
116	0x35ad0559	1.2891061e-06
117	0x367113a2	3.5923226e-06
118	0x36df2675	6.650395e-06
119	0x35937cbb	1.0988655e-06
120	0x36300ec2	2.6234634e-06
121	0x3624b318	2.454215e-06
122	0x361d3212	2.3423968e-06
123	0x35b65b62	1.3586653e-06
124	0x362409e8	2.444367e-06
125	0x358efd42	1.0653532e-06
126	0x35eac484	1.7491552e-06
127	0x35bcd578	1.4069219e-06
128	0x366f8acb	3.5694563e-06
129	0x3680c64f	3.8377834e-06
130	0x36939935	4.398777e-06
131	0x364070c9	2.867588e-06
132	0x3678acb2	3.7055402e-06
133	0x35dbdac0	1.6380436e-06
134	0x3667f6b8	3.4565292e-06
135	0x36041192	1.967976e-06
136	0x356aa602	8.7413366e-07
137	0x35a7ba0e	1.2496619e-06
138	0x355ce35e	8.228725e-07
139	0x34ed4fe1	4.420281e-07
140	0x35840cdf	9.838512e-07
141	0x3553615f	7.874532e-07
142	0x35157b38	5.568613e-07
143	0x358e0837	1.0582215e-06
144	0x364f6a22	3.090718e-06
145	0x3671c4ca	3.6026345e-06
146	0x367e6b42	3.7911382e-06
147	0x369bd56f	4.644207e-06
148	0x3648311d	2.983091e-06
149	0x35bad946	1.3921315e-06
150	0x3683381a	3.9106353e-06
151	0x35b705ac	1.3636213e-06
152	0x36761ab0	3.667239e-06
153	0x36552504	3.176102e-06
154	0x36446c88	2.926945e-06
155	0x35b03acd	1.3130135e-06
156	0x36331cea	2.6689909e-06
157	0x36116357	2.1664507e-06
158	0x35ec040c	1.7584548e-06
159	0x361c350d	2.327669e-06
160	0x34af827c	3.269123e-07
161	0x35155586	5.563128e-07
162	0x349b21b2	2.8895516e-07
163	0x34938917	2.748063e-07
164	0x3566b0ea	8.593912e-07
165	0x34d74d05	4.010291e-07
166	0x357452a0	9.101732e-07
167	0x35270b3c	6.2228696e-07
168	0x37026f4d	7.774518e-06
169	0x3690e657	4.3183495e-06
170	0x36ca7a6e	6.034322e-06
171	0x367aff64	3.740156e-06
172	0x368ce467	4.1989147e-06
173	0x366ad0cf	3.499026e-06
174	0x36ee7ec1	7.107709e-06
175	0x3630dc41	2.6354248e-06
176	0x3643dfdd	2.918757e-06
177	0x360b2e48	2.0739553e-06
178	0x35a0546b	1.1945498e-06
179	0x3526281c	6.1898186e-07
180	0x36046e16	1.9733611e-06
181	0x35815810	9.636879e-07
182	0x35923864	1.089426e-06
183	0x35cf7d2b	1.545913e-06
184	0x361fd6b4	2.381782e-06
185	0x35ec0cad	1.7587059e-06
186	0x3623256f	2.4310682e-06
187	0x361df0a8	2.3534903e-06
188	0x35b17205	1.3220712e-06
189	0x358ec096	1.0635874e-06
190	0x35f19457	1.7999072e-06
191	0x358200b0	9.685955e-07
192	0x364f8f2d	3.0928743e-06
193	0x35a4f3de	1.2289927e-06
194	0x363d1db0	2.8180475e-06
195	0x359a231d	1.1484113e-06
196	0x35cf1f02	1.5431726e-06
197	0x35ac4ae7	1.2836798e-06
198	0x35b637fb	1.3576349e-06
199	0x358be82f	1.0423881e-06
200	0x36384abf	2.7461645e-06
201	0x365fcc7e	3.334862e-06
202	0x36190c3c	2.2805898e-06
203	0x354d6eff	7.652997e-07
204	0x360c0d86	2.0869497e-06
205	0x35af77de	1.3073402e-06
206	0x35c8954b	1.4944611e-06
207	0x3607d49e	2.0240327e-06
208	0x36dd4cc6	6.595251e-06
209	0x36409aed	2.8700408e-06
210	0x36e3b1c9	6.785824e-06
211	0x36ae02e2	5.1859397e-06
212	0x364436bc	2.9238136e-06
213	0x362d6a3d	2.5840848e-06
214	0x366b6769	3.5077921e-06
215	0x35cdd917	1.5336872e-06
216	0x36a67d1e	4.961751e-06
217	0x36a1b372	4.819064e-06
218	0x368715ba	4.025843e-06
219	0x36754916	3.6550387e-06
220	0x36d4fcc3	6.3475177e-06
221	0x3631769c	2.6444095e-06
222	0x36e0115b	6.6777407e-06
223	0x367e20a5	3.786795e-06
224	0x361e0c35	2.355094e-06
225	0x357c6946	9.403051e-07
226	0x359a5e72	1.1501381e-06
227	0x34e3323e	4.23186e-07
228	0x355bee4d	8.193063e-07
229	0x353fbe5c	7.1430054e-07
230	0x357b6d0b	9.3663465e-07
231	0x351319d5	5.479936e-07
232	0x367456bc	3.640932e-06
233	0x365f2c28	3.3255292e-06
234	0x362e2934	2.5952004e-06
235	0x35bdd5d6	1.4143832e-06
236	0x360f56e6	2.1359242e-06
237	0x3622f13a	2.4280293e-06
238	0x35fd8743	1.8889335e-06
239	0x3611b106	2.1709725e-06
240	0x36809f8b	3.8332705e-06
241	0x363108bc	2.638014e-06
242	0x36499743	3.003938e-06
243	0x36b88b57	5.4998486e-06
244	0x361c07ec	2.3250423e-06
245	0x365086bf	3.1072848e-06
246	0x36dc1cbe	6.559857e-06
247	0x360f6b7f	2.1371231e-06
248	0x35b63e33	1.3578159e-06
249	0x359fd300	1.1907832e-06
250	0x35892df0	1.0220665e-06
251	0x35002321	4.7734835e-07
252	0x358dca4e	1.0564197e-06
253	0x354fce75	7.7413944e-07
254	0x35351ec9	6.747255e-07
255	0x357cbf78	9.415594e-07

exp_avg f4 [128]
0	0x3aa6792a	0.0012700905
1	0x39af6eec	0.00033461244
2	0x39a76ec7	0.00031935258
3	0xb80a74a0	-3.301038e-05
4	0x3acdd30c	0.0015703156
5	0xb96c1666	-0.00022515058
6	0xba60e6ca	-0.0008579312
7	0xba439c28	-0.0007461929
8	0x3b0e6d07	0.0021732466
9	0xba5a94c9	-0.0008338211
10	0x3988fe42	0.00026129378
11	0x39422889	0.00018516382
12	0x382d6e4f	4.1349147e-05
13	0x3a266105	0.00063468545
14	0xba84e606	-0.0010139353
15	0x397529de	0.00023380617
16	0x395d3c50	0.0002109867
17	0x3a0caf8b	0.0005366734
18	0x3a8de041	0.0010824279
19	0x3a832c90	0.0010007787
20	0xb86550e9	-5.4673208e-05
21	0xbaedec87	-0.0018152156
22	0xb8c74eba	-9.5037234e-05
23	0x3a267237	0.0006349417
24	0x3a83edbc	0.0010065357
25	0xba172433	-0.0005765587
26	0xbb11a9c3	-0.002222643
27	0xba225f8f	-0.0006194049
28	0xb97c2596	-0.00024046595
29	0x3a02b452	0.0004985976
30	0x39b82c85	0.00035128384
31	0x38850bf5	6.3441614e-05
32	0x3a74b7da	0.00093352573
33	0x3a26a8b3	0.00063575356
34	0x39cf7938	0.00039572432
35	0xba39cc8b	-0.0007087669
36	0x3a3a63fd	0.00071102363
37	0x388ea097	6.801e-05
38	0xba85646c	-0.0010177023
39	0x3b0ea7f4	0.0021767588
40	0x39714d93	0.0002301245
41	0xbb33aa72	-0.0027414826
42	0x3ae1d1f5	0.001722871
43	0xb7f1682b	-2.8777946e-05
44	0xbab1effd	-0.001357555
45	0x3ad6a938	0.0016377335
46	0xb85d577b	-5.277198e-05
47	0x397fb7f9	0.0002438723
48	0xb8dab2ca	-0.00010428352
49	0xb8312d06	-4.224202e-05
50	0x39c8f7e8	0.00038331677
51	0xba676574	-0.00088270684
52	0xbb05746e	-0.0020363587
53	0xba1799f8	-0.0005783136
54	0xba383cdc	-0.0007028112
55	0x3a889122	0.001041923
56	0x3a6e2287	0.00090841245
57	0x39c6827a	0.00037862716
58	0x3af74330	0.0018864628
59	0xb9288709	-0.00016072033
60	0x37f4316b	2.9110079e-05
61	0x3a6527e5	0.00087416015
62	0xb9f5ea99	-0.0004690483
63	0xba15ff2b	-0.0005721922
64	0xbab52281	-0.0013819487
65	0x39bca8c1	0.00035983886
66	0xb9c841da	-0.00038196036
67	0x3928bc5c	0.00016091898
68	0x3ae70e09	0.0017628084
69	0xb9d93f0a	-0.00041436433
70	0x38baf84b	8.915419e-05
71	0x39a1bd39	0.00030849295
72	0xbabc35e0	-0.0014359318
73	0x39b14765	0.00033813264
74	0xba8fbe1d	-0.0010966692
75	0xba53eb28	-0.0008084052
76	0x399dfb04	0.00030132395
77	0xb90e5377	-0.00013573268
78	0xb9efba4f	-0.00045724443
79	0xba125c69	-0.0005583228
80	0x3869fbac	5.5785917e-05
81	0x38e03fe4	0.00010693053
82	0xbb372051	-0.0027942846
83	0xb97b5425	-0.00023968572
84	0xb9863304	-0.0002559648
85	0x370e0812	8.465739e-06
86	0xb95118dc	-0.00019941054
87	0x39d3b1fe	0.0004037767
88	0xba1de1bf	-0.00060227135
89	0xb9f81b39	-0.0004732253
90	0x3a7fe2e7	0.0009761289
91	0xba639db2	-0.0008682861
92	0x3a36a991	0.00069680164
93	0xba2a7c6d	-0.0006503526
94	0xb7d400c2	-2.5272722e-05
95	0xb9fda34e	-0.00048377592
96	0x3985c93e	0.00025517674
97	0xb973a5fd	-0.00023236121
98	0x397f2859	0.00024333726
99	0xb7d1dda2	-2.5017947e-05
100	0x3b1f14c3	0.002427385
101	0x3aa9b265	0.0012946842
102	0x3a2cf1f4	0.0006597333
103	0xb8631a68	-5.414561e-05
104	0xbafd8f7f	-0.0019345133
105	0xba550b5c	-0.0008126998
106	0x3962dae7	0.00021634587
107	0xba2dc10e	-0.00066281937
108	0xba4df313	-0.000785635
109	0x38e1e920	0.00010772259
110	0x3aaf2787	0.001336322
111	0xb957cb4e	-0.00020579735
112	0xb9b2c317	-0.0003409616
113	0xb891f246	-6.959266e-05
114	0xba0b4946	-0.0005313348
115	0x3a3cd164	0.00072028325
116	0x3a866ef1	0.0010256452
117	0x3aecb175	0.0018058257
118	0xba29afdf	-0.0006473045
119	0xb9b235e2	-0.00033990951
120	0x38ca8d7f	9.658466e-05
121	0xbab7b0e5	-0.0014014511
122	0xbb4ca199	-0.003122425
123	0xb91b9867	-0.00014838726
124	0xbb19238d	-0.0023367137
125	0x39be86ea	0.00036340143
126	0xb95229be	-0.00020042711
127	0x38df81bc	0.000106576335

exp_avg_sq f4 [128]
0	0x3651a600	3.1240052e-06
1	0x361c4be7	2.3289992e-06
2	0x36366bf0	2.7182941e-06
3	0x3588e0da	1.019823e-06
4	0x3677e02c	3.6936353e-06
5	0x356531f7	8.5381856e-07
6	0x3616b3db	2.2456431e-06
7	0x36a1ce8c	4.822219e-06
8	0x36b5787f	5.408248e-06
9	0x364ae7fa	3.0235374e-06
10	0x36c0aa46	5.7418683e-06
11	0x34c0f962	3.5944237e-07
12	0x364dc058	3.065934e-06
13	0x36a437c4	4.894073e-06
14	0x365543f2	3.1779023e-06
15	0x3689cf5e	4.107059e-06
16	0x36cf4022	6.176547e-06
17	0x35a56ab3	1.2324512e-06
18	0x3689bbc0	4.104775e-06
19	0x36bf2f25	5.697732e-06
20	0x351569ac	5.56606e-07
21	0x3724e9b3	9.829574e-06
22	0x3647439e	2.969267e-06
23	0x364295d9	2.8995476e-06
24	0x365daa82	3.3030815e-06
25	0x36b07c03	5.2596456e-06
26	0x36e59da8	6.8430854e-06
27	0x36f08eb4	7.16917e-06
28	0x3633311d	2.6701666e-06
29	0x36b02daf	5.250527e-06
30	0x368d22e3	4.206189e-06
31	0x36112447	2.16278e-06
32	0x365caf62	3.288464e-06
33	0x36089e5c	2.0357757e-06
34	0x359d7b70	1.1733337e-06
35	0x36a0f20e	4.7965505e-06
36	0x35e9d6bd	1.742235e-06
37	0x361c9b5c	2.3336243e-06
38	0x367bae9e	3.7503555e-06
39	0x36bf7cd6	5.7067764e-06
40	0x3723c867	9.762217e-06
41	0x36ddbe45	6.6084635e-06
42	0x370718f1	8.052434e-06
43	0x366fabd1	3.5713786e-06
44	0x369209f1	4.3522964e-06
45	0x36cae268	6.0464263e-06
46	0x34e7be89	4.3165736e-07
47	0x350a00c7	5.141014e-07
48	0x3564781c	8.51114e-07
49	0x35a6e861	1.2435595e-06
50	0x35934858	1.0973408e-06
51	0x3664c9a1	3.409201e-06
52	0x3735d38e	1.0837697e-05
53	0x358c0f4d	1.0435266e-06
54	0x367df97b	3.7845155e-06
55	0x36849ab3	3.951916e-06
56	0x36f35cf3	7.252785e-06
57	0x36348f10	2.6905363e-06
58	0x36f12aed	7.187357e-06
59	0x35c78a5f	1.4866927e-06
60	0x370ff120	8.5796055e-06
61	0x3621e607	2.4124763e-06
62	0x35e39e55	1.6958899e-06
63	0x36bc0cbd	5.6043195e-06
64	0x3629ffb4	2.5331801e-06
65	0x365cc56c	3.289747e-06
66	0x35f94e58	1.8574747e-06
67	0x361c1162	2.325593e-06
68	0x3685a865	3.9833126e-06
69	0x3605b1b1	1.9921974e-06
70	0x35991d65	1.1407943e-06
71	0x35362e46	6.786762e-07
72	0x36a8c997	5.0302583e-06
73	0x3655d891	3.1865532e-06
74	0x3721907a	9.629986e-06
75	0x36f8630d	7.402507e-06
76	0x366d3f5c	3.5352632e-06
77	0x359a2980	1.1485972e-06
78	0x36afe76c	5.2423475e-06
79	0x363dcc82	2.8282234e-06
80	0x354e98df	7.6963437e-07
81	0x36b684c1	5.4394773e-06
82	0x37694ba1	1.3905491e-05
83	0x37028e8b	7.781792e-06
84	0x3585141f	9.915128e-07
85	0x3597a611	1.1298708e-06
86	0x37037063	7.8343755e-06
87	0x3690ba31	4.31321e-06
88	0x369b84d4	4.634823e-06
89	0x3681c181	3.8670264e-06
90	0x3631217a	2.6394541e-06
91	0x37a1ef8f	1.9304249e-05
92	0x36bfdbfd	5.7178536e-06
93	0x36ac3cef	5.133093e-06
94	0x35a5d778	1.2356168e-06
95	0x36b7b9bd	5.475448e-06
96	0x356dffed	8.86618e-07
97	0x35937c69	1.0988562e-06
98	0x37a2ed5d	1.9422436e-05
99	0x34c1a4c7	3.6068943e-07
100	0x37240548	9.776391e-06
101	0x3684b731	3.955233e-06
102	0x35c1b2c4	1.4431648e-06
103	0x36403cc1	2.8645593e-06
104	0x372f61d9	1.0453595e-05
105	0x36d85b41	6.447925e-06
106	0x34c80e68	3.7263385e-07
107	0x35fc63a5	1.8804463e-06
108	0x35c5c4f2	1.4734962e-06
109	0x36d706f6	6.4083097e-06
110	0x3736fb8d	1.0906614e-05
111	0x35d843dc	1.6113004e-06
112	0x3622ec83	2.427755e-06
113	0x361b0cad	2.3104178e-06
114	0x3693f063	4.408926e-06
115	0x367aea85	3.7389411e-06
116	0x3686b593	4.014649e-06
117	0x37001527	7.634319e-06
118	0x36257772	2.4656442e-06
119	0x36d21453	6.2608538e-06
120	0x35c349c9	1.4550106e-06
121	0x369f33fc	4.744621e-06
122	0x3761b204	1.3452493e-05
123	0x362d2440	2.580011e-06
124	0x374bbe0b	1.2143991e-05
125	0x36cc531a	6.089348e-06
126	0x353d77b9	7.0582206e-07
127	0x3507b08a	5.054832e-07
