results/3dball_test_5/3DBall/3DBall-133445.onnx (onnx, 77052 bytes, 9 tensors)

network_body.observation_encoder.processors.0.normalizer.running_mean f4 [8]
00000000: 56d5 12ba c9c9 883a bd66 cc3d cc4c 4540
00000010: 0204 5bbd 8ba1 a73c d44e 09bf b78d e6bb
-0.00056012475 0.0010436113 0.09980533 3.0828123 -0.05347062 0.020462772 -0.5363591 -0.0070359367

network_body._body_endoder.seq_layers.0.weight f4 [128, 8]
00000000: cea0 813e a6a5 27be 17a3 86bc 693f 26bf
00000010: 4491 623f 2e83 853e 30fc f03d 213b fa3d
00000020: c349 0bbe 34f3 023f 2a4e 09bf 177c bdbd
00000030: 781d fabe 6794 47be 65ce 4e3e 44c1 133d
00000040: bdb6 5d3c 3000 7c3f fcc4 c1bd b9c7 843d
00000050: 9456 9cbd 4cc3 f9be f934 f93e 007d eb3d
00000060: b79c 1dbf 1aca 4e3d f64c b2be a24b e53d
00000070: c77e c2be e0dd 7b3e 215c d6be 890d 843d
00000080: d926 7f3e 8ba1 a4be 58e0 45be 0f5d debe
00000090: 712b 2abd 78c5 473f ecba 653e b23d a03e
000000a0: 35ec 193e 2ccf 41be b976 8dbe 0cfb 693f
000000b0: 4420 e83e 3420 ba3e 2965 053f 5109 1f3e
000000c0: 72e8 6d3e 48bd ad3e 44d8 98be 9bcf 8f3e
000000d0: f694 84be fb3a 613f c5b2 95bd fb64 b2be
000000e0: 11a1 72be bcb4 b9bd fd10 533e 3c18 9d3d
000000f0: 3a1f e5bd 69d2 86be b5fd 1d3f 1ee5 bbbe
00000100: 1be7 803e f53a 033e 868c 56bd a972 bf3e
00000110: 3f48 0bbe e2f4 6e3f 54ae 0e3e b7f4 c03e
00000120: 4597 fdbd 8659 86be 8072 e6bd aef8 c03e
00000130: d249 e3be 3991 27be a54d 143e acc2 093e
00000140: de3c 3e3e 9602 00bd a425 28bf 2733 16bf
00000150: 947e 403e 0b61 18bf 83a3 9a3d 78c9 5a3d
00000160: 7f1e 4ebd 450a a3ba 8211 9a3d 1aef 2bbe
00000170: e1f1 7b3e 4910 5ebd 0be0 9c3d 6c7e 25bd
00000180: 4121 1abf a236 b83e 27e6 94be 61f9 0f3f
00000190: b765 c03b 99e9 cf3e d8cf e23e 0f28 2cbe
000001a0: b2be 993e 1f3f 95bd dc11 a33e 5d36 2ebe
000001b0: 873f 6b3e 98d3 ef3d 9fe6 9b3c 6253 f43e
000001c0: 14da 0dbe a4c9 5d3e 1613 a53e 5ba1 d9be
000001d0: 3da9 1bbe bdff ee3d 1cf4 bebe 65da 43bf
000001e0: f3c1 9bbd 3691 573e 2fc1 0cbf 1e47 1c3e
000001f0: 3e92 1dbf 5fb5 c4be 0c33 503e e469 d83e
00000200: 0930 ae3b 8c8a 113e 9521 55bf 5a96 1b3f
00000210: cd5c 77be ebd0 363e 4bdf c4bc 63a4 6e3d
00000220: 6374 493e 46e2 cd3e 8b93 26be 8616 8fbc
00000230: ddc5 233f 9cde 1d3e 87fd d23b 7739 51bf
00000240: 4927 69be 0500 ad3e c19f c2bd 8b6c 4a3f
00000250: 91d0 a63e 8957 a03b cbe6 c9be 0c04 443d
00000260: 01c8 85be eee1 133f df47 083e f92f 973c
00000270: ec0f d43c dac0 273e 23f4 293e d84b 6ebd
00000280: 9b7c a43b 1970 683e 07b2 aa3e 6dc3 99be
00000290: 332d c0be 7740 b73e 876a 1cbf 71b6 c13e
000002a0: 49a4 c5be fb42 c8be 0c2e 1c3f 5e85 123e
000002b0: 41b5 8e3d a54d adbd a385 6cbe a8d5 0dbf
000002c0: 9f6d dfbe 5761 bb3e 93c3 b9be 48e7 8abe
000002d0: 6566 c7be 9b65 e9be 84db 573d fff5 08bf
000002e0: 1af6 c63e bcea f6be c9fb ea3e 4eb5 ec3e
000002f0: a540 0d3d 3ca7 2f3e 0ec0 adbd 18a2 dcbc
00000300: 7ba4 813f c94b e63e 4f6e c1be 0835 fc3d
00000310: 3e5e 7c3e a914 283d e74d 443e e54a 483e
00000320: 6d6a a23d 3073 2bbe fd25 f6be ff08 7cbe
00000330: f7e8 9f3d 796f 873e e4a0 583f 80f0 9abe
00000340: 8097 223e 230c b1be b4ee 063e 53ec d33e
00000350: 6061 713d 9d7d a03d 6358 283c 1196 0fbf
00000360: 6a4d e63e 204d 103f 8902 afbe 5211 6dbd
00000370: 1fa3 b8be 2312 9dbd 68ec d9be af6e 533d
00000380: e1b8 33bf 557b f6be 0343 47bd a340 15bf
00000390: dcbb ecbd c9e0 1cbf 6036 983d a82e 61bf
000003a0: 88a1 b1bd 6ebc cb3e d247 823e a51b 973d
000003b0: dcd8 51bd 52b3 153f 87fb 003e 2abb 9ebe
000003c0: de12 0ebf c6d8 1a3f aaf1 1a3f da08 9fbe
000003d0: e4f4 e8be e0d7 c7be 175d e0be cd19 aa3e
000003e0: 1763 85be 8a1a bc3e 4d21 1fbe f485 8c3e
000003f0: 1699 20bf be77 103f c782 b33e 0b54 293e
0.25317997 -0.16371784 -0.01643519 -0.64940506 0.8850291 0.26076645 0.11766851 0.12218309
-0.13602357 0.5115235 -0.53634894 -0.09252184 -0.48850608 -0.19490205 0.20195921 0.036072984
0.013532338 0.98437786 -0.094614 0.064834066 -0.07633701 -0.48781812 0.48673227 0.11498451
-0.6156725 0.050485708 -0.34824342 0.111960664 -0.37987348 0.24596357 -0.41867164 0.06447894
0.24917163 -0.32154498 -0.19323862 -0.43430373 -0.041545335 0.7803569 0.22434586 0.3129707
0.15031512 -0.18926686 -0.2762964 0.9139869 0.45337117 0.36352694 0.52107483 0.15530898
0.23233202 0.33933473 -0.29852498 0.28088078 -0.25894898 0.8798062 -0.07309488 -0.34842667
-0.23694254 -0.090676755 0.2061195 0.07670638 -0.111875966 -0.26332405 0.6171525 -0.3669824
0.2517632 0.12815459 -0.052380107 0.37392166 -0.13601778 0.9334241 0.13933688 0.37686703
-0.12382368 -0.26240176 -0.11252308 0.37689728 -0.44392258 -0.16363992 0.14482744 0.13453168
0.18577906 -0.031252466 -0.65682435 -0.586718 0.18798286 -0.59523076 0.07550719 0.05341479
-0.050322052 -0.0012438974 0.075228706 -0.16790429 0.24603988 -0.05421475 0.0765992 -0.04040377
-0.6020699 0.35979182 -0.29081842 0.56239897 0.0058715004 0.40607908 0.44299197 -0.16812156
0.300283 -0.0728743 0.31849563 -0.17012925 0.22973453 0.1171028 0.019030867 0.47719866
-0.13852721 0.21658951 0.32241124 -0.42505917 -0.15201278 0.11669872 -0.37295616 -0.7650512
-0.07605352 0.21051487 -0.54982275 0.15261504 -0.6155127 -0.38419625 0.20331973 0.42268288
0.005315785 0.14213008 -0.8325437 0.60776293 -0.24156494 0.17853133 -0.024032256 0.05826224
0.19673304 0.40211695 -0.1626722 -0.017466795 0.6397379 0.1541695 0.006438914 -0.8172831
-0.22768892 0.33789077 -0.09503127 0.79071873 0.32581 0.0048932475 -0.39433894 0.047855422
-0.26129153 0.57766616 0.13308667 0.018455492 0.025886498 0.16382161 0.16597037 -0.0581778
0.005019737 0.22699012 0.3333895 -0.3003191 -0.37534484 0.3579137 -0.6110005 0.37834504
-0.38601902 -0.39113602 0.6100776 0.14308688 0.06968165 -0.08462075 -0.23097853 -0.5540414
-0.43638322 0.36597702 -0.36282024 -0.2712958 -0.38945308 -0.4558533 0.05269958 -0.5350036
0.38859636 -0.48225963 0.45895222 0.46232074 0.034485478 0.17153639 -0.08483897 -0.026932761
1.012832 0.44979694 -0.3777947 0.123148024 0.24645326 0.041035328 0.19170342 0.1955982
0.07930455 -0.1674316 -0.48075858 -0.24612807 0.078081064 0.26452234 0.846205 -0.30261612
0.15878105 -0.34579572 0.13176996 0.4139124 0.058930755 0.07836459 0.010274979 -0.5608836
0.44980937 0.56367683 -0.34181622 -0.057877846 -0.36061952 -0.07669475 -0.42563176 0.051619228
-0.7020398 -0.4814097 -0.04864789 -0.5830175 -0.11559269 -0.61280495 0.07432246 -0.87961817
-0.08673388 0.39792198 0.2544542 0.0737832 -0.051232204 0.58476746 0.1259595 -0.3100217
-0.5549754 0.6048702 0.60525 -0.3106144 -0.45499337 -0.39031887 -0.43821022 0.3322281
-0.26052162 0.36738998 -0.15540047 0.27445948 -0.6273359 0.5643271 0.35060713 0.16535966

network_body._body_endoder.seq_layers.0.bias f4 [128]
00000000: d13c 8c3b 8aa7 ccbc e6f2 8bba 72c1 35bb
00000010: 457e 593c c54f 85bd a0ac 7dbb 41c0 6dbc
00000020: b439 d13c 59e8 9ebc 125b aabd bdba da3c
00000030: cf9e 563c c1bc 7bbd 37c9 79bd 19ae 54bb
00000040: 4c20 e5bb d241 023d 5573 9cba 18e9 b13c
00000050: 3afc 57bd 5649 253d da14 afbd bc8c 993d
00000060: bd1e 1abd d4f7 c63c 4757 713c 944d 98bc
00000070: 83b9 88bc 6cd2 393d de0d 21bc f896 0d3d
00000080: bcbd 12bd c974 87bd c5d9 6e3d b294 ab3c
00000090: b1be 2a3b 555e adbd 424f cdbc 056b 0abc
000000a0: 92a9 98bd ed8b dabb 49c5 123d 2f4c 81bd
000000b0: a53c 643c 1d42 e1bb 1c72 a4bd 8129 4dbd
000000c0: b0cf 9dbd 1adb 2bbd a4b3 0e3c 4554 08bd
000000d0: 7b7d 0d3d 8776 b2bc aa28 f23c 3d02 e9bc
000000e0: ddf7 ccba 6183 2fbd 431f b2bb 268d 61bd
000000f0: 1393 f5bc 158a 70bd c853 4dbd d828 febb
00000100: f1b9 09bd eea8 91bd b494 7e3c bc1c babb
00000110: 342a afbc 9877 07bd 7505 61bd 97b5 cdbc
00000120: 1461 c439 7de5 8ebd 85ff 243a 3d11 91bc
00000130: 4dea 25bd e9d3 c1bd a9ce 04bd e281 97bb
00000140: 37b5 80bd 6140 833c cb0b e63c 515b b6bc
00000150: b0b7 3a3c bab5 78bb 0797 a8bc 5923 6dbd
00000160: d206 6dbd 2af1 f53c 28a0 27bd d146 873d
00000170: cb26 8b3c 5436 fa3c 30c3 07bd fc78 133d
00000180: 0a65 d5bb 8698 9d3a 7a59 dabb 3767 b83c
00000190: bcc6 1f3d ae84 33bd 07e8 8a3c 650b 053d
000001a0: 9f19 483d a3e9 383c 63df 7abc 755d bdbc
000001b0: c588 78bd 21ed 27bd 4270 263c ae06 4abd
000001c0: 5085 64bc 5d44 81bd 7431 b23b ae36 8c3a
000001d0: 3564 2e3c c345 3bbb ba9a 6a3c 1f2c 25bd
000001e0: 0cba dbbd be13 3d3d 8c12 373c 054b 1ebd
000001f0: 5093 ec3b 1c4b 043c 4f5a 8a3c 2a0d 54bd
0.004279711 -0.024982233 -0.0010677248 -0.002773371 0.013274734 -0.065093555 -0.003870763 -0.014511169
0.02554021 -0.019397901 -0.083181515 0.026700372 0.013099386 -0.061459307 -0.06098291 -0.0032452403
-0.0069923755 0.031801052 -0.0011936227 0.021717593 -0.052730776 0.04035314 -0.08548899 0.07497546
-0.03762697 0.024288096 0.014730281 -0.01859168 -0.016690021 0.04536669 -0.009829966 0.034567803
-0.035825476 -0.06614072 0.05831315 0.020944927 0.0026053602 -0.08465258 -0.025062207 -0.008448367
-0.07454218 -0.0066695125 0.035832677 -0.06313359 0.013930474 -0.0068743364 -0.08029577 -0.05008841
-0.07705629 -0.041957 0.008709822 -0.03328349 0.034543496 -0.021785034 0.029560406 -0.02844345
-0.0015637834 -0.042849902 -0.0054358556 -0.05506625 -0.029977357 -0.058725435 -0.05012873 -0.007756334
-0.033624593 -0.07112299 0.015538383 -0.005679695 -0.021382429 -0.033073038 -0.054936845 -0.025111003
0.00037456362 -0.06977365 0.0006294179 -0.017708415 -0.04050665 -0.09464247 -0.03242365 -0.0046236375
-0.06284564 0.01602191 0.028081795 -0.02226034 0.011396334 -0.0037950114 -0.020579828 -0.05789504
-0.057867832 0.030022223 -0.04092422 0.06605304 0.016986271 0.030543484 -0.03314513 0.03600405
-0.006512289 0.0012023605 -0.0066634985 0.022510154 0.039007887 -0.043827705 0.016956342 0.03248157
0.04885256 0.011286172 -0.015312049 -0.023115853 -0.06067731 -0.040997628 0.0101586 -0.049322776
-0.0139478 -0.063118674 0.005438024 0.0010697448 0.010644008 -0.0028575517 0.014319116 -0.04032528
-0.10728845 0.046161406 0.0111738555 -0.038645763 0.0072197095 0.008074548 0.016888766 -0.051770367

network_body._body_endoder.seq_layers.2.weight f4 [128, 128]
00000000: eeba 1fbe 5543 80bd 005c 1e3d 727e f1bd
00000010: bb7f 14bd aa25 68bd 65d3 2abd 5924 353d
00000020: 0231 02bb b0ac 843d dd5d 10be de2e 96bd
00000030: 190d cd3d 6085 cbbd 56cb 8bbd a419 c43d
00000040: 799a 0bbe e97a 80bd e684 02be 0053 073d
00000050: a6ba 34be 15cd 4b3e fd28 26bd fa21 613e
00000060: a5a9 fdbd bc26 3a3d eff1 e2bc 149c 1fbe
00000070: 6c7d cd3d 4fea 74bd 559e 47be 081c d73d
00000080: c6b8 c13d 709f a9bd f3df 413e 7881 c73d
00000090: 4445 29bd 16be 58bd 2f82 cc3d 3f6b 883c
000000a0: 5bb9 14be c5c9 96bd 7772 a0bb 5e02 15be
000000b0: bb8d 3a3e ec21 32be b0b6 e8bd 13c1 60bc
000000c0: 2dff 7cbc 6026 0abb d0f0 b73d 9c7b 953e
000000d0: e088 2a3e c645 713e 1bfc 91bd d0dc 81be
000000e0: 7cf6 04bd f292 75bd 00cd 74be 0ec7 d53b
000000f0: 3f66 c33d 3b0b 2cbe d063 8dbd 878c 0fbe
00000100: ed2b e1bd 492a 323e 1306 00bd c590 c4bc
00000110: dc8e a2bd 7426 11bc 5740 01bd b97a 323c
00000120: 115a 313d b00e c8bd cd11 e03d f2dd f5bd
00000130: dc1d 63bd 4bc4 00bc 0596 d6bd 9c8b 8a3d
00000140: 5c73 f03d 8350 f3bd b2fe c73d e4fd c73c
00000150: ff63 92bd 8bb6 d8bb 6e1b 7a3d 0bff 093c
00000160: 4896 29be eec4 7c3d a159 2dbe 977b c73d
00000170: acf0 53bc 0b3d 0b3e 9eb5 bfbd 3769 ecbd
00000180: c3b9 593d 7696 213e f630 b7bd 6151 143e
00000190: 0839 d43d 442e 4b3d 558c b93d 2619 cfbc
000001a0: 005a 533b 77af a5bd 387d 5abc add1 bfbd
000001b0: c583 abbd c19f 25be 841c 5bbe eac4 103d
000001c0: 7bb4 c73c 3e95 a83d 1cf6 ecbb b81a 83bd
000001d0: 7699 abbc 02df 32be 2106 6c3d 3702 2ebd
000001e0: bf70 4ebc 7c19 22bd 287d a43d 4ab4 a13d
000001f0: 3b9c f4bd 1409 75bd 1b7c b3bb 6e7d 9ebc
00000200: 19de e83c 4762 d4bd 92df 0e3e dc65 3fbe
00000210: 3710 283e 56b8 0b3d 2c12 dd3c b074 c1bd
00000220: b8ca 383e 4146 e93c c83d e2bc 4419 ec3c
00000230: e3ab 17bd 9ca3 3a3c 7752 3cbe 84d3 eebd
00000240: 9e7c e9bd 3beb 573d c24f c33d e3c9 a0bc
00000250: a789 033e c832 81be 7e91 9fbc a62b 033e
00000260: 9af4 443d 320b 1dbd e4fa 5bbe 109d d8bd
00000270: 3aad 7fbe 36af 273c 6f97 7c3d f0de 783d
00000280: 3dd4 13be 973a 483d 7cc9 cbbd 6b26 58bd
00000290: b1df ccbd 5dc1 fa3c 2ebb c3bd 8d01 693d
000002a0: 6a8d 80bc 3b88 63be 0fd9 cebb 6a51 74bc
000002b0: e235 ffbc 071b 053e 0803 b1bc b381 2a3d
000002c0: cc38 10bd 01ed 3cbd 90e9 393c 81dd 973d
000002d0: 6279 7bbd 1c7f cc3c 59b6 05be 2a36 8bbb
000002e0: 22c6 c13d 78cc 47be a777 6e3d 223b 8b3b
000002f0: d998 093d 55fa 82bd c72c 7b3c c44f 20be
00000300: 6961 933d 15f0 5c3d 245c d6bd 3832 e03d
00000310: 0429 54bd d28f 7cbc ea52 db3d 8785 14be
00000320: 7af3 a9bd 3ce7 8abc 61ae a1bd 7fee 61bd
00000330: 5450 60be cd04 cfbd a640 a4bc 9f9c 63bd
00000340: a29a e13b 7b52 a33c f78e 9fbe f194 da3c
00000350: b1ed febd 5959 bd3b d2a4 8cbd c9d4 573c
00000360: 9fc2 8f3d 4dad 4bbe f265 073d 5c1c 543d
00000370: 6c09 013e b8d6 24bc a5f1 8c3d 59a6 4dbd
00000380: ad6c ae3d 63bf e8bd 14f3 1b3e d99e c13d
00000390: 93fe 053e 705e acbd d09f 763d a042 c7bc
000003a0: b7a6 b8bd 7251 07be bd39 8b3e 53b7 1ebd
000003b0: d263 09be bdd9 21bd 6f6c 193d 637e 88bd
000003c0: 3d92 c9bc f0ad ffbd 5ad8 b53d e865 d0bd
000003d0: 804f 513d 2913 4e3d 16ba b8bc 78e3 d6bd
000003e0: a281 293d 6307 a53d 2de7 3cbd e40e 7e3b
000003f0: 9522 5abc fd01 a8bd f9a7 0ebd b17e 533d
-0.15598652 -0.062628426 0.038661957 -0.11791696 -0.036254626 -0.056676544 -0.041705508 0.044224117
-0.0019865637 0.0647825 -0.14098306 -0.07333158 0.10012264 -0.09937549 -0.068258926 0.09575203
-0.13633145 -0.06273443 -0.12746009 0.03303814 -0.17649326 0.19902451 -0.040566433 0.21985617
-0.12385873 0.045447096 -0.027703254 -0.15586883 0.10033688 -0.059793767 -0.19493993 0.105033934
0.09459071 -0.082823634 0.18933086 0.09741491 -0.041325822 -0.052915655 0.09985768 0.016652701
-0.14523832 -0.07362703 -0.004896458 -0.14551684 0.18218128 -0.17395753 -0.1136297 -0.0137179075
-0.015441698 -0.0021080002 0.08981478 0.2919587 0.16653776 0.23561773 -0.071281634 -0.2536378
-0.03246163 -0.05995459 -0.23906326 0.0065239733 0.09540986 -0.16801159 -0.06903803 -0.1401845
-0.10994706 0.17398943 -0.031255793 -0.023994813 -0.079374045 -0.008859266 -0.0315555 0.010893517
0.043298785 -0.097684264 0.10940895 -0.12005223 -0.055448398 -0.0078593 -0.10477833 0.067649096
0.11740753 -0.11880591 0.09765376 0.024413057 -0.07147979 -0.0066135577 0.061061315 0.008422623
-0.16561234 0.061711244 -0.16928722 0.0974037 -0.012935799 0.13597505 -0.093608126 -0.11543506
0.05315567 0.15780053 -0.089448854 0.14484169 0.1036244 0.04960467 0.09059969 -0.025280546
0.003224969 -0.08090108 -0.013335519 -0.09366164 -0.083747424 -0.16174223 -0.21397597 0.035344042
0.024378052 0.08231591 -0.007231487 -0.064015806 -0.0209472 -0.17467883 0.057623032 -0.04248258
-0.012600123 -0.039575085 0.08031684 0.078957155 -0.11943861 -0.05982311 -0.005477441 -0.019346919
0.028426217 -0.103703074 0.13952473 -0.186912 0.16412435 0.034111343 0.026986204 -0.094460845
0.18046081 0.028475882 -0.02761735 0.028820641 -0.03702916 0.011391547 -0.18390833 -0.11661437
-0.11400722 0.052714568 0.09536697 -0.019627517 0.12845479 -0.25234056 -0.019478556 0.1280962
0.048084833 -0.038340755 -0.21482426 -0.10576832 -0.24968424 0.010234645 0.061667856 0.060759485
-0.14436431 0.048884 -0.099505395 -0.052771013 -0.10003603 0.03060978 -0.09557186 0.056886245
-0.015692431 -0.22219937 -0.0063124965 -0.014911989 -0.031153623 0.12998591 -0.02160789 0.041627597
-0.035210416 -0.046124462 0.01134719 0.074152954 -0.061395057 0.024962954 -0.13057841 -0.0042484
0.09461619 -0.19511592 0.058219578 0.0042489925 0.033593033 -0.06395403 0.0153305 -0.15655428
0.07196314 0.053939898 -0.10466793 0.109470785 -0.051796928 -0.015415149 0.10709174 -0.14504062
-0.082983926 -0.016955964 -0.07894588 -0.05515909 -0.21905643 -0.101083376 -0.020050358 -0.055569287
0.0068848887 0.01993679 -0.3116376 0.026682349 -0.1244768 0.0057784733 -0.068673745 0.0131732905
0.07019543 -0.19890328 0.033056207 0.051784858 0.1260125 -0.010060959 0.068820275 -0.05020747
0.08516822 -0.11364629 0.15229446 0.09454126 0.13085394 -0.0841645 0.060211003 -0.024323761
-0.09016173 -0.13214663 0.27192488 -0.03874905 -0.13416985 -0.039514292 0.037456926 -0.06664731
-0.024605865 -0.12484348 0.088791564 -0.10175687 0.051101208 0.05031124 -0.02254967 -0.10492605
0.041383393 0.080580495 -0.046118904 0.00387662 -0.013313909 -0.08203504 -0.03482816 0.051634494

network_body._body_endoder.seq_layers.2.bias f4 [128]
00000000: f68d 3b3d 5190 af3c 041e 9d3d 000f 783c
00000010: cb3c 88bc 99ff 8fbb c2e0 b03c 962c 033d
00000020: d870 273d 473e 323c b232 f3bc 12a0 59bb
00000030: 32a5 38bc 8412 4e3c ad1f 4d3c 48b9 883c
00000040: c624 423b cfde 2c3d fe36 74bb 024b d5bc
00000050: 7a00 aabc 2650 dd3c c8f6 94bc a5f7 74bc
00000060: 83b1 f23c 2d2e 79bc 8e45 49bc 3786 8fbb
00000070: f075 c438 dad6 c63b 1ba0 013c 09b1 983d
00000080: 381f c5bc aa8d e8bb c718 dcbc 2c5b 453c
00000090: 02be 90bc 0c2d a2bc 1c2c 81bb d253 d5bc
000000a0: cf46 d53c 9c23 083d df5d 8c3d 299a 72ba
000000b0: f9ed c73c 2b12 bfbc cfca 903c d261 17bc
000000c0: 0533 b1bc 4ddf c0bc 7c4b 2a3d ad6a c3bc
000000d0: ee4c 2fba 2366 5dbc 932d da3c f5b3 343d
000000e0: a956 d53a 7eb1 573d 6854 ae3c 210a d03b
000000f0: 38aa e2b8 3916 58bc 6adb 6e3b 5e8e a83c
00000100: 9405 2fba 1bcd 04bc afb3 953c 8b1c 27bc
00000110: 4b96 133d 94fb e5ba af5d a1bb c695 773b
00000120: ad03 f0bc 81ac d73c 54de b83c a9dd 473d
00000130: dcff 8b3c fd6f 183c 5e79 e9bc 9b6f 4f3d
00000140: c7de d3bc 17ff 0bbd 66c5 483d e1d9 38bc
00000150: 2d53 203d 362d 31bd 65a2 c2bb cdeb 9a3b
00000160: 90a5 90bb bc2b 5f3d 1825 ddbb 5144 483d
00000170: acd6 2c3b e42e 173d 9966 8dbc 066f 73bc
00000180: 7c94 d9bb cbcd 49bc 8f04 693d 278c 23bc
00000190: b449 80bc 4efe 9abc 9e2b 83bc f764 353c
000001a0: 2f8f 103c 47e2 01bd fa77 6dbc bd49 2ebc
000001b0: 816f 653d 2540 25bd 1148 e33a 7fcc 1b3c
000001c0: 8dc3 983c 27b8 7abc 840a 77bc 030a dcbc
000001d0: faea 563b 0590 233d a699 49bb 78cd edbb
000001e0: 90c6 233d 21e0 f23c 535f 7a3b 8fb7 f13b
000001f0: 45a0 eabb 1cb4 97bc e93d babc d4d1 d63c
0.04578968 0.02143112 0.07671741 0.015140295 -0.01663055 -0.0043944833 0.021591548 0.032024942
0.0408791 0.010879106 -0.02968726 -0.0033206982 -0.011269854 0.012577657 0.012519759 0.016689911
0.002962397 0.042204674 -0.0037264223 -0.026036743 -0.02075218 0.027015757 -0.01818408 -0.014951621
0.02962566 -0.015208763 -0.01228465 -0.0043800133 9.367976e-05 0.006068093 0.007911707 0.07455642
-0.024062738 -0.007096966 -0.026867284 0.012045663 -0.017668728 -0.01979687 -0.003942026 -0.026040945
0.02603474 0.033237085 0.06853842 -0.0009254539 0.024405466 -0.023324093 0.017674832 -0.009239631
-0.021630773 -0.023543978 0.041575894 -0.023854578 -0.00066871836 -0.013513121 0.02663306 0.044116933
0.0016276437 0.052659504 0.021280482 0.0063488637 -0.000108082255 -0.013188892 0.00364467 0.020575698
-0.00066765514 -0.008105542 0.018274156 -0.010199676 0.036032002 -0.001754629 -0.004924498 0.003777848
-0.029298628 0.026327373 0.022566952 0.048795376 0.017089777 0.009304044 -0.028500255 0.050643545
-0.025863064 -0.03417882 0.04901638 -0.011282415 0.039141823 -0.043256007 -0.005939769 0.0047278167
-0.004414268 0.054485068 -0.0067488067 0.048893277 0.0026373072 0.036909953 -0.017260836 -0.014858013
-0.006640015 -0.012317131 0.056889113 -0.009982145 -0.015660144 -0.01892009 -0.01601201 0.011071435
0.0088232 -0.031709936 -0.014493937 -0.010637698 0.05601454 -0.040344376 0.0017340203 0.009509205
0.018647933 -0.015302694 -0.015078191 -0.026860243 0.0032793866 0.03993227 -0.0030761748 -0.00725716
0.039984286 0.029647889 0.003820379 0.007376618 -0.007160219 -0.0185185 -0.0227346 0.0262231

action_model._continuous_distribution.log_sigma f4 [1, 2]
00000000: 0b47 f9bd c082 ecbd
-0.121717535 -0.11548376

action_model._continuous_distribution.mu.weight f4 [2, 128]
00000000: 9081 fa3c 5a8a 103c 53b3 de3d ea65 2dbd
00000010: 42e8 fcbb 2298 3bbd 93ab 8fbb 35a1 a1bc
00000020: 051a 38bb 5ed6 1e3d 6d12 d8bb e3ec b83b
00000030: 8363 d4bb bf54 0c3b fb5b 4fbd 21a6 363c
00000040: 587f 9c3c 2a6f 823d e7ce efba db77 e6bc
00000050: 6857 87bb 2f65 ed3c 8d72 b9bc 3348 61bd
00000060: ee1a 74bc 3acc 49bd d354 7abc e4a7 4ebd
00000070: f979 903c 724b 28bd cc3d 113c 6e49 b03d
00000080: 3e76 24bb 0ee7 2cbd 3f1c 23bc fa83 a53c
00000090: ff73 feba 6dc2 97ba 3a11 48bd b6ce 99ba
000000a0: 54a1 333d c189 d63c 900d e33d 5916 363c
000000b0: 5a6d fdbc 1eb0 3fbb 0950 c2bc 14ee ffbc
000000c0: 921c a8bc 8bfa 64bc 0eb2 b23d 0997 cebb
000000d0: 2b90 9fbd 672a 01bd 6390 963c d4c0 843d
000000e0: 3d70 dcbc 878f 8b3d f7ef 4f3d 7c9d 0dbd
000000f0: 3068 93bb 479c 5eba ed11 19bd 4910 f33c
00000100: 764f 8b3c c9f8 c3bc 8d3f b8bc 7167 2abc
00000110: a41f 333d 145b 12bd eb46 c3bc 1bc4 87bc
00000120: d745 ed3a ec81 443c 876a 4b3d 373d 563d
00000130: be53 eabd 8285 4e3c a940 1bbb e2df c3bd
00000140: 0ba8 fabb 3dd6 f1bc 095b b43d eea3 86bb
00000150: 051e 683d f0a6 ffbb 0425 a6bc 3aa6 4b3c
00000160: 5e3e b3bb 448f 943d 6190 aebb f20f bf3d
00000170: d3aa 2b3d 467a b539 6b0a 03bd e78c 85ba
00000180: 0a38 74bd 4030 0abd 9ff1 c93d 45c0 a13c
00000190: 76b0 99bc b420 ddbc 7c68 2abd 36b6 e93c
000001a0: 629d 743c 6f35 3238 3d4d a13b 06fb 2abd
000001b0: a1af 863d 9f20 2f3b 7a69 6abd 68ff 97bb
000001c0: 66ab 9e3c 8bf3 9a3b 1b1e a6bc 919f a2bc
000001d0: a882 3dbd fba0 bf3b 6a7e 8abd 837d 5bba
000001e0: fc8c 4e3d 688b 343d 8beb 64bd 56bd b33b
000001f0: 98ad 99bc a592 2839 1a3b 94bc 80a2 c73c
00000200: fbb2 ad3d a889 8fbd 12df 683c d5e3 5cbd
00000210: 3647 4f3c 5cd8 bf3b 526c 413d be73 3c3d
00000220: 77ef be3d 1501 dabc 75ac 90bc 27ec cabc
00000230: 56e9 113d 4c84 0fbb 6e7f 15bd e19e 103d
00000240: f4c3 6e3c 53e7 c33a 467e 363d af80 173c
00000250: 1509 9a3b 1492 11bd d44c 1ebd cfba 83bc
00000260: a7ad 6e3d db09 90bc 8312 14bd 00dc 8d3c
00000270: 92ee 21bd cf39 5abd 9a78 953c 203c 13bd
00000280: 9454 7ebb 2dea 87bd 8ee9 c1bc 1998 85bd
00000290: 4091 88ba e1eb b13b ae15 08bd 732c 88bc
000002a0: 2b44 23bd e88a 523d 6476 e83c 5129 cfb8
000002b0: e028 4c3d 64d9 92bb 9c1e 2a3d 1aa7 173c
000002c0: 923f 71ba 0ac6 c8ba ebe5 1dbd 8531 b43b
000002d0: ae89 a5bc 8538 69ba fc28 dbbd 4aac 5ebc
000002e0: 6392 633c 2c88 813d 0855 9dbc 9a93 68bd
000002f0: bc67 e43c 7adb b23b 55d9 fc3c 9d6a bb3c
00000300: 7f8e 043d c88a 0cbd 52b6 c5bd ee68 c83c
00000310: 9af2 b0bd 8ae8 363a 2c13 25bd ce8a 67bd
00000320: a516 25bd d2bd 483d e8f0 713c 2104 6b3c
00000330: 9e43 303d 00e8 a8bd dedf cbbb 58c7 983d
00000340: c0a3 6a3c 5ac0 e93b 48e6 8fbc f5f8 cdbc
00000350: 918a b139 f8bb 183c eab9 a53c 29cb b23c
00000360: ae7f 5e3c c0ab 5d3c 85ea 5cbd bf97 7a3b
00000370: c40f 42bc c1ef 9d3d 3fba c5bc 89dc 18bd
00000380: 8f00 fbba 572d 6fbd 88a6 92bc 80cf c4bc
00000390: 0af5 1a3c d497 35bc 46db fabb a841 6fbc
000003a0: c0f3 8dbc d6c8 50bb 1e5b 8dbc 441c 7b3c
000003b0: bad8 543d 7719 9b3a 58df b13c 8524 f83c
000003c0: 5238 e53c 97ee 4ebc e3cf cebc baf9 073c
000003d0: cc3f c53c c7c5 9e3d c7fe 143c efa2 07bd
000003e0: 2d3d 1fbd 1f31 a2bd 751c a5bc cf1d 68bd
000003f0: ff2b d93c c8f0 82bc 0834 5a3b 1c16 343d
0.030579358 0.008822048 0.10874047 -0.04233352 -0.007718117 -0.045799382 -0.004384467 -0.01973019
-0.002809168 0.038778655 -0.0065939934 0.0056434735 -0.0064815893 0.0021412817 -0.05062483 0.011148007
0.019103691 0.06368859 -0.0018295915 -0.028133323 -0.0041302927 0.028978912 -0.02263763 -0.055000495
-0.014898999 -0.04926703 -0.015279013 -0.05045308 0.017636286 -0.041087575 0.008864831 0.086077556
-0.0025094892 -0.04221254 -0.009955465 0.020204533 -0.0019413232 -0.0011578329 -0.048844554 -0.0011734578
0.043855026 0.026188733 0.11086571 0.0111137265 -0.030935932 -0.002924926 -0.023719804 -0.031241454
-0.020521436 -0.01397575 0.087253675 -0.006304626 -0.0779117 -0.03153458 0.018379396 0.064820915
-0.026908988 0.06814485 0.050765958 -0.034574017 -0.004498504 -0.0008491915 -0.03737061 0.029670851
0.017005663 -0.023922341 -0.02249124 -0.010400639 0.043731347 -0.03573139 -0.023837527 -0.016573003
0.0018102479 0.011993866 0.04966214 0.052304473 -0.11441754 0.012605073 -0.0023689664 -0.09564187
-0.007649427 -0.029521102 0.08806426 -0.0041088974 0.056669254 -0.007801883 -0.020281322 0.012429768
-0.005470081 0.07253888 -0.00532727 0.09329213 0.041910958 0.0003461411 -0.031992357 -0.0010189087
-0.059623756 -0.03373742 0.09860539 0.019745002 -0.018760901 -0.026993133 -0.04160355 0.028529268
0.014930101 4.248827e-05 0.0049225376 -0.0417433 0.06576467 0.0026722325 -0.057229497 -0.004638601
0.019368839 0.0047287396 -0.020278027 -0.019851478 -0.04626718 0.005848048 -0.06762393 -0.000837289
0.050427422 0.04407826 -0.055888694 0.005485217 -0.018759534 0.00016076358 -0.018094588 0.024369478
0.084814034 -0.07008678 0.01421334 -0.053928215 0.012651255 0.0058546495 0.047222443 0.046008818
0.09323018 -0.026611844 -0.017660359 -0.02477081 0.035622917 -0.0021898923 -0.03649848 0.03530777
0.014573086 0.0014946259 0.044554017 0.009246989 0.0047007897 -0.0355397 -0.038647488 -0.016080288
0.058271077 -0.017582824 -0.036150467 0.017316818 -0.03953416 -0.053277787 0.018245984 -0.03594601
-0.0038807737 -0.06636462 -0.023670938 -0.06523151 -0.0010419264 0.0054297303 -0.0332238 -0.016622758
-0.039859932 0.051402003 0.028376766 -9.878225e-05 0.04984367 -0.0044814814 0.041533098 0.009256149
-0.0009202893 -0.0015317809 -0.038549345 0.0054990673 -0.020207252 -0.00088966667 -0.107011765 -0.013590882
0.013889882 0.06324801 -0.019205585 -0.05678139 0.027881496 0.0054582926 0.03086535 0.022877986
0.032362457 -0.03431204 -0.096539155 0.024464097 -0.086400226 0.00069774 -0.040301487 -0.05652886
-0.0403048 0.04900915 0.014766909 0.014344246 0.043033235 -0.082473755 -0.0062217554 0.07459897
0.014321268 0.007133526 -0.017565861 -0.025143126 0.0003386331 0.009322159 0.020230252 0.02182539
0.013580246 0.013529718 -0.053934593 0.003823742 -0.011844579 0.07711745 -0.02413666 -0.037319694
-0.0019149947 -0.05839285 -0.017901674 -0.024024725 0.009457836 -0.011083562 -0.007655534 -0.014603056
-0.017328143 -0.0031857989 -0.017255362 0.015326563 0.0519645 0.0011833151 0.021712944 0.030290851
0.027980957 -0.012630126 -0.025245612 0.008299286 0.024078272 0.07752567 0.009093947 -0.03311437
-0.0388767 -0.07919525 -0.020155171 -0.056669053 0.026510237 -0.015983954 0.0033295173 0.043966398

action_model._continuous_distribution.mu.bias f4 [2]
00000000: e8df 553c 8d71 0f3c
0.013053872 0.0087551

onnx::Div_51 f4 [8]
00000000: 885c 843d c685 873d 63e2 6a3f 5861 9d3e
00000010: a7bd 6d3f 0b19 453f 6d18 6c3f 3353 473f
0.064629614 0.06617312 0.9175169 0.3073833 0.9286751 0.7699134 0.9222477 0.77861327
