results/3dball_test_slow/3DBall/checkpoint.pt (torch, 450997 bytes, 44 tensors)

network_body.observation_encoder.processors.0.normalizer.running_mean f4 [8]
0	0xba719920	-0.0009216238
1	0x398c4b87	0.00026759153
2	0xbc7bcdf9	-0.015368932
3	0x40425ed9	3.037039
4	0x3d1d19fa	0.03835485
5	0x3cfc11b2	0.030770157
6	0xbe9b1c95	-0.30295244
7	0x3c2b79ec	0.01046608

network_body.observation_encoder.processors.0.normalizer.running_variance f4 [8]
0	0x43035cac	131.362
1	0x430b8d69	139.55238
2	0x480d705d	144833.45
3	0x45cd7ae2	6575.3604
4	0x480d3092	144578.28
5	0x4774adf2	62637.945
6	0x4784d266	68004.8
7	0x477b06f2	64262.945

network_body.processors.0.normalizer.running_mean f4 [8]
0	0xba719920	-0.0009216238
1	0x398c4b87	0.00026759153
2	0xbc7bcdf9	-0.015368932
3	0x40425ed9	3.037039
4	0x3d1d19fa	0.03835485
5	0x3cfc11b2	0.030770157
6	0xbe9b1c95	-0.30295244
7	0x3c2b79ec	0.01046608

network_body.processors.0.normalizer.running_variance f4 [8]
0	0x43035cac	131.362
1	0x430b8d69	139.55238
2	0x480d705d	144833.45
3	0x45cd7ae2	6575.3604
4	0x480d3092	144578.28
5	0x4774adf2	62637.945
6	0x4784d266	68004.8
7	0x477b06f2	64262.945

network_body._body_endoder.seq_layers.0.weight f4 [128, 8]
0	0xbcd2a030	-0.025711149
1	0xbf2ac407	-0.66705364
2	0xbd5d3843	-0.054008733
3	0xbe1fa438	-0.15589988
4	0x3dadfed6	0.08495872
5	0xbcf771e0	-0.030205667
6	0x3c54f5ad	0.012998027
7	0xbeb9e9d7	-0.36311218
8	0x3e35dc62	0.1775985
9	0x3ed67738	0.41887832
10	0xbe301ae2	-0.17197755
11	0x3ea110e0	0.31458187
12	0xbe98bda9	-0.298322
13	0xbf3998e1	-0.724989
14	0x3e9e054a	0.3086341
15	0x3e1b79f2	0.15183237
16	0x3ea5f85f	0.32416055
17	0xbebd0c93	-0.36923656
18	0x3e5035be	0.20333001
19	0xbea57fc5	-0.32324043
20	0xbe1349dd	-0.14383645
21	0xbcec874e	-0.028873112
22	0xbef085d5	-0.46977106
23	0xbf4612d5	-0.77372485
24	0x3ef0e765	0.4705154
25	0xbe035dd6	-0.12828764
26	0xbe457d84	-0.19286162
27	0x3d8b7e38	0.06811184
28	0xbef94774	-0.48687327
29	0xbebba27b	-0.366474
30	0xbed51288	-0.416157
31	0xbd8b7aca	-0.068105295
32	0x3f27fbbf	0.6561851
33	0xbe86965c	-0.2628659
34	0xbf2b1f4c	-0.6684463
35	0x3eb0e8ee	0.3455271
36	0xbee82172	-0.45338017
37	0xbeeb4e43	-0.45958146
38	0x3ee27a93	0.44234142
39	0x3dae7431	0.085182555
40	0xbe0a2642	-0.13491157
41	0xbea6400d	-0.32470742
42	0x3e230809	0.15921034
43	0xbe732a89	-0.23746695
44	0x3f074048	0.5283246
45	0x3e2b380f	0.16720603
46	0xbf48a8ae	-0.78382385
47	0x3e053e9d	0.13012166
48	0x3f080170	0.53127193
49	0xbe06fd31	-0.13182522
50	0xbdf14b75	-0.117819704
51	0x3e8f36b7	0.27971432
52	0x3dcc68fb	0.09980961
53	0x3e27e64f	0.1639645
54	0xbf645fb7	-0.8920855
55	0x3f22326f	0.63358206
56	0x3f17c4d1	0.59284693
57	0xbd9dcbda	-0.07704897
58	0xbda895c1	-0.08231688
59	0xbe35cad9	-0.17753161
60	0xbf0e94d4	-0.55695844
61	0x3efb5bfd	0.4909362
62	0x3ed27297	0.4110305
63	0x3e625966	0.22104415
64	0x3da8cd59	0.08242292
65	0xbe22de9b	-0.1590523
66	0x3d6e0f00	0.058119774
67	0x3e8b2843	0.27179155
68	0x3ec87789	0.39153698
69	0x3edaffd7	0.42773315
70	0xbf39fbe8	-0.72650003
71	0xbd0c96fe	-0.034323685
72	0x3e818350	0.25295496
73	0x3e0d7f0d	0.13817997
74	0x3dce50f5	0.10074035
75	0x3eb150af	0.3463187
76	0x3f0dd14f	0.55397505
77	0x3f1ad596	0.60482156
78	0x3ea71512	0.32633263
79	0x3f04078c	0.51574016
80	0x3eb43bde	0.35201925
81	0x3cd6d8b7	0.026226385
82	0x3d47c903	0.048775684
83	0x3e190aa9	0.14945473
84	0x3e20e96a	0.1571404
85	0x3e2f84de	0.17140529
86	0x3d4c7c22	0.04992307
87	0x3f5a0509	0.85163933
88	0x3de63fe0	0.11242652
89	0x3efd03cc	0.4941696
90	0xbe74b549	-0.2389728
91	0x3ec20862	0.3789702
92	0x3d6625d5	0.056188423
93	0x3ef74f91	0.48302892
94	0x3df5bd67	0.11999016
95	0x3eb6728f	0.35634276
96	0xbf417fdf	-0.7558574
97	0xbeefec04	-0.46859753
98	0x3e3ee441	0.1864176
99	0xbea3dfee	-0.32006782
100	0xbef182a1	-0.47169974
101	0x3f059b39	0.52189976
102	0xbe246fea	-0.16058317
103	0xbe6e36ba	-0.23263064
104	0xbeccbf26	-0.39989585
105	0xbeaec75f	-0.34136483
106	0xbef2a61e	-0.47392362
107	0xbc688914	-0.014192838
108	0x3f498958	0.78725195
109	0x3dd74c23	0.10512569
110	0x3d5cecba	0.053936698
111	0x3e11fc55	0.14256413
112	0xbe6f6ca9	-0.23381294
113	0xbe74530a	-0.23859802
114	0x3edefdb4	0.43552935
115	0xbf4c3858	-0.79773474
116	0xbd73ab8b	-0.059489768
117	0xbe591c54	-0.21202213
118	0x3d2c5c43	0.042080175
119	0x3e2b9d56	0.16759238
120	0xbe66e46f	-0.22548078
121	0x3d310a51	0.04322273
122	0x3e963b5f	0.29342172
123	0x3eadf058	0.3397243
124	0x3dfb3bbc	0.12267253
125	0xbea08a80	-0.31355667
126	0x3f30b884	0.6903155
127	0x3ec85ef3	0.3913494
128	0x3eb75171	0.35804322
129	0x3e4d3ddd	0.2004313
130	0x3db0c66d	0.08631597
131	0xbdc73ba5	-0.09728173
132	0x3e83b694	0.25725234
133	0x3e860b62	0.2618056
134	0x3e7e0fdd	0.24810739
135	0x3eb1bf9c	0.347165
136	0xbf1b5300	-0.6067352
137	0xbf56138a	-0.83623564
138	0xbe9b9ff7	-0.3039548
139	0x3e860d7b	0.2618216
140	0xbe53faaa	-0.2070109
141	0xbed08d77	-0.4073293
142	0x3d246821	0.040138368
143	0x3deadc93	0.114678524
144	0x3e864e36	0.26231545
145	0xbc8106c6	-0.0157503
146	0xbde26b2c	-0.11055598
147	0xbcc2d753	-0.023784315
148	0x3ec1d8a7	0.37860605
149	0xbe562d75	-0.20915778
150	0xbebddfd0	-0.37084818
151	0xbded7e00	-0.11596298
152	0x3daa7468	0.08322984
153	0x3ecbca86	0.3980295
154	0x3e0c9cf4	0.13731748
155	0x3e0fd71c	0.14046901
156	0xbeeb6a6b	-0.45979628
157	0xbf09f4d1	-0.53889185
158	0xbe783865	-0.24240263
159	0xbeb0f41c	-0.3456124
160	0xbdd8dbae	-0.105887756
161	0x3e8252cb	0.2545379
162	0x3efa6b9d	0.48910227
163	0x3decf02d	0.115692474
164	0xbf0a7ee4	-0.5409987
165	0xbe4c0793	-0.19924764
166	0x3e977ca1	0.29587272
167	0x3d879567	0.06620293
168	0x3d59ba27	0.053156044
169	0xbe87e152	-0.26539093
170	0xbd26233c	-0.040560946
171	0x3e81e38d	0.2536892
172	0xbf0d7d6b	-0.552695
173	0xbeb7ad9f	-0.3587465
174	0xbdad8503	-0.084726356
175	0x3e4c9d2b	0.1998183
176	0xbe296663	-0.16542964
177	0x3f22d51f	0.63606447
178	0xbda80bfc	-0.08205411
179	0x3de35801	0.1110077
180	0x3f29a281	0.66263586
181	0x3eecaec6	0.46227092
182	0x3e91a558	0.2844646
183	0xbdc5df6f	-0.09661757
184	0x3e14c948	0.14529908
185	0xbe75c06d	-0.23999186
186	0x3eaa655c	0.33280456
187	0x3c6da421	0.014504463
188	0x3e5efba4	0.21775681
189	0xbe90ca7b	-0.2827948
190	0x3e2e4521	0.17018558
191	0x3cbc1a17	0.02296166
192	0x3e2a4e81	0.1663151
193	0x3e97606a	0.29565746
194	0x3f0d9abd	0.55314237
195	0xbebc71b9	-0.36805514
196	0xbf33a928	-0.70179987
197	0xbde8a1b9	-0.11358971
198	0x3edcdaa1	0.4313555
199	0x3e8bafd8	0.27282596
200	0x3f746cd2	0.95478547
201	0x3e251f38	0.1612519
202	0xbe4567df	-0.19277905
203	0xbe23eeb3	-0.16009025
204	0xbd54bdb2	-0.05193872
205	0x3f324a84	0.6964495
206	0xbef4c6c1	-0.47807887
207	0x3ccddfb2	0.02513108
208	0x3e85078b	0.25982317
209	0x3e83a967	0.2571518
210	0xbe26e929	-0.16299881
211	0xbeb3cd43	-0.3511754
212	0x3f173c39	0.5907627
213	0x3e97473b	0.29546532
214	0xbdabe32d	-0.0839294
215	0xbe6190d1	-0.220279
216	0x3e7731e7	0.2414013
217	0x3f0cb4de	0.5496348
218	0xbf24bd82	-0.64351666
219	0x3ed3d86a	0.41376048
220	0x3ec0930e	0.37612194
221	0x3ee55bf7	0.44796726
222	0xbf02a56d	-0.5103367
223	0xbe3d22b1	-0.18470265
224	0x3e97ae4c	0.29625165
225	0xbf1d2aee	-0.6139363
226	0xbe1b6114	-0.15173751
227	0x3d73439d	0.059390653
228	0xbefd2299	-0.49440458
229	0x3f0a28be	0.5396842
230	0xbe90c1e5	-0.2827293
231	0xbf1d15fe	-0.6136168
232	0x3ed6ce46	0.4195425
233	0x3c2b3724	0.010450158
234	0x3e6fbc9c	0.23411793
235	0xbf19ad0e	-0.60029685
236	0xbd46a2df	-0.04849517
237	0xbf013ddc	-0.50485015
238	0xbf328538	-0.69734526
239	0x3efa868c	0.48930776
240	0xbec335bd	-0.38126937
241	0xbe0a70f2	-0.13519648
242	0x3e933c78	0.28757071
243	0x3ea64828	0.32476926
244	0x3c30819f	0.010773092
245	0xbda50a6f	-0.08058631
246	0xbd40856c	-0.04700224
247	0xbe0fe981	-0.14053918
248	0xbead2a38	-0.33821273
249	0xbdd90a2a	-0.10597642
250	0x3f30d1f6	0.69070375
251	0x3edab7e7	0.4271843
252	0xbe1efe69	-0.15526737
253	0xbf38d4a3	-0.7219946
254	0x3f42c63d	0.7608374
255	0xbe922af3	-0.28548393

network_body._body_endoder.seq_layers.0.bias f4 [128]
0	0x3bc56711	0.0060242494
1	0x3b9a2387	0.004703942
2	0xbc8e5872	-0.017376158
3	0xbd0d3755	-0.034476597
4	0x3b6e30d9	0.0036345033
5	0xbdf7d3f6	-0.12100975
6	0xbccb1320	-0.024789393
7	0xbc2bda20	-0.010489017
8	0xbcee8532	-0.029116247
9	0xbc85a8c0	-0.016315818
10	0x3c4a984f	0.012365415
11	0x3c86e096	0.016464513
12	0x3d7ea006	0.06216433
13	0xbd38fc05	-0.04516222
14	0x3c1d57f6	0.009603491
15	0x3cc56a52	0.024098549
16	0xbc0789ff	-0.008272647
17	0xbc7377c6	-0.014860099
18	0xbc3fe8ba	-0.011713201
19	0xbd646152	-0.055756874
20	0x3c1e4e15	0.009662171
21	0xbcc73f63	-0.024322217
22	0x3daf21e8	0.08551389
23	0xbc3ededc	-0.0116498135
24	0xbcc7bcbf	-0.024381993
25	0xbcce7ba3	-0.025205439
26	0xbd3e5a7b	-0.046473008
27	0x3a02f51a	0.00049956294
28	0xbc5d68a7	-0.013513721
29	0xbd4442b1	-0.047915164
30	0x3ced0fcc	0.028938197
31	0x3cc77834	0.02434931
32	0xbccad0f0	-0.024757832
33	0xbd52772c	-0.051383182
34	0xbd1164c9	-0.035496507
35	0xbc7d7b44	-0.015471283
36	0xbd053abd	-0.03252672
37	0xbddcb772	-0.10777177
38	0x3d232dec	0.039838716
39	0xbd0ea28e	-0.034822993
40	0x3c08d117	0.008350632
41	0xbd325c99	-0.04354534
42	0xbcdae6a8	-0.026721314
43	0xbd64403f	-0.055725332
44	0x3cb6975b	0.022288969
45	0xbdaebbc4	-0.08531907
46	0xbbd41d63	-0.0064732297
47	0xbc9cdead	-0.019149149
48	0xbd04cafd	-0.032420147
49	0x3d5c5296	0.053789698
50	0x3d90832e	0.070562705
51	0xbcb8297b	-0.022480717
52	0xbcfba8e5	-0.030720184
53	0xbd1b4ac9	-0.037913118
54	0xbd59c530	-0.05316657
55	0xbab8012c	-0.0014038435
56	0x3d0a4534	0.033757403
57	0xbcfd5282	-0.030923132
58	0xbd8a10a0	-0.06741452
59	0x3be3f269	0.006956388
60	0x3afe5d36	0.0019406441
61	0x3bd486e4	0.006485807
62	0xbd6cb22c	-0.057787105
63	0xbcdc00f8	-0.02685593
64	0xbcc55b39	-0.02409135
65	0xb9c0c983	-0.00036771232
66	0xbd660968	-0.056161314
67	0x3caa8ca5	0.020819018
68	0x3d2bfc48	0.04198864
69	0xbb5e5b07	-0.0033928768
70	0x3d075083	0.033035766
71	0xbcc5474b	-0.024081847
72	0x3d41a907	0.047280338
73	0xbc89de61	-0.016829671
74	0xbc6098d7	-0.013708315
75	0x3b35505a	0.0027666301
76	0xbc569485	-0.013096933
77	0xbd448ad6	-0.047983967
78	0xbbcc3035	-0.0062313327
79	0x3d3b7144	0.045762315
80	0x3d23aff0	0.03996271
81	0xbb80a12a	-0.0039254623
82	0xbc82ccb2	-0.015966747
83	0x3b86a627	0.0041091624
84	0x3d3f9e6d	0.046781946
85	0xbcce4358	-0.025178596
86	0xbce88f6e	-0.028388705
87	0xbd265397	-0.04060706
88	0xbc6340d1	-0.013870434
89	0x3d7c724c	0.06163244
90	0xbe04be84	-0.12963301
91	0x3d20f657	0.039297428
92	0xbcc7f898	-0.02441053
93	0xbceb0f86	-0.028693926
94	0xbcc3ad63	-0.023886388
95	0xbcf9f34e	-0.030511525
96	0xbcc4c74e	-0.024020817
97	0xbdee6153	-0.11639657
98	0x3b55da85	0.0032631468
99	0xbb805156	-0.003915946
100	0x3c838c32	0.016058061
101	0x3b96e80a	0.004605298
102	0xbd2cf90a	-0.04222969
103	0x3b44ae3a	0.0030011074
104	0x3c4b58f5	0.012411346
105	0xbd4d55ea	-0.050130762
106	0x3d11feba	0.035643317
107	0x3b598ec2	0.0033196663
108	0x3cfb0a9b	0.030644706
109	0xbd7600b6	-0.06005927
110	0x3b8e0f24	0.004335301
111	0xbcd4fd0a	-0.025999565
112	0x3cb54813	0.022129094
113	0xbd931100	-0.07180977
114	0x3c451992	0.012030022
115	0xbd3d3632	-0.046194263
116	0x3d011505	0.031514186
117	0x3c3bbfb0	0.011459276
118	0xbd374e0f	-0.044752177
119	0xbcca5dd6	-0.024702948
120	0xbd1189da	-0.035531856
121	0x3c7d681e	0.015466718
122	0x3cb90d5d	0.02258938
123	0x3d2f5684	0.042807117
124	0x3d1b6ed0	0.037947476
125	0xbb47b863	-0.0030474893
126	0x3c3ee827	0.011652029
127	0xbd232595	-0.039830763

network_body._body_endoder.seq_layers.2.weight f4 [128, 128]
0	0xbe4bf00d	-0.19915791
1	0xbdd58653	-0.10426011
2	0xbdf69eea	-0.12042029
3	0xbd06538f	-0.03279453
4	0xbdf13258	-0.117771804
5	0x3e1d3c46	0.15355024
6	0xbc91c692	-0.017794881
7	0xbbf9a345	-0.00761834
8	0x3bb83644	0.0056217033
9	0xbd9f5f96	-0.077819034
10	0x3e336417	0.1751865
11	0x3dc28c44	0.0949941
12	0x3debc3ec	0.115119785
13	0x3dfd799f	0.12376713
14	0x3e1545c2	0.14577392
15	0xbdbbe326	-0.091741845
16	0xbdb3a263	-0.08771207
17	0xbc35d361	-0.01109776
18	0xbdd68664	-0.10474852
19	0x3d1c6807	0.038185146
20	0xbdaec287	-0.08533197
21	0x3d843372	0.06455125
22	0xbcace09f	-0.021103201
23	0xbd951521	-0.07279421
24	0x3d0fd31f	0.03511345
25	0xbcda11da	-0.02661984
26	0x3c8b8f88	0.017036214
27	0xbdc5145d	-0.096230246
28	0x3c0bd18e	0.008533848
29	0xbe1ffe01	-0.15624239
30	0x3de24801	0.1104889
31	0x3e2eeff6	0.17083725
32	0x3d103055	0.035202343
33	0x3c32ca25	0.010912453
34	0x3c1dfe43	0.00964314
35	0xbe5f50b3	-0.21808128
36	0x3cb8e2d1	0.022569092
37	0x3d9ae5fa	0.07563396
38	0x3da3aa99	0.07991523
39	0x3cd07b32	0.02544937
40	0xbd992671	-0.07478035
41	0x3db7e8b1	0.08979929
42	0xbd52ae88	-0.051435977
43	0xbdc12fc7	-0.09432941
44	0x3e053036	0.13006672
45	0x3e02f9e6	0.12790641
46	0xbcb1b82f	-0.02169427
47	0xbd61f76b	-0.055167597
48	0x3d82d176	0.06387608
49	0xbcba06d8	-0.022708341
50	0xbca43f15	-0.020049611
51	0x3c15ab12	0.009135025
52	0x3b985d68	0.004649807
53	0x3ce3a0a1	0.027786555
54	0xbdb6bf28	-0.08923179
55	0x3d2161e5	0.0394
56	0x3dd71fa0	0.10504079
57	0xbdac3180	-0.08407879
58	0xbe057b38	-0.13035285
59	0xbe2f3ad2	-0.17112282
60	0xbc437f79	-0.011932247
61	0x3e067337	0.13129888
62	0x3dc1da16	0.09465425
63	0xbd781068	-0.06056252
64	0xbd271bda	-0.040798046
65	0xbd369728	-0.044577748
66	0xbcfeade8	-0.031088784
67	0x3e6bdd4e	0.2303364
68	0x3dd5a003	0.104309104
69	0x3d946127	0.07245093
70	0xbda8ab13	-0.08235755
71	0x3dbb9719	0.09159679
72	0xbdcffc45	-0.101555385
73	0xbdadabb3	-0.08480015
74	0xbdfb2663	-0.12263181
75	0xbe507581	-0.20357324
76	0xbdf1e6b5	-0.11811582
77	0xbc19596e	-0.009359701
78	0x3dc80cbf	0.09768056
79	0xbe1dc17a	-0.15405837
80	0xbe023d47	-0.12718688
81	0x3e16a5a2	0.14711621
82	0x3d879d47	0.06621795
83	0xbdc60e46	-0.09670691
84	0x3dc5351d	0.09629271
85	0xbb9d3e51	-0.0047986885
86	0x3e38c0ac	0.18042248
87	0x3cacd31a	0.021096755
88	0x3a9c7efd	0.0011939701
89	0x3bfcc333	0.0077136992
90	0xbe303f9a	-0.17211762
91	0xb9d2b050	-0.00040185684
92	0x3cfe1708	0.031016842
93	0x3dd0203d	0.10162399
94	0xbe0807e3	-0.13284259
95	0x3d1320ec	0.03592007
96	0xbdce6aaf	-0.10078942
97	0x3d543352	0.051806755
98	0x3def6e02	0.11690904
99	0x3d8aaa37	0.06770747
100	0x3d91cb04	0.071188
101	0xbdb006ab	-0.08595022
102	0xbde030fa	-0.109468415
103	0x3dbd45d8	0.09241837
104	0x3d36a4dd	0.04459082
105	0xbce170b8	-0.027519569
106	0x3c197dac	0.009368341
107	0xbb8b2e24	-0.0042474438
108	0x3e084f88	0.13311589
109	0x3e30ac01	0.17253114
110	0x3cdfbd4e	0.027311947
111	0xbbdc27c8	-0.0067186095
112	0x3d996a74	0.074910074
113	0x3d11e105	0.035614986
114	0x3d2f20a6	0.042755745
115	0x3e23fff9	0.16015615
116	0x3c88d0b8	0.016701087
117	0xbcf8a561	-0.030352296
118	0xbc2ac526	-0.01042298
119	0xbe1270d0	-0.14300847
120	0xbd9d6542	-0.07685329
121	0xbe5b2680	-0.21401405
122	0xbd57ca76	-0.052683316
123	0xbce2e10c	-0.027695201
124	0x3e2fdc6a	0.17173925
125	0xbde8192c	-0.11332926
126	0xbe83f265	-0.2577087
127	0xbcb54228	-0.022126272
128	0x3dc39a13	0.09550872
129	0x3c53fe84	0.012939099
130	0xbd44fbce	-0.048091702
131	0xbdd1fb36	-0.10252993
132	0xbcf1e99f	-0.029530345
133	0x3db12529	0.08649666
134	0x3ceeba52	0.029141579
135	0x3de0d447	0.10977989
136	0xbd55fd7c	-0.052243695
137	0x3d3ed989	0.046594176
138	0x3cf3052a	0.029665548
139	0xbd209f97	-0.039214697
140	0x3dc88b6f	0.0979222
141	0xbde73fa5	-0.11291436
142	0xbd50488a	-0.05085043
143	0xbd0d9555	-0.034566242
144	0x3b507597	0.003180837
145	0xbdd5757a	-0.104227975
146	0xbd440837	-0.047859397
147	0x3d3dde51	0.046354596
148	0xbe833bbf	-0.2563152
149	0xbd1464a7	-0.036228802
150	0xbd97dfd7	-0.07415741
151	0xbd6f29a0	-0.058389306
152	0xbd65298a	-0.055947818
153	0x3db5f891	0.08885301
154	0xbca66646	-0.02031244
155	0xbbd25b37	-0.006419565
156	0xbdc0c862	-0.0941322
157	0x3da78e7d	0.08181474
158	0x3dcd2b0a	0.10017975
159	0xbe324d90	-0.174124
160	0x3d765079	0.06013534
161	0xbd701c6c	-0.058620855
162	0xbd816c0a	-0.06319435
163	0xbe0e9e68	-0.13927615
164	0xbd2db446	-0.04240825
165	0xbdb838a9	-0.08995182
166	0x3d524f22	0.051345
167	0x3db4afa6	0.08822565
168	0xbb607194	-0.0034247385
169	0x3de44342	0.11145641
170	0x3de259bf	0.11052274
171	0x3dc65205	0.09683613
172	0xbd00ff2b	-0.031493347
173	0x3d4fc030	0.050720394
174	0x3d91ee99	0.07125587
175	0x3d1c5e9f	0.038176175
176	0xbe484136	-0.19556126
177	0x3dceb0cf	0.10092317
178	0x3d97744b	0.07395228
179	0xbd4d8f27	-0.05018535
180	0xbe099f51	-0.1343968
181	0xbc9a48c3	-0.018833524
182	0x3c1f3f6e	0.009719713
183	0x3e03226a	0.12806097
184	0x3b9299b3	0.004473889
185	0x3c5944b7	0.013261012
186	0xbc66d815	-0.014089604
187	0x3cc00b15	0.023442784
188	0x3cbddb83	0.02317596
189	0xbdfc72b5	-0.12326566
190	0xbe03a8f1	-0.12857415
191	0xbc13f9b0	-0.009031698
192	0x3c98959f	0.018626032
193	0x3c154fe8	0.009113289
194	0x3cb0e7ba	0.02159487
195	0xbd254e45	-0.040357847
196	0x3cd5b2ed	0.026086295
197	0xbb764a35	-0.0037580852
198	0x3cd7f401	0.026361467
199	0x3cb94755	0.022617022
200	0x3e393f63	0.18090586
201	0xbde2220a	-0.11041649
202	0x3d8bbb29	0.06822807
203	0x3cfb8745	0.03070415
204	0xbc55a8e6	-0.013040757
205	0xbd0038b3	-0.031304073
206	0xbc2e9535	-0.010655691
207	0x3de86dc4	0.11349061
208	0xbd62c495	-0.055363256
209	0x3d9477ee	0.07249437
210	0x3d3a9958	0.045556396
211	0xbddf3301	-0.108984
212	0x3da8f184	0.082491904
213	0xbe2d53a0	-0.16926432
214	0xbd3e123b	-0.046404105
215	0x3d81611f	0.063173525
216	0xbdcfada4	-0.10140541
217	0x3dc0c5c4	0.09412721
218	0xbe06ba97	-0.13157116
219	0x3d0070f2	0.031357713
220	0x3c90b416	0.017663997
221	0x3dadb96a	0.084826306
222	0x3ca732c0	0.020409942
223	0xbdcf3007	-0.10116582
224	0xbe09dcb6	-0.13463101
225	0xbb1c0d1b	-0.0023811522
226	0xbceeda03	-0.02915669
227	0xbd9708df	-0.07374739
228	0x3a7ba27d	0.0009599103
229	0xbdb8da48	-0.09026009
230	0x3c17ef5a	0.009273374
231	0xbaf2993c	-0.0018508802
232	0x3d0e353d	0.03471874
233	0xbd9f670f	-0.07783329
234	0x3d1eb166	0.0387434
235	0xbd4e29d7	-0.05033287
236	0xbd5da092	-0.05410821
237	0xbd6e6fd3	-0.058212113
238	0x3c2d6b1b	0.010584618
239	0xbd8372a8	-0.06418353
240	0xbd0f2b8e	-0.034953646
241	0xbc13ecce	-0.009028627
242	0x3d8e36e6	0.06944065
243	0x3d2136bd	0.039358843
244	0x3e70620c	0.23474902
245	0x3e273599	0.1632904
246	0xbdb7d33e	-0.08975838
247	0x3d9ad028	0.07559234
248	0xbb6a68eb	-0.0035768102
249	0x3daf2279	0.08551497
250	0xbc17a474	-0.009255517
251	0x3ce67282	0.028130773
252	0x3c4fed49	0.0126908505
253	0xbd8bc457	-0.06824558
254	0xbdd076ee	-0.10178934
255	0xbd0a6499	-0.033787344

network_body._body_endoder.seq_layers.2.bias f4 [128]
0	0x3d0786a2	0.03308738
1	0x3bcc46b9	0.0062340167
2	0xbcc57608	-0.024104133
3	0x3c51cad9	0.01280471
4	0x3d311581	0.0432334
5	0x3c982c0c	0.01857569
6	0xbce02f6a	-0.027366359
7	0x396d24e9	0.00022615831
8	0xbcea5d8d	-0.028609062
9	0x3c82a61d	0.01594835
10	0x3d1f64fb	0.03891466
11	0xbc9e730c	-0.019341968
12	0xbc0492cd	-0.008091641
13	0xbcac4e5f	-0.021033464
14	0xbbb5370a	-0.005530243
15	0xbc1e997d	-0.009680149
16	0xbcc525f9	-0.024065958
17	0x3b6fc794	0.0036587464
18	0x3cf1efbd	0.029533261
19	0x3d8c49d0	0.06850016
20	0x3c7e78a6	0.0155316945
21	0xbc09e75b	-0.008416976
22	0x3c029a5d	0.007971373
23	0xbc8137ca	-0.015773673
24	0x3d33ece8	0.043927103
25	0x3cb48d01	0.022039892
26	0xbb2dad3e	-0.0026500965
27	0x3cf5d495	0.030008594
28	0xbca7c81f	-0.020481167
29	0xbc37bb1c	-0.011214044
30	0xbc512596	-0.012765309
31	0x3af35f4e	0.0018567832
32	0xbbc476bc	-0.0059955996
33	0xbce2dc93	-0.027693069
34	0xbb837369	-0.0040115607
35	0x3d764bbb	0.060130816
36	0xbca020e0	-0.019546926
37	0x3d5483cd	0.051883508
38	0xbc97b1ab	-0.018517336
39	0x3ce67dfd	0.028136248
40	0xbcd90b18	-0.026494548
41	0x3d7acd95	0.061231215
42	0xbd119f22	-0.03555215
43	0x399c9868	0.0002986819
44	0x3c488b12	0.012240188
45	0xbc795c9e	-0.015219836
46	0x3d69a2a5	0.057039876
47	0x3d7b6730	0.061377704
48	0x3d45d190	0.048295557
49	0x3d0e7dcc	0.034787938
50	0xbd0e1834	-0.03469105
51	0xbd21f802	-0.03954316
52	0x3d95a254	0.07306352
53	0xbc9f49c7	-0.01944436
54	0xbc73f959	-0.014890992
55	0x3b260394	0.0025331723
56	0x3cc1e8c5	0.023670563
57	0xbc419232	-0.011814641
58	0xbc8b4cde	-0.017004427
59	0x3d139b7c	0.036036953
60	0x3ca4be2d	0.020110214
61	0x3c805690	0.015666276
62	0x3c5234ef	0.012830003
63	0x3c73c57e	0.014878629
64	0x3d685744	0.056723848
65	0xbc91fc09	-0.017820375
66	0xbc9f1ce4	-0.019422956
67	0x3d27d044	0.040970102
68	0x3c168c98	0.009188794
69	0x3d6772e4	0.056506053
70	0x3cb32135	0.02186642
71	0x3ca7c347	0.020478858
72	0x3cce460b	0.025179883
73	0xbc4ea688	-0.012612946
74	0xbc9897e5	-0.018627116
75	0x3cd4b561	0.025965394
76	0x3dab6b22	0.08370043
77	0x3ced4112	0.028961692
78	0x3d06f1fe	0.032945625
79	0xbb5ea1f9	-0.0033971055
80	0xbc9b0f83	-0.018928295
81	0xbc6fd76d	-0.014638764
82	0xbbc6a965	-0.006062674
83	0x3d02fc65	0.031978983
84	0x3cc2029b	0.023682883
85	0x3d371535	0.04469796
86	0xbc8e5acd	-0.017377282
87	0x3cd2a56b	0.025713643
88	0xbaf654e6	-0.0018793612
89	0xbd10442a	-0.035221256
90	0xbcbf64b1	-0.023363443
91	0xbc81ed06	-0.015860092
92	0xbc1aff90	-0.009460345
93	0x3d5a7233	0.053331565
94	0xbbe35cb3	-0.006938541
95	0xbc80b2a9	-0.015710192
96	0xbbf60c31	-0.0075087775
97	0xbcd6854d	-0.02618661
98	0x3d56607c	0.05233811
99	0x3c3cdd75	0.011527409
100	0x3c2b8d40	0.010470688
101	0x3a414bbe	0.0007373652
102	0x3a8257cc	0.0009944378
103	0x3ca28176	0.019837122
104	0xbba7b9f7	-0.0051186043
105	0xbc7c5048	-0.0154
106	0x3cd973b9	0.026544439
107	0xbbfb4de0	-0.0076691955
108	0x3c67e7d8	0.014154397
109	0xbcd14fda	-0.025550772
110	0x3c0af638	0.008481555
111	0x3d3113f3	0.043231916
112	0x3aa7f112	0.0012812933
113	0xbc0a3194	-0.008434672
114	0x3d119d52	0.035550423
115	0x3d867055	0.065643944
116	0x3c91e59f	0.017809687
117	0x3bff3ac0	0.007788986
118	0x3c3c1185	0.011478786
119	0x3d048bf7	0.032360043
120	0xbc34540b	-0.0110063655
121	0x3d44d197	0.048051443
122	0xbce676fd	-0.02813291
123	0x3cfdaaf8	0.030965313
124	0x3d1df95a	0.03856788
125	0xbb85a03f	-0.0040779407
126	0xbc944c66	-0.018102836
127	0x3cddc435	0.027071098

action_model._continuous_distribution.log_sigma f4 [1, 2]
0	0xbd528ebc	-0.051405653
1	0xbcfca51f	-0.030840455

action_model._continuous_distribution.mu.weight f4 [2, 128]
0	0x3d09bb41	0.033625845
1	0x3c05ad68	0.008159019
2	0xbc6eb037	-0.01456838
3	0xbd29a464	-0.04141654
4	0x3cde0881	0.027103664
5	0x3b88ae0b	0.004171138
6	0xbc9859a4	-0.018597431
7	0x3c9f8d0c	0.019476436
8	0xbc5e1616	-0.01355507
9	0x3c2cc105	0.010544066
10	0x3bb40f2f	0.005494974
11	0xba12d257	-0.0005600801
12	0x3c5d4a42	0.013506474
13	0xbce76e77	-0.028250916
14	0x3bfc85dc	0.007706387
15	0x3c96341b	0.018335393
16	0xbca279f2	-0.019833539
17	0x3d05bcae	0.032650642
18	0x3c9825f4	0.018572785
19	0x3d6dc962	0.05805338
20	0x3a4f6b95	0.00079124543
21	0xbd613177	-0.054978814
22	0xbc315d3e	-0.010825453
23	0xbb812edc	-0.0039423537
24	0x3da340e8	0.07971364
25	0xbcd3d5e3	-0.025858825
26	0x3bc1f5af	0.0059191803
27	0x3d47699f	0.048684712
28	0xbc2ccc0a	-0.010546694
29	0x3a5cd480	0.0008423999
30	0xbce1e80d	-0.02757647
31	0xbcfbbd61	-0.030729951
32	0xbce45026	-0.027870249
33	0xbc11b9d3	-0.008894402
34	0x3c5a0680	0.013307214
35	0x3d97d2b2	0.07413234
36	0xbce0337d	-0.027368302
37	0x3caa876a	0.020816524
38	0x3c71932b	0.01474456
39	0x3caa6cd7	0.020803852
40	0xbd298f2f	-0.041396316
41	0x3da80e70	0.08205879
42	0xbc34d524	-0.011037145
43	0x3b9baf6a	0.0047511356
44	0xbdaed1dd	-0.08536122
45	0xbce0098f	-0.027348308
46	0x3ccf33f2	0.025293324
47	0x3d21cbe4	0.039501086
48	0x3d4aca7a	0.049509503
49	0x3d25effc	0.04051207
50	0x3ab87508	0.0014072964
51	0xbd0642fc	-0.032778725
52	0xbced13c2	-0.028940085
53	0xbbea44b5	-0.007149304
54	0xbccbd63a	-0.024882425
55	0x3bdb51b1	0.006693088
56	0x3d25bc76	0.040462933
57	0xbb2f3a6a	-0.0026737698
58	0xbc8d5a51	-0.01725498
59	0x3caa631e	0.020799216
60	0x3d030927	0.03199115
61	0xbd96e229	-0.073673554
62	0x3d1e2a2a	0.03861443
63	0xbd45982f	-0.048240837
64	0x3d8dfb53	0.06932702
65	0xbd85ecf8	-0.06539339
66	0x3c282157	0.010261855
67	0x3d335c88	0.043789417
68	0x3ccc09e9	0.02490707
69	0x3d3add5a	0.045621254
70	0x3c476d5a	0.012172068
71	0x3ce1d714	0.027568378
72	0x3d0f4630	0.034979045
73	0xbc8ac090	-0.016937524
74	0xbc9eb4ab	-0.019373259
75	0xbd5a8f9a	-0.053359605
76	0x3d5781c6	0.052613996
77	0x3d40a2a4	0.047030106
78	0xbd8ac158	-0.06775159
79	0xbd8f9f53	-0.070128106
80	0x3be3be35	0.0069501647
81	0x3b95fabb	0.0045770085
82	0xbc3d953d	-0.011571226
83	0x3bccda7f	0.0062516327
84	0x3d3bb510	0.04582697
85	0x3d9a63dd	0.07538579
86	0xbd479eae	-0.048735313
87	0xbd9fba38	-0.0779919
88	0xbd21a33c	-0.039462313
89	0xbbecba74	-0.0072243754
90	0x3c844e9b	0.016150763
91	0xbcf96168	-0.030441955
92	0xbd51bd4e	-0.051205926
93	0x3c5c08f5	0.01342987
94	0xbc64444b	-0.013932298
95	0xbb9bd8f5	-0.004756088
96	0xbdbaaf6b	-0.091154896
97	0xbc9ac511	-0.018892797
98	0x3d93d0bf	0.072175495
99	0x3d4d2c71	0.05009121
100	0x3c76c345	0.015061204
101	0x3b7014ea	0.003663356
102	0x3b9de9bd	0.0048191235
103	0xbc9cbd48	-0.019133225
104	0xbbb2d2a3	-0.0054572388
105	0x3ba05e5d	0.0048940615
106	0x3b3907b7	0.0028233358
107	0x3ca5e641	0.020251395
108	0xbd63cdad	-0.05561607
109	0xbc7cb08f	-0.015422954
110	0xbc0bb88e	-0.008527888
111	0x3da2a74e	0.07942067
112	0x3c85d0f2	0.016334984
113	0xbd455046	-0.048172258
114	0xbc02eff8	-0.007991783
115	0x3d834c21	0.06411005
116	0x39ceaa31	0.00039418184
117	0xbdc4684a	-0.09590204
118	0xbcca07ac	-0.024661861
119	0x3d46e10b	0.04855446
120	0xbd7029fc	-0.05863379
121	0x3d3454a4	0.044026032
122	0xbcaa1de3	-0.020766204
123	0x3d5a41b7	0.053285327
124	0x3c97de9f	0.018538771
125	0x3beba0b4	0.007190788
126	0xbcc415ef	-0.02393624
127	0x3d28e3ad	0.041232754
128	0xbd074148	-0.03302124
129	0xbb790ba4	-0.0038001323
130	0xbba5c9ba	-0.005059448
131	0xbd8bde2d	-0.06829486
132	0xbd8056fe	-0.062665924
133	0x3dc0645d	0.09394143
134	0x3c21acae	0.00986783
135	0x3c2aea4a	0.010431835
136	0x3c1a33ff	0.009411811
137	0xbc8049ef	-0.015660254
138	0xbc6a98f7	-0.014318696
139	0x3b26a20b	0.0025426175
140	0x3d308aec	0.043101236
141	0xbbfaa524	-0.007649081
142	0x3b6be86a	0.0035996684
143	0x3d5a30a9	0.053269062
144	0xb9b6f701	-0.00034897777
145	0x3d19c753	0.037543606
146	0xbc2d7493	-0.0105868755
147	0xbd161059	-0.036636684
148	0xbcd88ba8	-0.02643378
149	0xbc5d78de	-0.0135175865
150	0xbd6d5414	-0.05794151
151	0xbcc878ea	-0.024471719
152	0xbda9d785	-0.0829306
153	0xbd94a931	-0.07258833
154	0x3d982e06	0.07430653
155	0x3c9624da	0.01832812
156	0x3c969adf	0.018384395
157	0xbbedf7e6	-0.007262218
158	0xbcaf1c52	-0.021375809
159	0xbcb5a8b7	-0.022175176
160	0xbd014653	-0.031561207
161	0xbc005f0e	-0.007835163
162	0x3bfb89bc	0.0076763313
163	0x3e04b7c2	0.12960723
164	0x3c5c5af2	0.013449417
165	0xbd7661f6	-0.060152017
166	0x3d43403f	0.04766869
167	0xbcc0e2a1	-0.023545565
168	0x3c0c29c9	0.008554884
169	0x3d93563b	0.071941815
170	0xbc87ec7c	-0.016592257
171	0xbc767ed8	-0.01504489
172	0xbc2a6822	-0.010400804
173	0xbc446adb	-0.011988367
174	0xbdc2fe75	-0.0952119
175	0xbdaf9772	-0.08573808
176	0xbcbc5d6a	-0.022993762
177	0x3ddcfcb2	0.10790385
178	0x3c685af6	0.014181843
179	0x3c0031f9	0.007824414
180	0xbde65146	-0.112459704
181	0x3c31a79d	0.010843185
182	0xbb383b81	-0.002811164
183	0xbbb7daf2	-0.005610817
184	0x3b9d909d	0.004808499
185	0xbc8b44d6	-0.017000597
186	0xbc35281c	-0.011056926
187	0xbd2f4d53	-0.04279835
188	0xbccc3788	-0.024928823
189	0xbd857b22	-0.06517626
190	0x3c1351c3	0.0089916615
191	0xbd0096aa	-0.031393684
192	0xba8ea8fb	-0.00108841
193	0xbc1d1a59	-0.009588801
194	0x3cbcc434	0.023042776
195	0xbcbcfae4	-0.023068853
196	0x3d93b3a4	0.07211998
197	0xbd32486c	-0.043526098
198	0xbaa69032	-0.0012707768
199	0xbafbb799	-0.0019204497
200	0xbc78c5a5	-0.015183841
201	0x3d076bf4	0.033061936
202	0x3c4955f7	0.012288562
203	0xbd64852b	-0.05579106
204	0xbdee47b7	-0.11634772
205	0xbcae75bd	-0.021296376
206	0xbdb5da60	-0.08879542
207	0xbcbb262e	-0.022845354
208	0x3ce48d92	0.027899537
209	0x3bd7679f	0.006573632
210	0xbcd40557	-0.025881452
211	0xbd0260b8	-0.03183052
212	0xb9b42428	-0.00034359214
213	0x3c72fbe9	0.014830568
214	0x3c80d47d	0.015726322
215	0xbd547df5	-0.051877934
216	0x3d9ddf01	0.0770855
217	0x3bb217cf	0.005434967
218	0x3cfe0833	0.031009769
219	0xb9a487b2	-0.00031381618
220	0xbb91c19e	-0.00444813
221	0xbd809ce1	-0.06279922
222	0x3d0bf70c	0.03417115
223	0xbbf80b6a	-0.00756972
224	0xbc82de45	-0.015975127
225	0x3c56284c	0.013071131
226	0x39b674c8	0.00034800754
227	0xbcbae433	-0.022813892
228	0x3c098f2e	0.008395953
229	0xbba16b52	-0.0049261237
230	0x3d970b9f	0.073752634
231	0xbd0e4d6c	-0.034741804
232	0xbb382bc6	-0.0028102263
233	0x3d319c9d	0.04336225
234	0xbd8005a6	-0.06251077
235	0x3c5254e4	0.012837622
236	0xbd6c544d	-0.057697583
237	0xbbd9dce7	-0.006648648
238	0xbc4eecc1	-0.012629689
239	0x3cf27a79	0.029599415
240	0x3d651a20	0.055933118
241	0xbc042558	-0.008065544
242	0xbda717b2	-0.081588164
243	0xbd7a44c3	-0.061100733
244	0xbd248a62	-0.040171035
245	0x3db6adb9	0.08919854
246	0x3de77bff	0.11302947
247	0xbd0394e7	-0.032124426
248	0x3ca107b2	0.01965699
249	0xbcd37def	-0.025816886
250	0x3cbebe16	0.023284
251	0xbc8fe4ed	-0.017565215
252	0xbd1d0eee	-0.038344316
253	0x3c03603d	0.00801855
254	0x3cb49f8e	0.022048738
255	0x3da5d69a	0.080975726

action_model._continuous_distribution.mu.bias f4 [2]
0	0x3cad4f9d	0.021156127
1	0xbc2a65c6	-0.010400241

exp_avg f4 [128, 8]
0	0x39bd980a	0.00036162167
1	0xba17f9da	-0.00057974237
2	0x39e42e87	0.00043522214
3	0x39c87250	0.00038232142
4	0x39ac9a5f	0.00032921412
5	0xb8687572	-5.542249e-05
6	0xba4f21ee	-0.0007901479
7	0x39c49c8d	0.00037500673
8	0xb9f0407a	-0.00045824406
9	0xb9d6a63f	-0.00040941124
10	0x3a1ce333	0.0005984783
11	0x39888bf3	0.00026044212
12	0x38c24b86	9.264708e-05
13	0x39369d42	0.00017415456
14	0xba324125	-0.00067998684
15	0xbab2d0c7	-0.0013642543
16	0x39bc5bcf	0.00035926557
17	0xb97c3141	-0.00024050941
18	0x3a00c493	0.00049121043
19	0x3955824f	0.00020361807
20	0x3a13e8c7	0.00056422915
21	0x3679685c	3.7164637e-06
22	0xbaa74b98	-0.0012763618
23	0x39060183	0.00012779799
24	0xb990fec5	-0.00027655638
25	0xb9c1c19c	-0.0003695608
26	0x39e2e738	0.0004327835
27	0x39458a9e	0.00018839023
28	0x388bb78b	6.662224e-05
29	0x38c3411c	9.310452e-05
30	0x3962f44a	0.00021644044
31	0xba15e720	-0.0005718339
32	0xb9e9fced	-0.00044629668
33	0xbabb1ee0	-0.0014276169
34	0x3ab55756	0.0013835232
35	0x3a45cec3	0.00075457635
36	0x3997c63d	0.00028948663
37	0x3928aaab	0.00016085307
38	0xba31859b	-0.0006771923
39	0xbab883bc	-0.0014077346
40	0x383ea8f5	4.5456884e-05
41	0xb8c770d2	-9.510074e-05
42	0xb72353ce	-9.735069e-06
43	0x38ff842f	0.00012183969
44	0x37d2dda4	2.513716e-05
45	0xb8e1e740	-0.0001077191
46	0xba3532f5	-0.0006912195
47	0xb90eba58	-0.00013611594
48	0x3991cf37	0.00027810942
49	0x391a75cc	0.00014730467
50	0xb96e9e64	-0.00022756454
51	0x37fb2930	2.9940711e-05
52	0x3943585f	0.0001862957
53	0xb929710e	-0.00016159212
54	0xb9d8643b	-0.00041273408
55	0x39bdaa4f	0.0003617578
56	0xb932f475	-0.0001706647
57	0xb99366f4	-0.0002811473
58	0x39829232	0.00024904456
59	0x38937572	7.031382e-05
60	0xb86cf03b	-5.6490517e-05
61	0x38a1f379	7.7224286e-05
62	0xb8e66061	-0.000109852066
63	0xb9b29732	-0.00034063455
64	0xb9251360	-0.00015742844
65	0xb7fbc4d0	-3.001318e-05
66	0xb88acdb9	-6.6186716e-05
67	0xb8106d74	-3.443421e-05
68	0xb97cc061	-0.0002410426
69	0xb8589b48	-5.164303e-05
70	0x3a04f825	0.0005072377
71	0xb91819b4	-0.00014505425
72	0x38140348	3.5289006e-05
73	0x39f1c330	0.00046112528
74	0xba20124f	-0.0006106244
75	0xb9c533a9	-0.00037613258
76	0xb963d170	-0.00021726429
77	0xb949a8a6	-0.0001923168
78	0xb88e1c7e	-6.776395e-05
79	0x395f9adc	0.00021324627
80	0x39270b66	0.00015930607
81	0x3a2241ef	0.00061896344
82	0xba5d3a0b	-0.000843913
83	0xb9dbe54f	-0.00041941783
84	0xb7c4456f	-2.3397353e-05
85	0xb9846405	-0.00025251522
86	0xb9232675	-0.00015559218
87	0x3a1819fd	0.00058022124
88	0x3880d1ba	6.14258e-05
89	0x39e51f86	0.0004370177
90	0xb9fdacac	-0.0004838457
91	0xb9f979e9	-0.0004758381
92	0xb891e8f2	-6.957528e-05
93	0xb8a5017a	-7.868088e-05
94	0x39a30d5a	0.0003109973
95	0x39989de2	0.0002910933
96	0x36a9529c	5.0462095e-06
97	0x37a7e29f	2.001348e-05
98	0xb9891654	-0.00026147312
99	0x399442e2	0.0002827859
100	0xb8ca9ef1	-9.661716e-05
101	0x38ece8f5	0.000112967486
102	0xbaaca571	-0.0013171864
103	0xb8b83564	-8.7837485e-05
104	0x38d4d417	0.000101484526
105	0x38bc98d9	8.993009e-05
106	0xb8fabd59	-0.00011956198
107	0xb83219c4	-4.2462503e-05
108	0x3819b401	3.6645684e-05
109	0xb8ee1ae3	-0.000113537324
110	0xb8bffbad	-9.154468e-05
111	0x398ab985	0.00026459634
112	0x391afd94	0.0001478105
113	0x3928773a	0.00016066144
114	0xb95a32d7	-0.0002080904
115	0xb8900b3e	-6.868549e-05
116	0x36ecb56f	7.0544697e-06
117	0xb8cbc3e7	-9.716284e-05
118	0xb865b672	-5.476777e-05
119	0x39a4cd7d	0.00031433618
120	0xb93efe63	-0.00018214578
121	0x39954651	0.00028471884
122	0xba25d20a	-0.0006325549
123	0xb9f9a83b	-0.00047618322
124	0xb8730ec8	-5.794948e-05
125	0x390ec7e6	0.00013616643
126	0xb99b7d76	-0.0002965738
127	0xb98596b6	-0.00025480025
128	0xb9c182e2	-0.00036909344
129	0x3898797f	7.270555e-05
130	0xb9cef4ef	-0.00039473872
131	0xb8c77eb6	-9.512661e-05
132	0xb9571368	-0.00020511227
133	0xb809b571	-3.2832326e-05
134	0xb997dbbf	-0.00028964688
135	0xb9dcced1	-0.0004211576
136	0xb8b91e44	-8.827125e-05
137	0xb8f70733	-0.00011779219
138	0xb8fc41f7	-0.00012028583
139	0x38fe5e8d	0.00012129275
140	0x36ac56d5	5.136108e-06
141	0xb83aae6e	-4.4508306e-05
142	0xb9329db4	-0.00017034152
143	0x38c0cddc	9.193618e-05
144	0xb99b8021	-0.00029659367
145	0xb980bb9f	-0.0002455385
146	0x394cee2f	0.00019543686
147	0x38a6881b	7.9408484e-05
148	0xb983daae	-0.00025149196
149	0x37603fca	1.33662925e-05
150	0x3a195e17	0.00058505073
151	0xba017d2d	-0.0004939612
152	0xb873ca37	-5.8124042e-05
153	0x380b4c0f	3.3211018e-05
154	0xb7822985	-1.5516542e-05
155	0x35437963	7.28198e-07
156	0x389685e1	7.177494e-05
157	0xb702b663	-7.791069e-06
158	0xb912f934	-0.0001401648
159	0xb81d1519	-3.7451366e-05
160	0x37b25fd0	2.126387e-05
161	0x38dbd72c	0.00010482813
162	0xb95cfc2a	-0.00021074773
163	0xb8b9fcd8	-8.868583e-05
164	0xb88f5e15	-6.8362955e-05
165	0x3884a550	6.325042e-05
166	0x3788d34e	1.631086e-05
167	0x39110e70	0.00013833656
168	0x39c56149	0.0003764725
169	0xb94637bf	-0.00018903519
170	0x394759f6	0.00019011632
171	0x399a72e0	0.00029458757
172	0x397490ed	0.00023323642
173	0xb9280739	-0.00016024419
174	0xba4d96f4	-0.0007842623
175	0x39af8f6b	0.00033485456
176	0x38f8f510	0.00011871208
177	0x3a22e5c4	0.00062140473
178	0xba5356f7	-0.000806197
179	0xb9d1a71b	-0.0003998809
180	0x38658c1c	5.472834e-05
181	0x3927b969	0.00015995432
182	0x39b02f3e	0.00033604534
183	0x39b9e96e	0.00035459868
184	0xb8dce1de	-0.000105324885
185	0xb94d03e9	-0.0001955178
186	0x38f539db	0.00011693287
187	0x3842cf23	4.6446115e-05
188	0x37a13782	1.9218543e-05
189	0xb71b602c	-9.261112e-06
190	0xb6e325f2	-6.7695446e-06
191	0xb949997c	-0.00019226031
192	0xb842a97d	-4.6411053e-05
193	0x3924acfe	0.00015704703
194	0xb9b13b37	-0.0003380419
195	0xb90654c9	-0.00012810821
196	0xb7b74273	-2.1846243e-05
197	0x376338a3	1.3543441e-05
198	0xb9106034	-0.00013768749
199	0x3956c57f	0.00020482203
200	0xba0e05ab	-0.0005417715
201	0xb9b4be97	-0.00034474276
202	0x38f60471	0.000117310214
203	0x3956f558	0.00020500028
204	0xb9f9c441	-0.00047639202
205	0x38c33130	9.3074865e-05
206	0x3a1c76b5	0.00059686165
207	0xba4a22b3	-0.0007710859
208	0x38a2f101	7.7696524e-05
209	0xb98ea88e	-0.00027209934
210	0x398796b3	0.00025861486
211	0x391878ed	0.00014540898
212	0x37c73a73	2.3749866e-05
213	0xb910f92c	-0.00013825734
214	0xba0274db	-0.0004976519
215	0xb90c470c	-0.00013377907
216	0xb82ce234	-4.1218664e-05
217	0x391923ae	0.00014604509
218	0x381b6fc1	3.705896e-05
219	0xb9c7447f	-0.0003800727
220	0xb9a3fb1b	-0.0003127687
221	0xb6c8d48e	-5.985209e-06
222	0x3aae8c3c	0.001331694
223	0xb8d8f130	-0.00010344607
224	0x399dfde9	0.0003013455
225	0xba0588ee	-0.00050939515
226	0x39dc6208	0.0004203471
227	0x39a2f777	0.00031083424
228	0x39e32548	0.0004332459
229	0x3905d01e	0.00012761398
230	0xbac3de09	-0.0014943491
231	0x38ffc993	0.00012196894
232	0x39544556	0.00020243725
233	0x38a922d8	8.065038e-05
234	0xb903ff04	-0.00012588134
235	0x365b5c61	3.2687315e-06
236	0x39b17395	0.00033846186
237	0xb9742a16	-0.00023285332
238	0xba8c1b0a	-0.0010689211
239	0x392b346f	0.00016327364
240	0x390280d9	0.00012445766
241	0x38791905	5.9389527e-05
242	0xb7b7878c	-2.1878419e-05
243	0xb88f0777	-6.820162e-05
244	0x36ae1a7f	5.1886886e-06
245	0x38b4dd5f	8.6243024e-05
246	0x38a22f88	7.733615e-05
247	0x397650d4	0.00023490499
248	0x390d3f9d	0.00013470506
249	0xb8c75ffc	-9.506938e-05
250	0x399792cc	0.00028910337
251	0x39409d55	0.00018369158
252	0xb89d253d	-7.4932796e-05
253	0x38ea77a9	0.00011180278
254	0x38dc3005	0.00010499362
255	0x38610dc5	5.3657004e-05

exp_avg_sq f4 [128, 8]
0	0x36b6aa45	5.4438447e-06
1	0x36bf9dd4	5.710617e-06
2	0x378712f2	1.6102076e-05
3	0x363612f0	2.7131136e-06
4	0x3776ca68	1.4709869e-05
5	0x36ac18db	5.128893e-06
6	0x36703cc6	3.5798162e-06
7	0x367455be	3.6408742e-06
8	0x36c6b9a8	5.922473e-06
9	0x36cdefd2	6.137395e-06
10	0x37538844	1.2608307e-05
11	0x36ee9466	7.1102286e-06
12	0x371b8a50	9.270923e-06
13	0x369d8108	4.693986e-06
14	0x36a41810	4.890382e-06
15	0x3675cc98	3.6626934e-06
16	0x369b7db7	4.633995e-06
17	0x35f2c406	1.8087455e-06
18	0x373409bb	1.0731102e-05
19	0x3603cd01	1.963985e-06
20	0x363f5c38	2.8514896e-06
21	0x36018bb6	1.930382e-06
22	0x3703e483	7.861413e-06
23	0x35908972	1.0768838e-06
24	0x35b4e8b0	1.3478766e-06
25	0x3588702a	1.0165434e-06
26	0x362067c5	2.390226e-06
27	0x35d8839d	1.6131559e-06
28	0x359d5593	1.1722317e-06
29	0x35455b3a	7.352097e-07
30	0x35cbfcf0	1.5198293e-06
31	0x350c374b	5.2234526e-07
32	0x370aa8f2	8.264777e-06
33	0x3707e042	8.098841e-06
34	0x3782e53a	1.560395e-05
35	0x376362d8	1.3553268e-05
36	0x3750c75e	1.2444185e-05
37	0x36b2e7b6	5.331788e-06
38	0x36c371f8	5.8247206e-06
39	0x36a8f986	5.0358385e-06
40	0x35131e9d	5.4806316e-07
41	0x34fe2cc0	4.7343747e-07
42	0x359a659d	1.1503467e-06
43	0x34fb5d9b	4.68205e-07
44	0x3591e479	1.0869836e-06
45	0x34b4fdf5	3.371239e-07
46	0x3622c19b	2.4252574e-06
47	0x349f9bad	2.9729327e-07
48	0x35155126	5.562491e-07
49	0x34c5d447	3.6848562e-07
50	0x3569ce6f	8.7099664e-07
51	0x352fc2ef	6.5476246e-07
52	0x34e7a63f	4.3148063e-07
53	0x34776a17	2.3042263e-07
54	0x36175c43	2.2554457e-06
55	0x34461743	1.844865e-07
56	0x34f2a9d3	4.5199576e-07
57	0x34d6f634	4.0039743e-07
58	0x35a639a0	1.2384735e-06
59	0x34677d00	2.1559026e-07
60	0x3514819d	5.532291e-07
61	0x34a9447c	3.1528532e-07
62	0x347c0dcc	2.3474348e-07
63	0x34a49104	3.0652893e-07
64	0x357ddb06	9.4568566e-07
65	0x35985797	1.1350375e-06
66	0x354ce9e6	7.633629e-07
67	0x365bd37c	3.2756643e-06
68	0x35649a59	8.5161224e-07
69	0x341cb1c3	1.4593302e-07
70	0x363b0a3f	2.7871135e-06
71	0x342aa829	1.589366e-07
72	0x360cf0dd	2.1001827e-06
73	0x35c6e05a	1.4817444e-06
74	0x36ae6485	5.197306e-06
75	0x35fed50d	1.8986481e-06
76	0x36117887	2.167684e-06
77	0x3567e680	8.638963e-07
78	0x357d37e7	9.4331193e-07
79	0x3558c926	8.075898e-07
80	0x36286e22	2.5098057e-06
81	0x35e953c1	1.7384228e-06
82	0x36d22e0c	6.2638483e-06
83	0x36100c9e	2.1465016e-06
84	0x362a208e	2.5350923e-06
85	0x359c937a	1.1665827e-06
86	0x35fc5fc9	1.880334e-06
87	0x35a870da	1.254982e-06
88	0x35d365dd	1.5750371e-06
89	0x358d5260	1.0529293e-06
90	0x36799919	3.7193006e-06
91	0x361d9dce	2.3486677e-06
92	0x3602b190	1.9474865e-06
93	0x35421e86	7.231505e-07
94	0x35d55c53	1.5896607e-06
95	0x351382ba	5.4952e-07
96	0x36183f40	2.2686581e-06
97	0x36138159	2.1979997e-06
98	0x36ed9a76	7.081132e-06
99	0x35e20437	1.6839539e-06
100	0x36a2a239	4.8468614e-06
101	0x35ed1291	1.766328e-06
102	0x36965dd2	4.4812705e-06
103	0x35ff2bb6	1.9011702e-06
104	0x350826f9	5.072066e-07
105	0x355439d1	7.906029e-07
106	0x35e26088	1.6866406e-06
107	0x34ae725e	3.249324e-07
108	0x3645012c	2.935597e-06
109	0x356d68d7	8.844194e-07
110	0x351a8839	5.75677e-07
111	0x356afaac	8.753657e-07
112	0x34a46f83	3.0628516e-07
113	0x34b31c30	3.3361857e-07
114	0x354a7cea	7.543264e-07
115	0x34281c80	1.5656587e-07
116	0x353bc98b	6.995621e-07
117	0x34ac9206	3.2143743e-07
118	0x34d611dd	3.9873603e-07
119	0x34b09b33	3.2895477e-07
120	0x3687f2b2	4.051567e-06
121	0x36874bd0	4.0321393e-06
122	0x37259cf7	9.871313e-06
123	0x36bf4986	5.700803e-06
124	0x36e84490	6.9221205e-06
125	0x36189d9f	2.2741513e-06
126	0x35ddc357	1.6522634e-06
127	0x362cc3e1	2.5744014e-06
128	0x35edbd75	1.7713015e-06
129	0x358aeffc	1.0351646e-06
130	0x36948728	4.426478e-06
131	0x35441e8d	7.3060147e-07
132	0x3613520e	2.195247e-06
133	0x357f54db	9.5118384e-07
134	0x356d777e	8.8463264e-07
135	0x356ca750	8.816032e-07
136	0x3501ddd3	4.837904e-07
137	0x352bf101	6.405317e-07
138	0x3591416a	1.082238e-06
139	0x35525540	7.835515e-07
140	0x359ab065	1.1525232e-06
141	0x34d26e68	3.919588e-07
142	0x353c8fd5	7.024476e-07
143	0x34c4e36e	3.6673322e-07
144	0x355a3ea4	8.130248e-07
145	0x35850097	9.909444e-07
146	0x35b8b5aa	1.376194e-06
147	0x35a0e82d	1.1988501e-06
148	0x35b32641	1.3347673e-06
149	0x34cb3a9d	3.7854343e-07
150	0x36157415	2.2270299e-06
151	0x34ee1745	4.4347885e-07
152	0x34816b2e	2.4106106e-07
153	0x34960ea8	2.795034e-07
154	0x3502a0a0	4.8662514e-07
155	0x34e9414f	4.344715e-07
156	0x34faa407	4.6685474e-07
157	0x341361bd	1.3725999e-07
158	0x352a517a	6.34485e-07
159	0x340fb093	1.338215e-07
160	0x352e27d2	6.4878e-07
161	0x34d2e0fa	3.927924e-07
162	0x3612642f	2.181401e-06
163	0x34d4a390	3.9607085e-07
164	0x34db6232	4.0863375e-07
165	0x34b57013	3.3795422e-07
166	0x34567662	1.997337e-07
167	0x34a8660a	3.1366682e-07
168	0x361842d3	2.2688662e-06
169	0x35cac7ab	1.5108284e-06
170	0x368179c0	3.858673e-06
171	0x3692eb66	4.378543e-06
172	0x3603d4ce	1.964439e-06
173	0x3564dca5	8.52577e-07
174	0x365faa35	3.3328663e-06
175	0x35242574	6.114926e-07
176	0x3646dbf6	2.9632333e-06
177	0x3670cc30	3.588164e-06
178	0x36e5565c	6.8347854e-06
179	0x368e5b78	4.242578e-06
180	0x36fc6ed4	7.5230873e-06
181	0x360fda76	2.1435822e-06
182	0x35fc0052	1.8775556e-06
183	0x360e90a4	2.124384e-06
184	0x353c3558	7.0113083e-07
185	0x354045da	7.162722e-07
186	0x35e74502	1.7230925e-06
187	0x34d6ced1	4.0011085e-07
188	0x35d186ea	1.5610979e-06
189	0x3528f3c7	6.293962e-07
190	0x34d9d44a	4.057386e-07
191	0x34e5da76	4.2813525e-07
192	0x355fc0e4	8.3354666e-07
193	0x3495be84	2.789203e-07
194	0x362a8b90	2.541321e-06
195	0x34a0cd41	2.9951664e-07
196	0x352c0925	6.40883e-07
197	0x34e9c002	4.3539336e-07
198	0x350e3bf1	5.298635e-07
199	0x34b7e136	3.425027e-07
200	0x367e2454	3.7870095e-06
201	0x3665292c	3.4147624e-06
202	0x3674b0c5	3.6461727e-06
203	0x37096a4b	8.190585e-06
204	0x3631eaf0	2.6511807e-06
205	0x355436ab	7.9055707e-07
206	0x3717cb23	9.047598e-06
207	0x356444e4	8.503687e-07
208	0x35a11be1	1.2003549e-06
209	0x35bde287	1.4147525e-06
210	0x362e15c6	2.5940694e-06
211	0x35663950	8.576508e-07
212	0x364fb660	3.095156e-06
213	0x35761c41	9.1683256e-07
214	0x368222f9	3.8783733e-06
215	0x3554515a	7.9094536e-07
216	0x35f6c5bf	1.838598e-06
217	0x360d7eee	2.108452e-06
218	0x361557bd	2.22538e-06
219	0x36ad41b3	5.16345e-06
220	0x363914ff	2.757937e-06
221	0x350791a3	5.050335e-07
222	0x368590ab	3.9805504e-06
223	0x35131843	5.479707e-07
224	0x368cb086	4.192875e-06
225	0x361eccd6	2.3663065e-06
226	0x36f5d6f7	7.326594e-06
227	0x36eb50be	7.0129454e-06
228	0x3659af48	3.2437547e-06
229	0x35a70d48	1.2446335e-06
230	0x36de0bd3	6.617492e-06
231	0x3571f3d0	9.013429e-07
232	0x35bbba79	1.3986856e-06
233	0x35871706	1.0064985e-06
234	0x36342e08	2.6848884e-06
235	0x359312ae	1.095779e-06
236	0x35698dc2	8.700555e-07
237	0x35124425	5.44884e-07
238	0x36bc2c1e	5.6079725e-06
239	0x34fb73b7	4.6836587e-07
240	0x357c3955	9.3960745e-07
241	0x3571dcd4	9.0100843e-07
242	0x35f188bb	1.7995693e-06
243	0x35f39281	1.8147549e-06
244	0x35ad599b	1.2915583e-06
245	0x34fd6d47	4.7204432e-07
246	0x359fb263	1.189834e-06
247	0x34fdc89f	4.7270893e-07
248	0x35b4211c	1.3420681e-06
249	0x356f6726	8.918454e-07
250	0x368a4515	4.1207627e-06
251	0x357737a7	9.2095655e-07
252	0x35f9987b	1.8596323e-06
253	0x3569c711	8.7088944e-07
254	0x351ab76c	5.7636385e-07
255	0x354be083	7.59501e-07

exp_avg f4 [128]
0	0x3a8088b5	0.0009806367
1	0xbab0686d	-0.0013458856
2	0x3a1b68e2	0.00059284095
3	0xba202d19	-0.00061102357
4	0xbac3e881	-0.0014946611
5	0xb6315704	-2.6425705e-06
6	0x39df8c2b	0.00042638308
7	0xb993e97f	-0.00028211993
8	0xb9895784	-0.0002619588
9	0xb996f6d1	-0.00028794122
10	0x38bd68a1	9.031711e-05
11	0xb8f2ee1b	-0.0001158381
12	0x3a2282f3	0.00061993225
13	0x398e52d7	0.0002714607
14	0x3945f481	0.00018878469
15	0xba2636d1	-0.0006340566
16	0xba452de4	-0.0007521792
17	0x39b4b37c	0.00034466002
18	0xba1481ca	-0.0005665092
19	0xb926b05b	-0.00015896691
20	0x388c994f	6.704276e-05
21	0x3a3d5262	0.0007222054
22	0x398b6590	0.00026587816
23	0xb803988e	-3.137491e-05
24	0xb8664193	-5.4897344e-05
25	0xba89dcb2	-0.0010518043
26	0xb8f19721	-0.000115199255
27	0xb9fd1646	-0.00048272515
28	0x3a437b83	0.00074570643
29	0x39b2a62d	0.00034074616
30	0x399fc21f	0.00030471475
31	0x39b11bf7	0.00033780906
32	0x39efd419	0.00045743657
33	0x39496bf1	0.00019209065
34	0xb9b243a7	-0.0003400121
35	0x39aa9c61	0.00032541438
36	0x39d5275e	0.00040655857
37	0xb987c969	-0.0002589927
38	0x3a15b3b0	0.00057106744
39	0x3992bfc5	0.0002799017
40	0x391f6492	0.00015200887
41	0x39865851	0.00025624273
42	0x3857f1d5	5.1485218e-05
43	0x3a18f479	0.0005834769
44	0x3a8bd94d	0.0010669619
45	0xb9414f47	-0.00018435447
46	0x3917e420	0.00014485465
47	0x3a3a9bdd	0.00071185624
48	0x39987c83	0.00029084468
49	0x3a972437	0.0011531179
50	0x39e8175f	0.000442679
51	0x388d2828	6.7308836e-05
52	0x398fa157	0.00027395293
53	0xba427414	-0.00074178097
54	0xba04887c	-0.0005055738
55	0xb69997fc	-4.5774486e-06
56	0x39ec9a48	0.00045128376
57	0xb8d8963e	-0.000103276674
58	0x3853192f	5.0329774e-05
59	0xb983202d	-0.0002501024
60	0x362edf17	2.6057876e-06
61	0xb9424093	-0.00018525338
62	0xb77f1a17	-1.5205259e-05
63	0xb9589379	-0.00020654303
64	0x369bb3a9	4.640275e-06
65	0x38aaecd2	8.150343e-05
66	0xb838dc0b	-4.407395e-05
67	0x3a387228	0.00070360536
68	0x394afdfc	0.00019358838
69	0x373bf0bc	1.1202119e-05
70	0xb9fb2dce	-0.00047908578
71	0x370d7bd7	8.433089e-06
72	0x3a2db6ed	0.00066266843
73	0x39a304f3	0.0003109347
74	0xb9cf1d3f	-0.00039503907
75	0xba77a22c	-0.0009446468
76	0xba1f3511	-0.0006073276
77	0xb8c5b7c9	-9.427925e-05
78	0xba718757	-0.00092135876
79	0xb8f1bd3e	-0.000115270246
80	0x3a1278a7	0.00055874366
81	0x38354a86	4.3223168e-05
82	0x38db4fc1	0.00010457589
83	0xb99e0f74	-0.00030147622
84	0x3a47cd91	0.00076218793
85	0x39800007	0.00024414083
86	0xb98d4e62	-0.00026952015
87	0xb99d69eb	-0.0003002429
88	0x39ae720d	0.0003327284
89	0x3a6f57c0	0.0009130202
90	0xb92cd9fa	-0.00016484401
91	0x384cdb9b	4.8841914e-05
92	0xba49c0f0	-0.00076962914
93	0xba1ecb3d	-0.00060575065
94	0xb9a567ce	-0.00031548593
95	0xb91435b0	-0.0001413438
96	0x39aaffd6	0.0003261554
97	0x399a1246	0.00029386784
98	0x3a07568e	0.0005162739
99	0x3a0799f6	0.0005172783
100	0x3a09405b	0.0005235725
101	0xb9e7bfbc	-0.00044202607
102	0x3966e315	0.00022019104
103	0xb9568533	-0.00020458251
104	0xba1b9eca	-0.0005936442
105	0x3a29d469	0.000647849
106	0xba96cfc2	-0.0011506008
107	0x398c65ac	0.00026778632
108	0x3a141ccc	0.0005650043
109	0xb90086c2	-0.00012257232
110	0xba974240	-0.001154013
111	0x3943fb54	0.00018690276
112	0xb9fa0924	-0.00047690526
113	0xb701df8e	-7.74105e-06
114	0xb892936e	-6.9892834e-05
115	0xb3c91b0a	-9.36471e-08
116	0x3a0facd2	0.00054807693
117	0x3a03a06c	0.0005021158
118	0xba2bba2d	-0.00065508747
119	0xb86dd045	-5.669917e-05
120	0x39109e46	0.00013791872
121	0x3a0ff513	0.0005491536
122	0x3a08d128	0.0005219155
123	0x3a35bf74	0.0006933131
124	0xbaa46370	-0.0012541842
125	0xb99b675c	-0.00029640913
126	0xb8cd5792	-9.791473e-05
127	0x391cc7ee	0.00014951799

exp_avg_sq f4 [128]
0	0x377d8742	1.5111467e-05
1	0x37725d14	1.44459955e-05
2	0x36b842e5	5.491415e-06
3	0x3619aa4d	2.2897905e-06
4	0x37a3a699	1.9508692e-05
5	0x357ab389	9.3393515e-07
6	0x3512b0ff	5.46468e-07
7	0x3585f018	9.979149e-07
8	0x3548af74	7.4761124e-07
9	0x36703e86	3.579918e-06
10	0x368caa3b	4.1921426e-06
11	0x362c6193	2.5686793e-06
12	0x3700c335	7.674845e-06
13	0x360ffef5	2.1457065e-06
14	0x358698fc	1.0028302e-06
15	0x37056825	7.951666e-06
16	0x366ef14b	3.5605215e-06
17	0x35b4373d	1.3427122e-06
18	0x35c38f74	1.4570383e-06
19	0x3505b65e	4.981174e-07
20	0x3596da4b	1.1239403e-06
21	0x363e9c40	2.8403156e-06
22	0x36ffb689	7.620842e-06
23	0x3600bab8	1.918217e-06
24	0x359f1112	1.1851391e-06
25	0x3669f4e9	3.4862262e-06
26	0x3621d2ff	2.4113685e-06
27	0x361d9493	2.3481305e-06
28	0x36b1743e	5.2885434e-06
29	0x35c30a4c	1.4531629e-06
30	0x35f5befd	1.8309507e-06
31	0x364dbfb2	3.0658962e-06
32	0x363c29a2	2.8038417e-06
33	0x3507b1c1	5.0550085e-07
34	0x358a5bdb	1.0308535e-06
35	0x369e073a	4.709608e-06
36	0x35b4a941	1.3460304e-06
37	0x3546504c	7.3877595e-07
38	0x36b44f73	5.373667e-06
39	0x35f9d49f	1.8613827e-06
40	0x35b3b3d2	1.3388874e-06
41	0x35c174d2	1.441362e-06
42	0x3687513d	4.032771e-06
43	0x361da2d8	2.348961e-06
44	0x36f9038c	7.421191e-06
45	0x350c41db	5.2249896e-07
46	0x3548ea2f	7.484659e-07
47	0x369a480a	4.597944e-06
48	0x3601dc5e	1.9350769e-06
49	0x36f82b86	7.3960427e-06
50	0x3709fda1	8.224889e-06
51	0x3503bb52	4.907389e-07
52	0x36f2e531	7.2388434e-06
53	0x3616512f	2.2398997e-06
54	0x360fa63b	2.140542e-06
55	0x356ed0f2	8.8965965e-07
56	0x36056d41	1.9882139e-06
57	0x36a41dbf	4.891044e-06
58	0x3524e603	6.142947e-07
59	0x357def26	9.459785e-07
60	0x35adf438	1.2960581e-06
61	0x355ba1e8	8.181946e-07
62	0x34ea6851	4.3661797e-07
63	0x345d3772	2.06024e-07
64	0x36059fa6	1.9911472e-06
65	0x35d7c702	1.6076667e-06
66	0x36383fa8	2.745519e-06
67	0x36a6d4c2	4.971954e-06
68	0x36d712f6	6.4097067e-06
69	0x361aa1a3	2.3041873e-06
70	0x36a6a6a7	4.9665864e-06
71	0x353e578a	7.09079e-07
72	0x36b33ef6	5.3419453e-06
73	0x3674ca26	3.64765e-06
74	0x372fffa6	1.0490336e-05
75	0x36dc91d7	6.573489e-06
76	0x36109ac7	2.1547764e-06
77	0x35777371	9.218266e-07
78	0x3689568f	4.092995e-06
79	0x36af0ac2	5.216659e-06
80	0x361d665c	2.3454404e-06
81	0x35c0e58e	1.4371924e-06
82	0x34a18549	3.0085565e-07
83	0x362f029c	2.607855e-06
84	0x36e5de7f	6.850634e-06
85	0x354fc3ed	7.739862e-07
86	0x351ff16c	5.958343e-07
87	0x360765c9	2.0175814e-06
88	0x3622bf54	2.4251249e-06
89	0x37048a46	7.900007e-06
90	0x35a62615	1.2379047e-06
91	0x35543976	7.905977e-07
92	0x36be0712	5.6632643e-06
93	0x364690b2	2.9588523e-06
94	0x36c796df	5.948226e-06
95	0x366f99c9	3.570329e-06
96	0x363c15b2	2.8026811e-06
97	0x3564cadb	8.523181e-07
98	0x3749a5ca	1.2019134e-05
99	0x36d140dd	6.2362365e-06
100	0x37043d07	7.882022e-06
101	0x357d94c7	9.4466344e-07
102	0x34fd00b3	4.712543e-07
103	0x3572018e	9.015429e-07
104	0x36c80e69	5.962142e-06
105	0x363cd781	2.8139623e-06
106	0x37747e6f	1.4572971e-05
107	0x3586dad6	1.0047468e-06
108	0x36fdefd1	7.567906e-06
109	0x35af618e	1.3066908e-06
110	0x373dcb9f	1.1312687e-05
111	0x36426b0c	2.8970562e-06
112	0x35d2309a	1.5660364e-06
113	0x34f984dc	4.6476532e-07
114	0x359a0cdc	1.1477637e-06
115	0x3509375c	5.1117036e-07
116	0x369b1ff4	4.62308e-06
117	0x365c451d	3.2822784e-06
118	0x362a9337	2.5417664e-06
119	0x353db0b9	7.066515e-07
120	0x357a1735	9.316603e-07
121	0x36a3f2f6	4.886063e-06
122	0x36ef25c0	7.1271497e-06
123	0x36922b68	4.356192e-06
124	0x370eeb5f	8.518661e-06
125	0x362f9eaa	2.6169387e-06
126	0x37bd8cfd	2.2596209e-05
127	0x34da1a3a	4.0624747e-07
