results/3dball_test_4/3DBall/checkpoint.pt (torch, 450997 bytes, 44 tensors)

network_body.observation_encoder.processors.0.normalizer.running_mean f4 [8]
0.00050000945 0.005131483 -0.1104137 3.0410128 0.024775919 -0.039082848 -1.0705308 0.033310004
00000000: 1113 033a 0026 a83b 9420 e2bd f49f 4240
00000010: def6 ca3c 5615 20bd 2707 89bf 1270 083d

network_body.observation_encoder.processors.0.normalizer.running_variance f4 [8]
252.3969 250.88191 41487.086 6180.9824 43019.395 40382.293 33940.71 40158.516
00000000: 9b65 7c43 c5e1 7a43 160f 2247 dc27 c145
00000010: 650b 2847 4bbe 1d47 b694 0447 84de 1c47

network_body.processors.0.normalizer.running_mean f4 [8]
0.00050000945 0.005131483 -0.1104137 3.0410128 0.024775919 -0.039082848 -1.0705308 0.033310004
00000000: 1113 033a 0026 a83b 9420 e2bd f49f 4240
00000010: def6 ca3c 5615 20bd 2707 89bf 1270 083d

network_body.processors.0.normalizer.running_variance f4 [8]
252.3969 250.88191 41487.086 6180.9824 43019.395 40382.293 33940.71 40158.516
00000000: 9b65 7c43 c5e1 7a43 160f 2247 dc27 c145
00000010: 650b 2847 4bbe 1d47 b694 0447 84de 1c47

network_body._body_endoder.seq_layers.0.weight f4 [128, 8]
-0.033234805 -0.008617636 0.5256256 -0.5880699 0.40353498 0.14322054 0.1473144 0.21179979
0.30056447 0.3629822 -0.30498797 -0.091615744 -0.3791593 0.5244505 0.08416932 -0.010936032
-0.46669134 -0.30767995 -0.45754653 -0.18577299 -0.27757838 -0.15457454 0.9882534 -0.2960735
-0.39479053 -0.006895043 -0.07967377 -0.28070536 0.3924651 0.052934285 -0.022082942 0.011672863
0.46222138 -0.2760681 0.15135975 0.23298828 -0.1591907 0.114406586 -0.246443 -0.41885588
-0.17737474 0.10021095 -0.122206055 0.101375334 0.21848558 -0.47456494 0.40420875 -0.11930462
-0.11893168 -0.1100932 -0.04743367 0.6362549 0.19416589 0.41478527 0.0013888087 0.10879069
-0.13513006 -0.30217323 -0.23877136 -0.12158059 -0.18294537 -0.07583104 -0.81896466 -0.5872896
-0.23846312 0.42881122 -0.70005834 -0.18566458 0.30586708 -0.48375976 0.09150101 0.058087412
-0.04452106 -0.50889665 -0.08338348 -0.2352796 -0.27464473 -0.6088286 0.66852295 -0.020473404
-0.349929 -0.14402503 0.44344535 -0.26967758 0.753815 -0.5729423 -0.05960801 0.13968538
0.027336823 0.28956124 -0.012343558 0.25672728 -0.19615063 0.16589835 0.15343848 0.077595696
0.3042616 0.056706633 0.16955818 -0.28586972 -0.087815106 0.24958977 -0.75158846 -0.21983287
-0.13844821 -0.024053669 0.19585979 -0.24653295 0.969165 -0.3696394 -0.23234615 -0.61427015
0.23744535 -0.6369157 0.5979632 -0.33277833 -0.39218435 0.573059 0.06136121 0.06786976
0.31039795 0.22617307 -0.13243032 -0.20881124 -0.40584236 -0.15879947 -0.122947015 -0.15016702
-0.013746961 0.026263809 -0.073356025 0.30195937 -0.29530314 -0.43888047 -0.01982226 -0.49872008
0.36197627 -0.08042109 0.17419845 -0.29145065 0.5455696 -0.20450635 0.5180065 -0.1579289
-0.19405347 -0.33430177 -0.09965226 0.022740202 0.071030885 0.45434478 0.62150943 0.2919234
-0.33228612 -0.282528 0.15750515 -0.10303699 -0.06669683 0.2166789 0.35083044 0.13941363
-0.1829899 0.056784168 -0.23187108 -0.11545528 -0.3004456 0.07349352 -0.3387093 -0.20843706
-0.004648327 0.2270048 0.16401523 -0.48691308 0.009606419 0.057562225 -0.016635455 -0.24378704
0.047120012 0.07236745 0.76441395 -0.31790534 -0.02753869 -0.022918133 -0.4012022 0.016537607
-0.027394671 0.16369484 -0.45050237 -0.340925 -0.48990524 0.10817997 -0.085839845 -0.22292006
-0.56283945 -0.04951879 0.31468803 -0.20863907 0.16588414 0.357494 -0.39706284 -0.29436222
0.022916136 -0.014134437 0.09075398 0.16590394 -0.05533315 -0.77264273 -0.22930971 0.080847085
-0.003051213 0.17278324 0.0022655977 0.8510728 -0.028895691 -0.44845456 0.092917785 -0.554594
-0.13056651 -0.10581456 -0.33867344 0.2265722 -0.11094649 0.73497885 0.45437288 0.4173039
-0.06249292 0.18961164 -0.20501333 0.48643824 -0.08312981 0.42783928 -0.09434971 -0.09603014
-0.32081437 0.4065571 -0.089800015 -0.017417932 -0.025957627 -0.26447052 -0.36065903 -0.03831631
0.034486845 0.121968895 0.055378914 0.06482918 0.3672309 0.049954772 0.43348005 -0.1787952
-0.24856484 0.15723193 0.11892379 0.29364422 0.7375698 -0.036979944 0.10074735 -0.16011536
00000000: 3821 08bd fc30 0dbc 668f 063f c08b 16bf
00000010: 239c ce3e 68a8 123e 96d9 163e 0be2 583e
00000020: 96e3 993e ced8 b93e 6227 9cbe 09a1 bbbd
00000030: 2b21 c2be 6342 063f f760 ac3d 0b2d 33bc
00000040: 2bf2 eebe 3a88 9dbe 8a43 eabe 463b 3ebe
00000050: c11e 8ebe ca48 1ebe 2dfe 7c3f f296 97be
00000060: fc21 cabe d0ef e1bb 002c a3bd 9db8 8fbe
00000070: 30f1 c83e 9fd1 583d 49e7 b4bc 893f 3f3c
00000080: 48a8 ec3e cc58 8dbe 0dfe 1a3e 7b94 6e3e
00000090: e302 23be 004e ea3d 8e5b 7cbe 4774 d6be
000000a0: b9a1 35be 663b cd3d 2b47 fabd df9d cf3d
000000b0: afba 5f3e 2dfa f2be 73f4 ce3e fb55 f4bd
000000c0: 7492 f3bd 8b78 e1bd cf49 42bd 9ae1 223f
000000d0: 6cd3 463e bc5e d43e b008 b63a a7cd de3d
000000e0: 895f 0abe 73b6 9abe 7b80 74be 3fff f8bd
000000f0: 0856 3bbe 4e4d 9bbd aba7 51bf 9c58 16bf
00000100: ad2f 74be 258d db3e 0637 33bf db1e 3ebe
00000110: 9c9a 9c3e 5caf f7be e264 bb3d 11ed 6d3d
00000120: b75b 36bd 0d47 02bf f5c4 aabd 23ed 70be
00000130: 3c9e 8cbe 31dc 1bbf 5224 2b3f d7b7 a7bc
00000140: e529 b3be 4c7b 13be 450b e33e 2e13 8abe
00000150: 05fa 403f 59ac 12bf 8727 74bd af09 0f3e
00000160: 79f1 df3c 5f41 943e a23c 4abc c271 833e
00000170: b6db 48be 42e1 293e fa1e 1d3e 7eea 9e3d
00000180: 2dc8 9b3e 3745 683d a9a0 2d3e 845d 92be
00000190: 68d8 b3bd 7694 7f3e 1a68 40bf de1b 61be
000001a0: 5ec5 0dbe 330c c5bc 788f 483e 2273 7cbe
000001b0: 331b 783f 6041 bdbe 26ec 6dbe cf40 1dbf
000001c0: e024 733e e80c 23bf 1e14 193f ec61 aabe
000001d0: 63cc c8be ffb3 123f e455 7b3d 4dff 8a3d
000001e0: 7bec 9e3e ea99 673e d09b 07be 9dd2 55be
000001f0: 92ca cfbe 549c 22be a5cb fbbd 62c5 19be
00000200: ef3a 61bc 3327 d73c af3b 96bd 6b9a 9a3e
00000210: f931 97be f1b4 e0be 4b62 a2bc 3d58 ffbe
00000220: f454 b93e d0b3 a4bd 1461 323e 0539 95be
00000230: 73aa 0b3f 1d6a 51be 139c 043f 1db8 21be
00000240: f4b5 46be 9a29 abbe 7c16 ccbd a949 ba3c
00000250: a478 913d e19f e83e 3e1b 1f3f fc76 953e
00000260: 6821 aabe 83a7 90be 0849 213e 0f05 d3bd
00000270: 5998 88bd 13e1 5d3e 0ca0 b33e 72c2 0e3e
00000280: b461 3bbe 8496 683d 9d6f 6dbe d173 ecbd
00000290: 01d4 99be c583 963d 4e6b adbe 8670 55be
000002a0: fe50 98bb f273 683e 9cf3 273e ac4c f9be
000002b0: 3e64 1d3c 5ec6 6b3d 1447 88bc 4fa3 79be
000002c0: ea00 413d 6335 943d a2b0 433f 7dc4 a2be
000002d0: d298 e1bc cfbe bbbc 606a cdbe e079 873c
000002e0: ca6a e0bc 9f9f 273e 3fa8 e6be b98d aebe
000002f0: dcd4 fabe 768d dd3d cdcc afbd 2845 64be
00000300: 3f16 10bf 37d4 4abd ca1e a13e 7ba5 55be
00000310: 88dd 293e 7409 b73e d24b cbbe a5b6 96be
00000320: 9fba bb3c 2094 67bc 39dd b93d b9e2 293e
00000330: 03a5 62bd eacb 45bf 2ad0 6abe 2893 a53d
00000340: dcf6 47bb 17ee 303e 6c7a 143b e8df 593f
00000350: a8b6 ecbc d69b e5be ae4b be3d dff9 0dbf
00000360: 3ab3 05be 4eb5 d8bd 9b66 adbe 8b02 683e
00000370: ea37 e3bd 9327 3c3f 90a3 e83e dba8 d53e
00000380: 93f8 7fbd 8e29 423e 04ef 51be 6f0e f93e
00000390: f63f aabd c00d db3e 6c3a c1bd 73ab c4bd
000003a0: c841 a4be 4128 d03e 12e9 b7bd 0db0 8ebc
000003b0: 17a5 d4bc ae68 87be 4da8 b8be 90f1 1cbd
000003c0: 1442 0d3d d4ca f93d 00d5 623d 29c5 843d
000003d0: b005 bc3e 609d 4c3d 19f1 dd3e 1716 37be
000003e0: c887 7ebe 6801 213e 518e f33d 8958 963e
000003f0: 60d1 3c3f 4878 17bd a054 ce3d 48f5 23be

network_body._body_endoder.seq_layers.0.bias f4 [128]
0.014517698 -0.008164226 0.004787632 0.0036871722 -0.004035979 0.030183272 -0.019783892 -0.012254042
-0.02955328 0.01598894 0.0020068195 0.019059746 0.0023393983 -0.0037243848 -0.0059316345 -0.009389628
0.0016285597 0.012126352 -0.008974993 0.005184295 0.0029780744 -0.0028450743 -0.015474209 0.007880945
-0.0055573406 0.021205015 0.010575492 -0.011532824 0.0096489815 0.003400675 -0.017188333 -0.014332962
0.015939517 -0.010471441 0.01852152 0.021227479 -0.008593999 -0.0012697773 0.01374663 -0.0010755982
-0.0005744886 0.014069204 -0.0019710273 -0.011911536 -0.011510626 0.016805062 0.00687999 0.0017080853
0.009120367 0.0009202301 -0.002375966 -0.026717924 0.0010488158 -0.011022471 0.010687854 -0.017780198
-0.004728838 0.024035446 0.0022364624 -0.006683832 0.0055869306 0.007902669 0.008371111 -0.021644132
-0.005016163 -0.017308822 0.01463416 -0.010454052 -0.013603399 0.025132129 0.014909735 -0.013164576
-0.0008240595 -0.00017575186 -0.0073225363 0.0043776645 0.0060000904 0.0046769828 0.0107201245 -0.00032102497
0.029843299 0.0036597946 -0.012843696 -0.016256483 -0.008492883 0.008605076 0.022356668 -0.023004584
0.015638115 0.012487308 0.0010828896 -0.012773644 -0.011058245 0.0010310996 0.011397371 -0.0054048984
-0.007954748 0.0051440904 0.0025432508 -0.007724667 -0.010606777 0.021278983 0.007760007 -0.026995722
-0.0075113294 0.011882161 -0.011078199 -0.010068216 0.0055672596 0.0013070586 0.012181529 -0.01162381
0.011425402 -0.021178547 0.014445654 -0.018585525 0.00018564824 -0.014394358 -0.0027483788 -0.0042094234
-0.009821636 0.009421061 0.0016831806 -0.011485398 0.008589883 0.016602654 0.014107044 -0.01397285
00000000: a4db 6d3c 3fc3 05bc 91e1 9c3b 7ca4 713b
00000010: 3f40 84bb e942 f73c d411 a2bc 2dc5 48bc
00000020: b819 f2bc 3dfb 823c d884 033b 2f23 9c3c
00000030: 9750 193b cf14 74bb 285e c2bb f4d6 19bc
00000040: 6575 d53a 9bad 463c d90b 13bc 05e1 a93b
00000050: cc2b 433b 6d74 3abb 8987 7dbc 141f 013c
00000060: 5a1a b6bb 24b6 ad3c d444 2d3c 2bf4 3cbc
00000070: c316 1e3c dcdd 5e3b 8cce 8cbc cdd4 6abc
00000080: 9793 823c 6890 2bbc 71ba 973c 40e5 ad3c
00000090: d8cd 0cbc a86e a6ba 8c39 613c 16fb 8cba
000000a0: 4799 16ba 8582 663c 5a2c 01bb 9a28 43bc
000000b0: 1197 3cbc c5aa 893c 8a71 e13b d5e1 df3a
000000c0: 976d 153c 993b 713a 18b6 1bbb 8cdf dabc
000000d0: 6b78 893a 9897 34bc 1c1c 2f3c c7a7 91bc
000000e0: 5ef4 9abb fce5 c43c 9d91 123b 0c04 dbbb
000000f0: 9212 b73b 327a 013c fc26 093c 094f b1bc
00000100: a05e a4bb 3bcb 8dbc 1ec4 6f3c 7947 2bbc
00000110: cae0 5ebc e5e1 cd3c f647 743c 3cb0 57bc
00000120: b205 58ba 084a 38b9 e3f1 efbb 8372 8f3b
00000130: 689c c43b 6041 993b 76a3 2f3c 3e4f a8b9
00000140: ef79 f43c 2ad9 6f3b 5e6e 52bc 512c 85bc
00000150: bc25 0bbc 4efc 0c3c 5525 b73c 1c74 bcbc
00000160: 811b 803c 9197 4c3c bfef 8d3a 8c48 51bc
00000170: a42d 35bc f625 873a 0abc 3a3c 931b b1bb
00000180: a254 02bc c28f a83b abac 263b 341f fdbb
00000190: 0cc8 2dbc 4351 ae3c a847 fe3b 2226 ddbc
000001a0: 9921 f6bb 65ad 423c 5681 35bc 29f5 24bc
000001b0: 8f6d b63b 9c51 ab3a 0995 473c cb71 3ebc
000001c0: 9c31 3b3c a27e adbc 77ad 6c3c ac40 98bc
000001d0: 92aa 4239 50d6 6bbc 251e 34bb 34ef 89bb
000001e0: edea 20bc cb5a 1a3c 2b9e dc3a 402d 3cbc
000001f0: 95bc 0c3c 4a02 883c 3b21 673c 61ee 64bc

network_body._body_endoder.seq_layers.2.weight f4 [128, 128]
0.086407274 -0.13892639 0.012168007 -0.08078789 -0.016561415 0.073429406 0.106130734 0.010807418
-0.18461956 -0.049497366 -0.14219937 -0.14375614 -0.077081285 0.030745886 -0.07711482 0.027155094
-0.06515488 0.030767076 0.00072792463 0.20171565 -0.12607165 0.16090113 0.016152408 -0.043796126
0.08795032 -0.016479768 -0.025231367 0.00874908 0.1803458 -0.003026198 -0.011252258 0.038728587
-0.054978546 -0.040793788 0.039240487 0.07350901 -0.038111854 0.16577722 0.069136664 -0.048138324
-0.012650269 0.054832485 0.048782617 -0.059832204 -0.18252128 0.15342598 -0.0033002144 -0.06884339
0.056670923 0.09677071 -0.05329936 -0.028768785 0.011847266 0.12738004 -0.08108851 0.0148612335
0.026667442 -0.13180673 0.11545472 -0.098838866 0.058384 0.21327479 -0.13465074 -0.027030958
-0.024831245 -0.14800082 -0.002672732 -0.12012112 -0.026803235 -0.07312837 0.18938842 0.014454242
0.015127331 -0.010824748 -0.056746412 0.11467083 -0.0021717728 -0.0018412618 -0.14007811 0.012802929
0.040935922 -0.07978233 0.014138001 -0.037241537 0.064385995 0.060532562 0.212524 0.20549427
-0.08412472 -0.018236792 -0.013195111 -0.030158894 -0.024694744 0.049217954 0.14653946 0.056693215
-0.075606495 -0.03471611 -0.027131129 0.15440722 0.01752502 0.032045834 -0.14558598 0.029677508
-0.022015555 0.16113412 0.069199 -0.04540897 0.05121734 -0.066816784 -0.026136877 0.010539081
0.008118065 -0.021144789 0.05218723 -0.08890501 0.0872766 0.061684 -0.16552997 -0.17532727
0.093408085 0.041523833 -0.114942074 0.1408137 -0.08195224 -0.08228797 -0.06703568 0.017490935
0.03792676 -0.17702149 0.1610307 0.07925414 0.025267674 0.110910684 -0.035855997 0.018638851
-0.0014680309 -0.0896403 -0.086954065 0.21470115 0.056427706 0.15847754 0.0327803 -0.08251321
-0.28939766 0.06107904 -0.0096852165 -0.074556485 -0.016940424 0.011736494 0.053509187 0.010485668
-0.07533052 0.1343704 -0.067403324 0.04508867 0.076145835 -0.027088583 0.12464714 -0.035386883
-0.050264277 -0.13751443 0.0024479816 0.19021387 -0.06475141 0.0017370455 0.022113442 -0.035150554
0.030117523 -0.084569275 0.0049071475 0.019765122 0.09656356 -0.03518912 -0.043968733 0.013066063
0.1119132 0.1308466 -0.07677257 -0.017318599 -0.056218814 -0.0016708458 -0.057694107 -0.06412492
0.064979896 -0.063963264 0.08330335 -0.109080546 0.12444943 -0.019791897 -0.014321473 -0.04545727
-0.04031932 0.027590917 -0.011112107 -0.019594524 -0.08900468 0.09285653 0.09380008 -0.036325615
0.09060974 0.06637297 -0.015403985 0.04785779 -0.1803155 -0.12487769 -0.07339411 -0.18394719
-0.037471622 -0.07222504 0.09507714 -0.06970873 0.09764443 -0.11936332 -0.01815163 0.043919016
0.0059248814 -0.20034541 0.01592962 0.0364748 0.07013395 -0.048995994 -0.1647862 0.13610162
-0.030042678 0.122464806 0.05627944 0.021073433 -0.086685374 -0.04616139 0.060424324 -0.048879087
0.083218165 0.03379075 0.034501605 -0.020791357 -0.14376348 -0.15539384 -0.1687107 -0.05700836
0.15325843 -0.01569564 -0.05613347 -0.06269932 -0.0595584 0.0048851618 -0.07129535 -0.08762022
0.11227467 -0.008741834 0.15115717 -0.08828511 -0.106349856 -0.12016207 -0.096480735 -0.03248942
00000000: 4cf6 b03d b842 0ebe 525c 473c 1f74 a5bd
00000010: ceab 87bc 2862 963d 125b d93d 9911 313c
00000020: e90c 3dbe c0bd 4abd b69c 11be cf34 13be
00000030: cbdc 9dbd ccde fb3c 60ee 9dbd 5c74 de3c
00000040: ec6f 85bd 3c0b fc3c 32d2 3e3a 8c8e 4e3e
00000050: ed18 01be 44c3 243e 0e52 843c 9163 33bd
00000060: 4c1f b43d 9400 87bc 03b2 cebc 4d58 0f3c
00000070: 92ac 383e 2d53 46bb 645b 38bc dea1 1e3d
00000080: 2f31 61bd 6317 27bd a2ba 203d e48b 963d
00000090: 2d1b 1cbd 81c1 293e 8697 8d3d b12c 45bd
000000a0: 1343 4fbc 0798 603d 48d0 473d 9d12 75bd
000000b0: dce6 3abe b31b 1d3e 6948 58bb c3fd 8cbd
000000c0: c51f 683d b92f c63d 6e50 5abd 84ac ebbc
000000d0: 091b 423c ea6f 023e bc11 a6bd 887c 733c
000000e0: ae75 da3c 58f8 06be 8673 ec3d 086c cabd
000000f0: 1024 6f3d b564 5a3e e2e1 09be 0770 ddbc
00000100: e56a cbbc 878d 17be 0129 2fbb 1002 f6bd
00000110: 7592 dbbc 54c4 95bd 0aef 413e 7cd1 6c3c
00000120: a0d8 773c 495a 31bc ed6e 68bd 8ad8 ea3d
00000130: 4d54 0ebb 7e56 f1ba a370 0fbe 60c3 513c
00000140: 6dac 273d eb64 a3bd 13a3 673c 958a 18bd
00000150: cedc 833d fef0 773d e49f 593e 176d 523e
00000160: 9549 acbd 5365 95bc 4f30 58bc c90f f7bc
00000170: a24c cabc c498 493d 710e 163e 2537 683d
00000180: 94d7 9abd 7b32 0ebd 1a42 debc ed1c 1e3e
00000190: a190 8f3c 7e42 033d 7e14 15be 3f1e f33c
000001a0: f759 b4bc 5800 253e 35b8 8d3d c2fe 39bd
000001b0: 46c9 513d 3dd7 88bd 011d d6bc 1cac 2c3c
000001c0: a201 053c d637 adbc 47c2 553d d413 b6bd
000001d0: 13be b23d 5da8 7c3d b080 29be fe88 33be
000001e0: bd4c bf3d e514 2a3d c066 ebbd 7731 103e
000001f0: 93d6 a7bd 9886 a8bd 014a 89bd 2649 8f3c
00000200: 1759 1b3d 1f45 35be 3be5 243e ff4f a23d
00000210: 27fe ce3c 2425 e33d bddd 12bd 81b0 983c
00000220: f16a c0ba 5595 b7bd f914 b2bd 9eda 5b3e
00000230: bd20 673d f047 223e a344 063d b0fc a8bd
00000240: ee2b 94be 042e 7a3d beae 1ebc 12b1 98bd
00000250: a5c6 8abc 6c4a 403c 732c 5b3d 14cc 2b3c
00000260: e346 9abd 6598 093e c10a 8abd e6ae 383d
00000270: 59f2 9b3d e0e8 ddbc 0047 ff3d d6f1 10bd
00000280: eae1 4dbd 95d0 0cbe 516e 203b 6dc7 423e
00000290: 639c 84bd 93ad e33a 4027 b53c 07fa 0fbd
000002a0: 06b9 f63c a832 adbd 23cc a03b 77ea a13c
000002b0: 1ec3 c53d 7722 10bd 8f18 34bd 0a13 563c
000002c0: bf32 e53d a7fc 053e f03a 9dbd bcdf 8dbc
000002d0: b345 66bd 4800 dbba a850 6cbd ed53 83bd
000002e0: 2e14 853d 2cff 82bd f29a aa3d 9f65 dfbd
000002f0: 58df fe3d 9e22 a2bc 9da4 6abc 6731 3abd
00000300: df25 25bd 5906 e23c 8e0f 36bc b284 a0bc
00000310: 1648 b6bd 902b be3d 421a c03d 2bca 14bd
00000320: 9991 b93d 8dee 873d ff60 7cbc 8806 443d
00000330: a0a4 38be e0bf ffbd a74f 96bd a75c 3cbe
00000340: d87b 19bd b9ea 93bd ceb7 c23d 73c3 8ebd
00000350: cef9 c73d c274 f4bd bab2 94bc 6de4 333d
00000360: 8225 c23b 5927 4dbe d67e 823c 9a66 153d
00000370: 63a2 8f3d 06b0 48bd b7bd 28be 395e 0b3e
00000380: 101c f6bc d4ce fa3d 4585 663d 31a2 ac3c
00000390: 1a88 b1bd ba13 3dbd 7f7f 773d 7035 48bd
000003a0: 496e aa3d 2b68 0a3d 8e51 0d3d a352 aabc
000003b0: bc36 13be 901f 1fbe 7fc2 2cbe 9981 69bd
000003c0: c7ef 1c3e 2594 80bc 36ec 65bd 8068 80bd
000003d0: 82f3 73bd b513 a03b 4c03 92bd 3b72 b3bd
000003e0: 43f0 e53d e939 0fbc f2c8 1a3e d3ce b4bd
000003f0: f4cd d9bd 8817 f6bd b197 c5bd a013 05bd

network_body._body_endoder.seq_layers.2.bias f4 [128]
0.009337064 0.0048314817 0.0046012388 -0.0031143993 -0.0015091412 0.008022977 -0.00665892 0.008443887
0.00235165 -0.0018957448 -0.0018279145 -0.0049995915 -0.0035169176 -0.005564361 -0.0033635586 -0.00086618913
-0.0025929878 -0.006815956 -0.0023425033 0.02107412 -0.0034831888 -0.0038023314 -0.0014136257 -0.0055052754
0.009158523 0.0034488088 0.020333467 0.0004690795 0.002086678 -0.0032918777 -0.0064880326 0.009582307
-0.0028282034 0.0034870785 -0.0044008247 0.007684108 -0.009520496 -0.0023194365 -0.013347251 -0.009002136
0.009291631 -0.00656579 0.029407429 -0.003574846 -0.008593146 0.015938021 0.011506671 -0.002311665
0.0135067655 -0.009617731 0.008742507 -0.00837155 -0.009332653 -0.00458739 0.009026517 0.018659499
0.014580268 0.009669378 -0.005204469 0.030686295 0.0013352797 -0.0057604774 0.013367296 0.003599647
0.028198637 -0.0068966737 0.005070263 -0.00020188658 0.009892754 0.0022956617 -0.002851245 -0.0044065113
-0.0035685392 -0.0071142223 -0.008414673 0.016690949 0.0057288553 -0.0021580285 0.007835548 0.0037413375
-0.001670295 -0.004007741 0.005703709 -0.00018480321 0.008670834 -0.0043512117 -0.0055949725 0.0072392537
-0.009297012 -0.009803687 -0.011346311 0.0017250024 0.0027357044 0.0069171763 -0.0031317181 0.004169545
0.006007013 -0.02086304 0.0028531111 0.0012819738 -0.007818083 0.0042249616 -0.0053401925 -0.006439194
0.00076125265 0.003062356 0.0077056093 0.00029609687 -0.003539198 -0.001134367 -0.003921701 -0.010934455
-0.005470883 0.017521653 -0.00030849062 -0.009316877 -0.005964952 0.002468227 0.0010555108 0.0005088495
-0.008359753 -0.0026046995 0.00844671 -0.0050247936 0.0014344861 0.00844647 0.007786463 -0.002676179
00000000: 7cfa 183c 6851 9e3b fdc5 963b f31a 4cbb
00000010: 60ce c5ba ce72 033c 1233 dabb 3b58 0a3c
00000020: 241e 1a3b a47a f8ba a296 efba 9dd3 a3bb
00000030: 167c 66bb 3e55 b6bb 266f 5cbb f810 63ba
00000040: 1eef 29bb 6258 dfbb af84 19bb a2a3 ac3c
00000050: 3646 64bb 8930 79bb 6849 b9ba 9965 b4bb
00000060: a10d 163c 6905 623b 5f92 a63c c9ee f539
00000070: a6c0 083b 8bbc 57bb 9099 d4bb 1cff 1c3c
00000080: 6159 39bb 7887 643b cb34 90bb f8ca fb3b
00000090: dbfb 1bbc b001 18bb 6eae 5abc b27d 13bc
000000a0: ed3b 183c d725 d7bb d9e7 f03c f747 6abb
000000b0: 44ca 0cbc 7490 823c 7a86 3c3c 4e7f 17bb
000000c0: 7b4b 5d3c b093 1dbc bb3c 0f3c d328 09bc
000000d0: fce7 18bc d151 96bb f5e3 133c cedb 983c
000000e0: 14e2 6e3c 506c 1e3c 408a aabb d361 fb3c
000000f0: 8d04 af3a 63c2 bcbb 8102 5b3c 0ee8 6b3b
00000100: d400 e73c 7efd e1bb 7324 a63b 84b1 53b9
00000110: 3815 223c d072 163b f4db 3abb 7f64 90bb
00000120: 27de 69bb 6c1e e9bb b2dd 09bc 75bb 883c
00000130: 1fb9 bb3b b66d 0dbb ac60 003c 3a31 753b
00000140: cded daba 5e53 83bb 2ee6 ba3b bcc7 41b9
00000150: 1d10 0e3c 9c94 8ebb 0856 b7bb 4337 ed3b
00000160: 7f52 18bc a59f 20bc e1e5 39bc 7a19 e23a
00000170: 8149 333b 7ba9 e23b 833d 4dbb aea0 883b
00000180: 7ad6 c43b f7e8 aabc 43fb 3a3b e707 a83a
00000190: 6b17 00bc 8c71 8a3b c8fc aebb e0ff d2bb
000001a0: cd8e 473a cfb1 483b 567f fc3b 733d 9b39
000001b0: e4f1 67bb 0aaf 94ba 9d81 80bb 6e26 33bc
000001c0: 1845 b3bb 9289 8f3c e9bc a1b9 d1a5 18bc
000001d0: a575 c3bb fac1 213b 1159 8a3a 5064 053a
000001e0: 58f7 08bc 9bb3 2abb 1264 0a3c 06a7 a4bb
000001f0: 5e05 bc3a 1063 0a3c 9625 ff3b d562 2fbb

action_model._continuous_distribution.log_sigma f4 [1, 2]
-0.011185475 -0.00974288
00000000: 4843 37bc 9aa0 1fbc

action_model._continuous_distribution.mu.weight f4 [2, 128]
-0.011757792 0.028394353 -0.0020952707 -0.011411396 0.011592036 -0.04823326 0.011833142 -0.01769805
-0.015143779 -0.017973939 -0.011921929 0.04103423 0.0020735213 0.021219162 0.00015885831 -0.02177846
-0.0011803112 0.012096641 0.033268794 -0.017828893 0.019277854 -0.013431981 -6.318884e-05 -0.0035182426
-0.028253501 0.014144113 -0.061181337 0.0051407837 -0.0017723809 0.03525061 0.013585942 0.021655561
0.0074388175 -0.02722996 -0.013517906 -0.03747616 0.009605398 0.017398512 0.009732875 0.007985292
-0.010117172 0.0017851217 -0.06996803 -0.0012327401 -0.0066057253 -0.030453885 -0.021966023 -0.018922247
0.014103609 -0.00044135927 0.0019641407 0.0032063713 0.0017407773 -0.009429162 -0.016055796 -0.054923195
-0.02257063 0.01016571 0.0127498945 -0.028167663 0.024240702 0.00672825 0.032367166 -0.0150985
-0.028562885 0.022754533 -0.017227469 -0.012054709 0.014747204 -0.003385625 0.012277371 -0.006384793
0.041299786 0.014863177 0.027186608 -0.03788601 -0.011274612 0.022960532 -0.0128401965 -0.024665356
-0.005245388 0.026843565 -0.011531136 0.020782592 -0.015121643 -0.012685362 0.009574981 -0.024108626
0.0073204706 -0.0034590783 0.012500005 -0.027475646 0.058872968 -0.045265947 0.008139245 -0.032367602
-0.0018178434 0.0028159202 -0.012161258 0.0058949813 0.028673423 0.02863954 0.017283265 -0.00018912328
-0.010249624 -0.0019328225 0.0074927555 -0.030092714 0.007652063 -0.009918604 -0.0006539664 0.0086162295
0.0020221013 -0.061323117 -0.020322528 0.000100572724 0.022913352 0.004937661 -0.010680453 -0.006850651
0.0229128 0.025037678 0.0014502361 0.00048426806 0.029761856 -0.027985087 -0.030440219 0.004114657
0.0011316049 -0.0018994787 0.020343976 -0.01765904 0.02177823 0.03803832 0.016859505 0.016100483
-0.0013716264 -0.03892383 0.007924839 0.022568442 -0.0105347475 0.021493776 -0.019978613 0.0279815
-0.02303774 0.010607395 5.9724334e-06 -0.0489611 0.016755657 0.002623288 0.0106893405 -0.013174635
-0.01767014 0.05974941 0.0010445974 -0.029894112 -0.028167529 0.015264643 -0.004262933 -0.06453091
0.02395972 0.019382348 -0.020663997 0.015088171 -0.0054394896 -0.014050033 -0.0014474154 0.00093726785
0.023377528 -0.012540211 0.0051572276 0.00026814803 0.008062259 0.011837352 -0.03756021 0.006860713
0.037231166 -0.004625089 0.06655578 -0.012735158 -0.011761302 0.0009567366 -0.0019458516 -0.003258276
0.038227152 0.058543127 0.030632732 0.03503551 0.03685102 0.014968882 0.029277056 0.0150115965
0.041537784 -0.010567286 0.024859497 0.015351345 -0.048038453 -0.01623365 -0.0066535627 -0.0052387198
-0.014693522 -0.012050922 -0.026230758 -0.017256163 -0.027987173 0.015617962 0.009903938 -0.008753587
0.016274288 -0.010654797 0.016026547 -0.020803558 -0.030490896 -0.009803571 0.010071455 0.00906224
-0.015498351 0.0039965133 0.015471085 -0.0312554 0.0066587105 0.004742034 0.010242231 -0.019479305
-0.028956031 0.0029625802 0.006360423 0.022420943 -0.0065066437 0.024819098 -0.032030493 -0.0249477
0.00070449116 0.014131019 0.0112386225 -0.017287565 0.0146281095 -0.015060993 -0.0028422188 -0.0024015382
-0.02593352 -0.009800956 0.0048204586 -0.0015236442 0.0038787785 0.03628848 -0.012303717 0.010933308
0.023671364 0.026918711 -0.0340991 0.007241736 0.01522128 0.033700857 0.003387589 0.008508029
00000000: c1a3 40bc 469b e83c cf50 09bb ddf6 3abc
00000010: 86ec 3d3c 3d90 45bd cbdf 413c 80fb 90bc
00000020: 9d1d 78bc 153e 93bc 3254 43bc 8213 283d
00000030: eae3 073b cfd3 ad3c 3493 2639 be68 b2bc
00000040: acb4 9aba fd30 463c dc44 083d e60d 92bc
00000050: 97ec 9d3c d011 5cbc 4084 84b8 5192 66bb
00000060: e373 e7bc b6bc 673c 4899 7abd 0574 a83b
00000070: 3c4f e8ba f262 103d 9297 5e3c 0167 b13c
00000080: 53c1 f33b 5d11 dfbc 357a 5dbc 9a80 19bd
00000090: f65f 1d3c 5387 8e3c a376 1f3c bed4 023c
000000a0: 7fc2 25bc bffa e93a 664b 8fbd e593 a1ba
000000b0: d774 d8bb 6d7a f9bc 17f2 b3bc d402 9bbc
000000c0: d312 673c 3d66 e7b9 d0b8 003b fc21 523b
000000d0: cb2a e43a c67c 1abc 7287 83bc 25f7 60bd
000000e0: 0be6 b8bc 148e 263c efe4 503c dfbf e6bc
000000f0: 7094 c63c a778 dc3b 6f93 043d b35f 77bc
00000100: b6fc e9bc b767 ba3c 9f20 8dbc 1d81 45bc
00000110: 429e 713c 5de1 5dbb 0727 493c 8737 d1bb
00000120: f729 293d af84 733c 73b6 de3c 5c2e 1bbd
00000130: 26b9 38bc ba17 bc3c b05f 52bc 000f cabc
00000140: 81e1 abbb 09e7 db3c 17ed 3cbc 4140 aa3c
00000150: c5c0 77bc 44d6 4fbc 62e0 1c3c 747f c5bc
00000160: 8fe0 ef3b b4b1 62bb d2cc 4c3c 9b14 e1bc
00000170: c824 713d c968 39bd 785a 053c e493 04bd
00000180: b444 eeba 4d8b 383b 0340 47bc b02a c13b
00000190: 87e4 ea3c 789d ea3c a295 8d3c 654f 46b9
000001a0: 0aee 27bc c356 fdba ca85 f53b ff84 f6bc
000001b0: 28be fa3b a481 22bc f16e 2bba 162b 0d3c
000001c0: 3b85 043b f32d 7bbd 6e7b a6bc 92ea d238
000001d0: c8b4 bb3c 1acc a13b 11fd 2ebc 6d7b e0bb
000001e0: a0b3 bb3c d11b cd3c d915 be3a 5ce5 fd39
000001f0: 23cf f33c fb40 e5bc c45d f9bc 3fd4 863b
00000200: 5c52 943a eef7 f8ba 69a8 a63c b1a9 90bc
00000210: 4268 b23c 12ce 1b3d f21c 8a3c 29e5 833c
00000220: 25c8 b3ba 986e 1fbd 2fd7 013c 74e1 b83c
00000230: ef99 2cbc b713 b03c 30aa a3bc 7539 e53c
00000240: a4b9 bcbc a4ca 2d3c d066 c836 6f8b 48bd
00000250: 2943 893c 78eb 2b3b 5822 2f3c 6dda 57bc
00000260: f8c0 90bc ccbb 743d dfea 883a 7fe4 f4bc
00000270: 97bf e6bc 8e18 7a3c 13b0 8bbb c828 84bd
00000280: 2d47 c43c bbc7 9e3c 8b47 a9bc 6034 773c
00000290: bf3d b2bb 1c32 66bc 34b7 bdba fbb2 753a
000002a0: 3b82 bf3c 7575 4dbc f6fd a83b 3896 8c39
000002b0: 9117 043c 74f1 413c bcd8 19bd d5cf e03b
000002c0: b57f 183d 0f8e 97bb 664e 883d 20a7 50bc
000002d0: 7ab2 40bc 82cd 7a3a f20b ffba cd88 55bb
000002e0: 1394 1c3d ebca 6f3d 7ff1 fa3c 6581 0f3d
000002f0: 18f1 163d 0b40 753c 70d6 ef3c 33f3 753c
00000300: 8623 2a3d 6922 2dbc 25a6 cb3c 3584 7b3c
00000310: f8c3 44bd 6efc 84bc 2106 dabb 91a9 abbb
00000320: 19bd 70bc 3b71 45bc e3e1 d6bc cc5c 8dbc
00000330: 5b45 e5bc 7be2 7f3c 2044 223c 346b 0fbc
00000340: a851 853c 7591 2ebc 1b4a 833c 396c aabc
00000350: 0bc8 f9bc 289f 20bc be02 253c ca79 143c
00000360: ccec 7dbc 2ff5 823b 6f7a 7d3c aa05 00bd
00000370: 5031 da3b 1063 9b3b 08cf 273c 1093 9fbc
00000380: 3335 edbc d927 423b 186b d03b 20ac b73c
00000390: af35 d5bb 6c51 cb3c 6832 03bd 1e5f ccbc
000003a0: 9aad 383a ca85 673c 3322 383c a79e 8dbc
000003b0: bdaa 6f3c 62c2 76bc 8544 3abb 2063 1dbb
000003c0: 8972 d4bc 3094 20bc f0f4 9d3b 04b5 c7ba
000003d0: 1b33 7e3b 3ba3 143d 8895 49bc 9e21 333c
000003e0: 73ea c13c a184 dc3c 7fab 0bbd 164c ed3b
000003f0: ad62 793c e909 0a3d 5002 5e3b 4365 0b3c

action_model._continuous_distribution.mu.bias f4 [2]
-0.0057655633 0.0015564159
00000000: 0ded bcbb a700 cc3a

exp_avg f4 [128, 8]
7.787173e-05 4.98155e-05 -5.2735504e-05 -1.5799193e-05 1.7770826e-05 -7.0877395e-05 4.0150354e-07 1.9568191e-05
-3.0034204e-05 -2.5646872e-05 -7.9860576e-05 -6.9213474e-06 2.7172324e-05 -4.5670244e-05 1.1381281e-05 8.6487935e-06
4.3126518e-05 0.00011746661 0.0001040966 -8.810301e-05 -9.1055044e-05 4.708927e-05 -0.00013608973 2.5453744e-05
2.4484892e-05 5.4571134e-05 6.5840206e-05 -5.672472e-07 2.217972e-05 2.045376e-05 0.000108282846 -6.1409933e-06
-4.104749e-05 -0.00015039669 -3.5295616e-05 0.00012601606 0.000111106645 -4.564144e-05 -0.0001836285 0.000113374444
-9.5622956e-05 -0.00028778662 0.0001468805 -1.1081103e-05 0.00015046139 0.0001255798 3.7029662e-05 -2.8314102e-05
1.4180763e-05 7.1164344e-05 -0.000116605224 -2.1713031e-05 -5.3285148e-05 -3.7228394e-05 4.2056825e-05 -3.8285594e-05
-0.00013522504 -0.00031338714 -0.00020096081 7.642748e-05 1.2364521e-05 -0.00012093048 -0.0003221556 4.7006954e-05
0.000116406925 0.0001811776 -2.7852257e-05 9.900586e-05 4.6882913e-05 -4.155008e-05 0.00010410061 -1.1454371e-06
2.5082889e-05 -3.883743e-05 0.00015183658 -9.910836e-06 -6.27135e-05 0.00020489864 -0.00016236764 1.2527941e-05
2.7771044e-05 -2.0920845e-05 -7.3869264e-06 -1.4923628e-05 2.003068e-05 6.099164e-06 2.2112823e-05 -1.0168567e-05
-0.000102946455 -0.00027791352 5.910058e-05 -0.00023578489 0.00015372434 3.1002663e-05 -0.00010802625 1.5099474e-05
-0.00027143254 -0.00030957264 -0.00019415238 -0.00013634964 8.8875124e-05 -8.6236934e-05 0.00013067445 0.00013123732
-5.882581e-05 4.134457e-05 -0.00010041119 -4.043093e-05 0.00012185097 -8.0571284e-05 -2.4816582e-05 -3.5176672e-05
7.6212425e-05 0.00011706833 0.000110977846 0.00011471827 -2.8484972e-05 5.0288527e-05 -3.7940972e-05 6.4406435e-05
-5.321906e-05 -5.517024e-05 -7.410727e-05 -4.282573e-05 8.337132e-05 -9.711835e-05 7.170093e-05 7.418214e-05
8.5097854e-05 0.000325526 0.00013945691 0.00013321349 -0.000121568984 0.00018082633 2.9774272e-05 1.5529213e-05
-5.6658093e-05 -0.00013256176 0.00013410674 5.429333e-05 6.107737e-05 0.00016012366 9.363941e-05 3.527437e-05
6.727735e-05 0.00020811561 -0.00026683597 0.0001138213 -0.00025914353 -9.0956746e-05 0.00013030753 -0.00010423847
0.00018131148 0.00033630035 -0.0001366385 8.3096056e-05 -0.00025537197 -0.00011764603 0.000102711085 -7.383876e-05
-0.00013827012 -0.00022890492 -2.4848181e-05 -4.832735e-05 -4.3397857e-05 -3.1705098e-05 -0.0004000849 6.085395e-06
-3.517016e-05 -2.195652e-05 -1.8288494e-05 -2.9414552e-05 9.267637e-05 -4.9731774e-05 3.6249457e-05 3.8702394e-05
0.00013679512 0.0002131316 8.714519e-05 1.0359081e-05 2.98562e-06 -4.2198764e-05 2.1697357e-05 -1.5290183e-05
-7.8480196e-05 -9.8255936e-05 -3.3225556e-06 -4.78209e-05 0.00011875397 9.941445e-06 -0.00018860835 9.376202e-05
4.6111407e-05 0.00019960615 -5.317055e-06 -3.2561697e-05 0.00029609262 -6.479404e-05 0.0002606859 0.000120443605
9.583785e-05 9.480267e-05 0.00018018112 -2.5844859e-06 5.26881e-05 0.00020297841 -8.5739e-05 8.022869e-05
-0.000106799715 -0.00017643729 0.00041270783 -0.0001304731 -4.687126e-05 0.00026660235 -0.00047119422 2.4213658e-05
8.734315e-05 0.00013209779 -0.00028250736 0.00023111848 -0.0001638147 -0.0001259224 6.158083e-05 -6.189398e-05
1.2041196e-05 -4.9087743e-05 2.1125792e-05 -5.9428305e-05 -2.7822914e-05 9.350792e-06 -0.0001247556 -5.539399e-05
8.44469e-05 7.0829374e-06 5.584529e-05 -1.3689027e-05 -8.545183e-05 3.8050952e-05 -4.9415772e-05 -4.5539928e-05
1.3813033e-05 0.000108686305 -0.00015825943 4.6575966e-05 -4.6806086e-05 -0.000111331356 4.321286e-05 -8.005819e-05
-2.8948503e-05 -3.2623877e-05 -6.145904e-05 -6.0995462e-05 0.0001000607 -3.3310807e-05 0.00018048991 -0.0001063591
00000000: 114f a338 fcf0 5038 5130 5db8 8288 84b7
00000010: 8f12 9537 03a4 94b8 3a8e d734 5f26 a437
00000020: f6f1 fbb7 3d24 d7b7 d27a a7b8 ec3d e8b6
00000030: 1ff0 e337 0d8e 3fb8 3bf2 3e37 491a 1137
00000040: bfe2 3438 6858 f638 704e da38 f1c3 b8b8
00000050: cef4 beb8 b881 4538 4fb3 0eb9 8085 d537
00000060: e864 cd37 4fe3 6438 b113 8a38 ee44 18b5
00000070: 960e ba37 1d94 ab37 e915 e338 bb0e ceb6
00000080: 682a 2cb8 ceb3 1db9 610a 14b8 2e23 0439
00000090: ed01 e938 1f6f 3fb8 668c 40b9 71c3 ed38
000000a0: 2f89 c8b8 11e2 96b9 ef03 1a39 fae8 39b7
000000b0: 2cc5 1d39 12ae 0339 4c50 1b38 1284 edb7
000000c0: eae9 6d37 113e 9538 f489 f4b8 6124 b6b7
000000d0: 7e7e 5fb8 af25 1cb8 2c66 3038 d894 20b8
000000e0: 32cb 0db9 1c4e a4b9 02b9 52b9 b147 a038
000000f0: 3771 4f37 0f9c fdb8 fee6 a8b9 5529 4538
00000100: 7e1f f438 7efa 3d39 44a4 e9b7 5ea1 cf38
00000110: 25a4 4438 0f46 2eb8 9750 da38 ebbc 99b5
00000120: 1869 d237 5fe5 22b8 5236 1f39 b746 26b7
00000130: 0e85 83b8 0fda 5639 3b41 2ab9 192f 5237
00000140: ddf5 e837 2c7f afb7 37dd f7b6 7f60 7ab7
00000150: 8f07 a837 6ba7 cc36 ed7e b937 aa99 2ab7
00000160: f5e4 d7b8 ecb4 91b9 c4e2 7738 063d 77b9
00000170: 1031 2139 db08 0238 278c e2b8 bf53 7d37
00000180: 0f4f 8eb9 234e a2b9 6295 4bb9 14f9 0eb9
00000190: 7862 ba38 1ada b4b8 a805 0939 c09c 0939
000001a0: bcbb 76b8 6569 2d38 d993 d2b8 6194 29b8
000001b0: 3e8a ff38 61f8 a8b8 342d d0b7 aa8a 13b8
000001c0: 3cd4 9f38 9582 f538 c7bc e838 e794 f038
000001d0: 03f3 eeb7 e5ec 5238 cf22 1fb8 f111 8738
000001e0: 8837 5fb8 9866 67b8 0a6a 9bb8 c79f 33b8
000001f0: a3d7 ae38 04ac cbb8 255e 9638 3c92 9b38
00000200: 9076 b238 5cab aa39 2e3b 1239 39af 0b39
00000210: daf2 feb8 339c 3d39 c3c3 f937 bb44 8237
00000220: 2aa4 6db8 4700 0bb9 019f 0c39 05b9 6338
00000230: aa16 8038 dee6 2739 4760 c438 91f3 1338
00000240: 4117 8d38 9c39 5a39 1ee6 8bb9 58b3 ee38
00000250: a8dd 87b9 08c0 beb8 29a3 0839 9a9a dab8
00000260: 6e1e 3e39 7851 b039 9e46 0fb9 db43 ae38
00000270: 72e3 85b9 bbb8 f6b8 9866 d738 e2d9 9ab8
00000280: 9afc 10b9 3206 70b9 1071 d0b7 19b3 4ab8
00000290: 1806 36b8 17fb 04b8 7cc2 d1b9 2531 cc36
000002a0: ac83 13b8 452f b8b7 3e6a 99b7 45bf f6b7
000002b0: 3f5b c238 1697 50b8 8f0a 1838 6154 2238
000002c0: a970 0f39 147c 5f39 b8c1 b638 eacb 2d37
000002d0: 905c 4836 94fe 30b8 b802 b637 6b43 80b7
000002e0: bc95 a4b8 c10e ceb8 12f9 5eb6 4d93 48b8
000002f0: 8d0b f938 2eca 2637 2bc5 45b9 1aa2 c438
00000300: bf67 4138 5e4d 5139 2869 b2b6 db92 08b8
00000310: e13c 9b39 09e2 87b8 abac 8839 ab96 fc38
00000320: 8efc c838 ccd0 c638 00ef 3c39 2171 2db6
00000330: 6bfd 5c38 9ad6 5439 c6ce b3b8 7340 a838
00000340: a9f9 dfb8 0602 39b9 b560 d839 9bcf 08b9
00000350: a297 44b8 c3c6 8b39 9e0a f7b9 6f1e cb37
00000360: ff2b b738 bb83 0a39 7f1d 94b9 6558 7239
00000370: acc5 2bb9 090a 04b9 f524 8138 14cd 81b8
00000380: 8b04 4a37 90e3 4db8 4b37 b137 a842 79b8
00000390: 4165 e9b7 59e1 1c37 d4d0 02b9 d856 68b8
000003a0: 1619 b138 f8a9 ed36 6c3b 6a38 eca9 65b7
000003b0: 9a34 b3b8 e698 1f38 c843 4fb8 2002 3fb8
000003c0: 86be 6737 84ee e338 71f2 25b9 905a 4338
000003d0: a751 44b8 917a e9b8 753f 3538 eae4 a7b8
000003e0: 70d6 f2b7 9fd5 08b8 92e3 80b8 61d5 7fb8
000003f0: aed7 d138 35b7 0bb8 e441 3d39 1b0d dfb8

exp_avg_sq f4 [128, 8]
3.2422978e-08 4.2827914e-08 5.8973658e-08 5.665037e-08 5.02138e-08 3.6880063e-08 9.291989e-08 4.6325503e-08
3.4926742e-08 4.0055635e-08 4.3914923e-08 5.364738e-08 6.1058586e-08 3.33459e-08 6.30503e-08 4.7000235e-08
1.4887961e-07 1.5026824e-07 1.771673e-07 1.9863033e-07 2.536943e-07 1.3004359e-07 1.5803234e-07 1.8212386e-07
3.2842753e-08 4.994466e-08 4.8978666e-08 8.7058766e-08 5.2867144e-08 3.2661355e-08 8.1826656e-08 5.1455547e-08
1.1053365e-07 1.9082911e-07 1.3117825e-07 2.3113644e-07 1.7414798e-07 7.333325e-08 2.1812723e-07 1.5513265e-07
1.4698017e-07 1.8232586e-07 2.6158355e-07 2.550859e-07 2.9156087e-07 2.1197383e-07 2.2354672e-07 1.9501624e-07
1.0866208e-07 1.6613915e-07 1.7167683e-07 4.715494e-07 1.565142e-07 5.0435155e-08 2.2368293e-07 5.6146696e-08
3.3591667e-07 3.4412628e-07 4.657574e-07 5.982759e-07 5.482946e-07 2.5197218e-07 1.1303996e-06 3.5705384e-07
1.1729855e-07 1.0539582e-07 2.4354432e-07 1.6417037e-07 1.8022502e-07 1.6900516e-07 2.3448719e-07 9.953297e-08
3.142909e-07 4.1652646e-07 5.2019254e-07 3.05026e-07 5.8407306e-07 3.8825473e-07 3.7819447e-07 4.552111e-07
4.8016535e-08 6.398024e-08 6.6737385e-08 1.10093e-07 6.835819e-08 4.6672618e-08 1.16029874e-07 7.08944e-08
6.2709375e-08 6.888477e-08 9.139955e-08 2.496502e-07 1.3723748e-07 3.7967165e-08 1.6964012e-07 5.713383e-08
3.572939e-07 3.328489e-07 4.4337025e-07 6.949789e-07 5.134439e-07 1.4429129e-07 2.3377065e-06 2.1219924e-07
7.6647154e-08 9.256579e-08 1.0790627e-07 2.0478669e-07 1.0549945e-07 4.8109314e-08 3.2279166e-07 6.1078616e-08
1.4863303e-07 1.949841e-07 2.6503074e-07 2.0065117e-07 2.9284317e-07 1.6915828e-07 2.5003473e-07 2.4607778e-07
4.2972747e-08 4.6070117e-08 5.8634633e-08 9.148731e-08 7.304834e-08 3.223338e-08 1.8296839e-07 5.0149627e-08
2.29018e-07 2.1323731e-07 2.9275094e-07 4.5957503e-07 3.5508197e-07 1.8464063e-07 3.6532865e-07 2.2354229e-07
7.6634876e-08 1.2454716e-07 1.3613791e-07 1.5403978e-07 1.4653122e-07 8.345951e-08 1.2266406e-07 1.0725974e-07
2.6042036e-07 4.207439e-07 4.5059426e-07 4.652817e-07 4.7566118e-07 2.3048808e-07 4.3751453e-07 3.493757e-07
2.5429537e-07 2.9865254e-07 4.0913363e-07 4.526999e-07 4.383653e-07 2.2734464e-07 3.482958e-07 3.3540132e-07
3.226437e-07 3.0782954e-07 4.116974e-07 5.761543e-07 4.906219e-07 2.0274594e-07 1.1090141e-06 2.8846267e-07
6.24736e-08 7.8243026e-08 8.380179e-08 1.3510466e-07 1.1766721e-07 6.4271575e-08 1.2477965e-07 1.1271467e-07
1.1961468e-07 1.166264e-07 1.3958436e-07 1.64631e-07 2.0222708e-07 7.358784e-08 5.1698737e-07 1.1884119e-07
2.0443196e-07 2.0617901e-07 2.8938456e-07 2.30424e-07 4.0405962e-07 2.1284897e-07 3.3725277e-07 2.8171658e-07
1.5333326e-07 1.994965e-07 1.809791e-07 2.4546063e-07 2.5131584e-07 1.38954e-07 3.4402026e-07 2.3008832e-07
6.348102e-08 6.9357476e-08 9.0220155e-08 1.4092323e-07 8.402317e-08 6.8324375e-08 2.076675e-07 6.08083e-08
3.6455708e-07 3.5423773e-07 5.2797986e-07 1.1877255e-06 5.939603e-07 1.5669215e-07 8.206166e-07 3.18925e-07
1.0463488e-07 1.2557265e-07 1.5283419e-07 3.0790582e-07 1.6784371e-07 7.2929495e-08 1.4947244e-07 1.16754734e-07
3.1553284e-08 2.893771e-08 3.4576647e-08 5.0415995e-08 3.694921e-08 2.4556018e-08 9.472636e-08 2.182625e-08
6.262418e-08 6.1841114e-08 1.01790846e-07 1.409964e-07 8.527636e-08 5.8181417e-08 2.64458e-07 5.3257335e-08
1.2000886e-07 1.657391e-07 2.155842e-07 2.9335578e-07 2.0728113e-07 1.1765483e-07 1.7911555e-07 1.4559801e-07
1.6230071e-07 1.7591007e-07 2.1273533e-07 4.3693794e-07 2.2529767e-07 1.0045197e-07 2.6499143e-07 8.9897696e-08
00000000: 7141 0b33 caf1 3733 394a 7d33 be4f 7333
00000010: a8aa 5733 0f66 1e33 408b c733 6ef7 4633
00000020: 5c02 1633 a309 2c33 f89c 3c33 eb69 6633
00000030: 501f 8333 3438 0f33 4566 8733 4edd 4933
00000040: b7db 1f34 6b59 2134 603b 3e34 1747 5534
00000050: 7b33 8834 1ca2 0b34 99af 2934 d38d 4334
00000060: fd0e 0d33 bc82 5633 9d5c 5233 10f5 ba33
00000070: 0a10 6333 8a47 0c33 aeb8 af33 f9ff 5c33
00000080: 845e ed33 b5e6 4c34 01da 0c34 4d2e 7834
00000090: 6ffd 3a34 617b 9d33 5b36 6a34 8a92 2634
000000a0: 9ad1 1d34 5ac5 4334 c56f 8c34 bdf2 8834
000000b0: d287 9c34 ec9a 6334 0e08 7034 a865 5134
000000c0: 9c59 e933 fb63 3234 2b56 3834 4229 fd34
000000d0: 4c0e 2834 0a9e 5833 7f2d 7034 f225 7133
000000e0: 0958 b434 5bc0 b834 360d fa34 3599 2035
000000f0: 852e 1335 cb46 8734 3cb8 9735 1bb1 bf34
00000100: 8fe5 fb33 f755 e233 7ac0 8234 cf46 3034
00000110: e083 4134 c977 3534 59c7 7b34 d4be d533
00000120: d0bb a834 f69e df34 5ca3 0b35 74c2 a334
00000130: 32c9 1c35 5371 d034 a70a cb34 bd63 f434
00000140: bd3a 4e33 8265 8933 4451 8f33 446c ec33
00000150: 50cc 9233 1675 4833 192c f933 9c3e 9833
00000160: d8aa 8633 ceed 9333 6f47 c433 aa07 8634
00000170: 8d5b 1334 5711 2333 5226 3634 4f63 7533
00000180: 1ad2 bf34 68b2 b234 5808 ee34 968e 3a35
00000190: 99d3 0935 7dee 1a34 7ee1 1c36 e2d8 6334
000001a0: 3899 a433 95c8 c633 19ba e733 56e3 5b34
000001b0: f08e e233 c0a0 4e33 264c ad34 532a 8333
000001c0: f097 1f34 d25c 5134 8c49 8e34 9372 5734
000001d0: 0f38 9d34 e0a1 3534 833c 8634 ac1c 8434
000001e0: 0991 3833 a1de 4533 76d5 7b33 ae77 c433
000001f0: c0de 9c33 fa70 0a33 f875 4434 1964 5733
00000200: fde7 7534 3af6 6434 622b 9d34 83bb f634
00000210: 18a2 be34 a141 4634 6322 c434 d606 7034
00000220: 7892 a433 43bb 0534 4e2d 1234 2266 2534
00000230: 3256 1d34 5a3a b333 a4b5 0334 aa56 e633
00000240: e7cf 8b34 9ae2 e134 34e9 f134 d4cb f934
00000250: 605e ff34 157c 7734 8ae3 ea34 d591 bb34
00000260: 1786 8834 7e56 a034 e6a6 db34 9a0a f334
00000270: 7858 eb34 051c 7434 69fd ba34 3511 b434
00000280: d037 ad34 c543 a534 4307 dd34 06a9 1a35
00000290: 48b3 0335 61b2 5934 6fd9 9435 02de 9a34
000002a0: 3a29 8633 8f06 a833 85f6 b333 4911 1134
000002b0: 3cb0 fc33 ac05 8a33 2bfb 0534 8c0d f233
000002c0: 6f6f 0034 0b74 fa33 a8e0 1534 6dc5 3034
000002d0: c223 5934 5807 9e33 1ac7 0a35 a335 ff33
000002e0: d481 5b34 0e62 5d34 b65c 9b34 786a 7734
000002f0: 88ed d834 7b8b 6434 ab0f b534 d53e 9734
00000300: eda3 2434 2e35 5634 2853 4234 dac7 8334
00000310: 96ec 8634 6233 1534 c9b1 b834 320e 7734
00000320: 0f53 8833 adf1 9433 0ebf c133 af50 1734
00000330: 3a70 b433 b9b9 9233 35fb 5e34 b795 8233
00000340: 58b8 c334 102e be34 80ba 0d35 f069 9f35
00000350: a470 1f35 363f 2834 5848 5c35 b838 ab34
00000360: a2b3 e033 26d5 0634 be1a 2434 414e a534
00000370: 8738 3434 6a9d 9c33 ac7e 2034 98ba fa33
00000380: 3485 0733 b292 f832 6d81 1433 f988 5833
00000390: 16b2 1e33 41ef d232 5e6c cb33 6e7c bb32
000003a0: 027c 8633 83cd 8433 1c98 da33 cc64 1734
000003b0: 2d21 b733 25e3 7933 d5fa 8d34 0fbd 6433
000003c0: c9db 0034 04f6 3134 557b 6734 837e 9d34
000003d0: 0191 5e34 6da9 fc33 e852 4034 ad55 1c34
000003e0: e144 2e34 cbe1 3c34 3e6c 6434 4b94 ea34
000003f0: 5ae9 7134 0eb8 d733 2544 8e34 c80d c133

exp_avg f4 [128]
1.9891386e-05 1.324841e-06 -0.00020337167 4.1079533e-05 2.180925e-05 -9.337331e-05 -2.9869145e-06 5.747027e-05
0.0001826571 -0.00025432536 6.0963583e-05 -0.00016447165 -0.00019702261 6.820773e-05 8.3693005e-05 -2.6219983e-05
-4.9693972e-05 -3.9662285e-05 0.000106353415 -4.4525143e-05 4.311786e-05 -8.515021e-06 0.0001319316 -0.00010501556
-7.697227e-06 -0.00015742889 -0.00016313115 5.4618005e-05 -1.109168e-05 -6.072501e-05 0.00016317601 0.00019417924
0.00025242986 -2.3881868e-05 -0.00010078053 -6.3559366e-07 -4.514217e-05 3.9499737e-05 -5.3473348e-05 6.9244736e-05
-1.1659996e-06 -0.0001076621 1.3876234e-05 -5.3065385e-05 -1.5162954e-05 2.0573554e-05 -0.00011054695 -2.8439166e-05
5.9924776e-05 0.00010592245 6.0985127e-05 4.849176e-05 -3.629796e-05 6.5582695e-05 -3.2846572e-05 5.0281786e-05
-9.523439e-05 -8.9949266e-05 0.00016058271 2.9547187e-05 2.2132255e-05 0.00016849382 -0.00010673328 9.362245e-05
4.2400527e-05 0.00027004618 -0.00021736804 7.369508e-05 -0.00013068567 -6.743483e-05 -0.00011071125 -2.4066683e-05
6.803461e-05 4.154923e-05 -0.00011684853 5.1680978e-05 -1.7712931e-05 -6.9189846e-05 4.5374563e-05 -4.2288244e-05
-2.950027e-05 -7.533111e-05 6.6382534e-05 7.178426e-05 0.000104763276 8.977297e-05 -8.683055e-05 9.186172e-05
0.00019885105 -7.108365e-05 6.370216e-05 -3.8730504e-05 0.00017350359 -8.569012e-05 -0.00010864827 4.7773403e-05
2.9443936e-05 -2.07375e-05 1.27723e-05 -3.6030135e-05 -8.983169e-05 -0.00026145903 0.00011067909 4.5399804e-05
-5.81692e-05 -3.4701374e-05 -3.053986e-06 6.3290777e-06 -0.00029657868 -0.00011672509 -0.00014419279 -0.00010557559
9.9341014e-05 0.00010047447 -5.297098e-05 -7.8186866e-05 -0.00010928048 9.510216e-05 9.9949895e-05 0.00029938456
-8.948068e-06 5.9034633e-06 8.9759276e-05 1.1813977e-05 3.141975e-05 -0.00018374204 -6.385187e-05 0.00023201236
00000000: 6ddc a637 31d1 b135 2b40 55b9 d04c 2c38
00000010: 02f3 b637 6ad1 c3b8 cd72 48b6 3c0c 7138
00000020: a487 3f39 f956 85b9 26b3 7f38 0676 2cb9
00000030: db97 4eb9 bf0a 8f38 5784 af38 fcf2 dbb7
00000040: 7f6e 50b8 0e5b 26b8 0e0a df38 82c0 3ab8
00000050: 73d9 3438 bddb 0eb7 1f57 0a39 cd3b dcb8
00000060: 5723 01b7 7f13 25b9 2f0e 2bb9 a315 6538
00000070: 6716 3ab7 fcb2 7eb8 3a1a 2b39 989c 4b39
00000080: 9058 8439 ec55 c8b7 235a d3b8 aa9d 2ab5
00000090: 0957 3db8 85ac 2538 9248 60b8 7c37 9138
000000a0: 717f 9cb5 a6c8 e1b8 f9cd 6837 8692 5eb8
000000b0: 6464 7eb7 5f95 ac37 71d5 e7b8 a590 eeb7
000000c0: bd57 7b38 af22 de38 48ca 7f38 a163 4b38
000000d0: a33e 18b8 7189 8938 bdc4 09b8 a8e5 5238
000000e0: 93b8 c7b8 25a3 bcb8 1862 2839 1adc f737
000000f0: a8a8 b937 b7ad 3039 fed5 dfb8 2c57 c438
00000100: 38d7 3138 fc94 8d39 4aed 63b9 bf8c 9a38
00000110: ab08 09b9 cc6b 8db8 a62d e8b8 cfe2 c9b7
00000120: cead 8e38 2545 2e38 940c f5b8 07c4 5838
00000130: 3b96 94b7 041a 91b8 9150 3e38 a85e 31b8
00000140: 5977 f7b7 15fb 9db8 da36 8b38 e28a 9638
00000150: 5bb4 db38 7f44 bc38 cc18 b6b8 e3a5 c038
00000160: ac82 5039 be12 95b8 d697 8538 9072 22b8
00000170: 84ee 3539 88b4 b3b8 19da e3b8 4d60 4838
00000180: 5ffe f637 71f5 adb7 9c48 5637 101f 17b8
00000190: 0564 bcb8 7014 89b9 621c e838 ab6b 3e38
000001a0: b4fa 73b8 518c 11b8 14f3 4cb6 5d5e d436
000001b0: 1e7e 9bb9 4eca f4b8 7532 17b9 7768 ddb8
000001c0: 4d55 d038 d2b5 d238 282d 5eb8 41f8 a3b8
000001d0: 832d e5b8 9571 c738 319c d138 b7f6 9c39
000001e0: a91f 16b7 5d16 c636 253d bc38 a534 4637
000001f0: b3c8 0338 e1aa 40b9 36e8 85b8 5848 7339

exp_avg_sq f4 [128]
6.281227e-08 3.8144545e-08 2.4640272e-07 4.0682515e-08 1.7528396e-07 3.35291e-07 3.0203836e-07 4.6344832e-07
1.912097e-07 5.8933193e-07 4.270857e-08 1.5760125e-07 6.6570715e-07 1.3382885e-07 2.570382e-07 5.22842e-08
3.0017665e-07 1.9146185e-07 7.3831364e-07 5.2020465e-07 4.0119158e-07 5.637312e-08 1.8752242e-07 2.5412953e-07
2.3062854e-07 8.1256005e-08 8.6228084e-07 2.6016508e-07 4.6871307e-08 6.284967e-08 3.3323894e-07 3.7592326e-07
6.861531e-07 5.0951392e-08 4.7606073e-07 8.3105014e-08 8.587175e-08 2.1469313e-07 1.8868248e-07 2.4259057e-07
5.6286126e-07 4.934277e-07 1.8874385e-07 2.319572e-06 1.3171324e-07 2.1466222e-07 1.7523227e-07 4.2526864e-07
1.4371101e-06 5.225221e-07 6.129089e-08 1.8944729e-07 6.901136e-08 1.3831033e-07 5.3778246e-07 7.4908016e-08
7.5944136e-08 1.869884e-07 5.2137756e-07 4.4261093e-08 1.216825e-07 1.396849e-07 4.2477774e-07 9.285537e-08
1.0209702e-07 4.81114e-07 9.4995335e-07 1.2780956e-07 2.7307854e-07 1.974055e-06 2.4098605e-07 3.1900785e-07
3.387534e-07 7.4655595e-08 4.379301e-07 6.723889e-08 5.060301e-07 3.7389051e-07 3.0107626e-07 5.4515194e-08
1.7602773e-07 2.1414823e-07 5.456582e-08 7.77231e-08 7.922236e-08 6.4308637e-07 4.14166e-07 2.0705295e-07
1.4613865e-06 8.3773426e-07 8.154157e-08 2.4582837e-07 1.7064923e-07 3.7447856e-07 2.3670994e-07 1.4287767e-07
2.81712e-07 4.33166e-08 1.288915e-06 1.5916977e-07 8.91827e-08 1.585271e-06 3.9550665e-07 7.084015e-08
1.784468e-07 1.30433e-07 9.9459534e-08 1.6639389e-07 6.1504124e-07 1.17278724e-07 2.263466e-07 4.7233482e-07
7.081264e-07 1.5454336e-07 2.3568512e-07 4.1117357e-07 2.8465664e-07 5.087906e-07 8.511612e-08 5.191579e-07
1.6877581e-07 7.8193443e-07 2.521697e-07 5.242457e-07 2.8504653e-07 3.1302548e-07 1.9968624e-07 4.1312416e-07
00000000: 69e3 8633 5fd4 2333 5549 8434 e6ba 2e33
00000010: b035 3c34 0b02 b434 d627 a234 dacf f834
00000020: 524f 4d34 9532 1e35 926e 3733 1a39 2934
00000030: 0cb3 3235 98b2 0f34 10ff 8934 168f 6033
00000040: f727 a134 a294 4d34 8730 4635 31a4 0b35
00000050: 5a63 d734 e71e 7233 c559 4934 4c6f 8834
00000060: b1a2 7734 f67e ae33 7d77 6735 d1ac 8b34
00000070: 8c4f 4933 f9f7 8633 03e8 b234 80d2 c934
00000080: 1530 3835 a6d5 5a33 4a95 ff34 7777 b233
00000090: 7e68 b833 6686 6634 a598 4a34 653d 8234
000000a0: 8817 1735 1874 0435 84a9 4a34 f2a9 1b36
000000b0: 0f6d 0d34 e77d 6634 7b27 3c34 7a50 e434
000000c0: bae2 c035 7243 0c35 069f 8333 e06a 4b34
000000d0: 6533 9433 7482 1434 215c 1035 1edd a033
000000e0: bb16 a333 fbc6 4834 cbf4 0b35 9619 3e33
000000f0: d5a7 0234 4bfc 1534 020d e434 c867 c733
00000100: 6e40 db33 e725 0135 4c00 7f35 063c 0934
00000110: a19b 9234 027a 0436 df60 8134 1b44 ab34
00000120: eadd b534 5952 a033 a81c eb34 f864 9033
00000130: 20d6 0735 1fbb c834 9ba3 a134 1724 6a33
00000140: 2202 3d34 9ef0 6534 c15b 6a33 bae8 a633
00000150: f420 aa33 8fa0 2c35 8b5a de34 4852 5e34
00000160: dc24 c435 a9e0 6035 f41b af33 65fa 8334
00000170: b43b 3734 f10b c934 552a 7e34 ea69 1934
00000180: 343e 9734 1b0b 3a33 c8fe ac35 41e8 2a34
00000190: b584 bf33 7fc5 d435 0556 d434 c920 9833
000001a0: 159b 3f34 260d 0c34 7596 d533 01aa 3234
000001b0: 5019 2535 a9da fb33 ae09 7334 3495 fd34
000001c0: 1316 3e35 8ef0 2534 a210 7d34 44bf dc34
000001d0: e9d2 9834 d393 0835 15c9 b633 425c 0b35
000001e0: be38 3534 20e6 5135 f161 8734 e4b9 0c35
000001f0: 7f08 9934 e50d a834 5669 5634 5acb dd34
