results/Hallway_test_/Hallway/Hallway-86182.onnx (onnx, 328989 bytes, 9 tensors)

network_body._body_endoder.seq_layers.0.weight f4 [128, 108]
-0.008853892 0.0054102293 0.054999497 0.079168245 -0.1873977 -0.23539 -0.22439419 -0.0765873
-0.025235964 0.021498956 0.12455294 0.040105946 -0.022555321 0.16932914 -0.025526265 -0.07399439
-0.14991336 -0.13524699 0.029038018 0.069568686 -0.13888496 0.10432067 0.0046345503 0.0958462
-0.122207545 -0.031193148 0.09229574 -0.16432928 0.1640954 0.036697663 0.062184993 0.08855556
0.03750881 0.041471865 0.18052472 0.27329013 0.070630744 0.12263813 -0.10626722 -0.05160796
-0.069859736 0.06443283 -0.025542807 0.016909735 0.061588336 0.06614927 -0.06737065 0.0041075256
-0.116726466 0.0049391715 0.118218906 -0.1745902 -0.15789731 0.04943215 -0.066594854 -0.035640854
-0.03553999 -0.058900345 0.023543652 -0.042354908 -0.1468908 0.03070494 0.025628632 -0.10356899
-0.053889778 -0.020339629 0.06021458 0.116611525 0.06225417 -0.021672249 0.1401375 -0.003982386
0.056761887 0.078276135 -0.16462761 -0.119670704 -0.15362883 0.021656876 0.09188503 0.059432052
-0.034316238 0.12218438 -0.12391124 0.057459448 0.012029784 -0.09032843 0.008506391 -0.07920261
0.018453661 -0.02394874 -0.01574686 -0.027985942 0.14490132 -0.22400905 0.04744172 0.0104387505
0.18568735 0.0639373 0.055692192 -0.14272045 0.21040705 -0.12155384 -0.033170745 -0.09228711
0.07792797 -0.05172618 0.105907306 0.02761217 0.046256386 0.0083702 -0.028765466 0.03316837
-0.08769689 0.003985646 0.027418012 0.09576452 0.09301523 0.18532225 0.09178114 0.029008474
0.042487048 0.07098561 0.08446506 -0.19369255 -0.049321245 0.087931424 0.015937729 -0.0642569
0.039693534 0.18088491 -0.1167127 -0.00087327394 -0.014334193 -0.095005974 -0.0095727965 -0.086129464
-0.13265851 0.017034618 -0.018308744 -0.09665685 0.010473468 0.029970234 -0.06511758 -0.06691979
-0.18462928 0.10183345 0.024087712 -0.16546178 -0.15567957 0.026431357 0.033282112 0.0004869794
-0.062765144 0.042291384 -0.06375853 -0.037103448 -0.012831344 -0.0025047755 0.17053393 0.07812815
-0.09528026 -0.09388399 0.019613694 -0.1360318 0.07287085 -0.0075560776 0.031717367 0.0037941632
-0.1042817 0.053206693 -0.12981784 0.022667695 -0.045152396 0.109677576 -0.18294027 -0.053521708
-0.076165505 -0.08221712 0.11710004 0.07287092 0.27250537 -0.10243232 -0.16659158 0.006346789
0.12655967 0.17916733 0.07703461 0.02725608 0.006123866 -0.06791595 -0.012438243 -0.010897325
-0.037386697 -0.18068495 -0.07256371 0.087483265 -0.10354913 0.21805932 0.05645699 -0.024215786
-0.023244984 0.014784011 0.16778004 -0.042791616 -0.11176014 -0.080790795 -0.12023847 -0.058575004
0.08916952 -0.02037208 0.12975603 -0.026769867 0.12460557 0.028223798 0.13595273 -0.16488941
0.15017287 -0.08447788 0.065158226 -0.025864001 -0.05891749 0.13768496 -0.10128083 0.070404515
-0.17953438 0.11132642 -0.092257515 0.08580214 0.077328354 -0.06370951 -0.08329848 0.10226252
0.08607788 -0.021375194 0.06199545 0.024811134 0.0370106 -0.12791334 -0.018386085 0.113974884
-0.037489153 -0.0128458 0.013863952 0.15451506 0.02689472 -0.044330187 0.06267449 0.15502855
0.10241399 -0.11839889 -0.14354631 0.021949798 0.14760359 0.055099927 -0.10452172 0.102940165
00000000: ea0f 11bc 4b48 b13b 2747 613d f622 a23d
00000010: 2fe5 3fbe 130a 71be 97c7 65be cdd9 9cbd
00000020: a7bb cebc 941e b03c 9d15 ff3d 2246 243d
00000030: f0c5 b8bc 9e64 2d3e 751c d1bc 5f8a 97bd
00000040: e382 19be 307e 0abe 23e1 ed3c 077a 8e3d
00000050: dc37 0ebe 13a6 d53d 6ddd 973b 034b c43d
00000060: f347 fabd c688 ffbc 8d05 bd3d ef45 28be
00000070: a008 283e 4a50 163d b1b5 7e3d 9e5c b53d
00000080: d7a2 193d 67de 293d 79db 383e afec 8b3e
00000090: daa6 903d b329 fb3d a1a2 d9bd de62 53bd
000000a0: 9f12 8fbd 5cf5 833d 263f d1bc 4986 8a3c
000000b0: 0d44 7c3d 4579 873d a0f9 89bd 6c98 863b
000000c0: 490e efbd c6d8 a13b c11c f23d c6c7 32be
000000d0: d5af 21be 5e79 4a3d e262 88bd 25fc 11bd
000000e0: 6192 11bd 7d41 71bd 9ede c03c 577c 2dbd
000000f0: 8b6a 16be ed88 fb3c 23f3 d13c fb1b d4bd
00000100: 87bb 5cbd 4b9f a6bc 90a3 763d 06d2 ee3d
00000110: 3bfe 7e3d 008a b1bc 3480 0f3e ad7e 82bb
00000120: 277f 683d 3d4f a03d 2494 28be ea15 f5bd
00000130: e050 1dbe c369 b13c 382e bc3d 066f 733d
00000140: 2f8f 0cbd ce3b fa3d 2dc5 fdbd 995a 6b3d
00000150: 9218 453c 1dfe b8bd 645e 0b3c fa34 a2bd
00000160: 222c 973c 2630 c4bc 8fff 80bc c642 e5bc
00000170: 0361 143e a162 65be 4052 423d 4b07 2b3c
00000180: d324 3e3e 8ff1 823d 7f1d 643d 4f25 12be
00000190: f274 573e 38f1 f8bd 0cde 07bd 0601 bdbd
000001a0: b398 9f3d d5de 53bd eee5 d83d eb32 e23c
000001b0: 5677 3d3d 2a23 093c 8ea5 ebbc 8fdb 073d
000001c0: 6d9a b3bd 069a 823b bd9b e03c 3020 c43d
000001d0: c57e be3d 1ec5 3d3e c0f7 bb3d 2ea3 ed3c
000001e0: e606 2e3d e760 913d 04fc ac3d 5757 46be
000001f0: 1305 4abd 6415 b43d d78f 823c 1f99 83bd
00000200: b095 223d e539 393e 1107 efbd 6cec 64ba
00000210: f7d9 6abc 7e92 c2bd 38d7 1cbc a564 b0bd
00000220: a2d7 07be 2f8c 8b3c 38fc 95bc 07f4 c5bd
00000230: e998 2b3c 2384 f53c 5e5c 85bd 3e0d 89bd
00000240: 750f 3dbe 0e8e d03d 9853 c53c d06e 29be
00000250: 776a 1fbe 9386 d83c d352 083d 4551 ff39
00000260: 038b 80bd bb39 2d3d d593 82bd c9f9 17bd
00000270: 8f3a 52bc 2927 24bb 72a0 2e3e a701 a03d
00000280: 4c22 c3bd 4046 c0bd e6ac a03c ec4b 0bbe
00000290: 503d 953d f998 f7bb 12ea 013d 7fa7 783b
000002a0: a591 d5bd 43ef 593d f8ee 04be 9ab1 b93c
000002b0: b8f1 38bd a39e e03d b254 3bbe 9439 5bbd
000002c0: a9fc 9bbd 7361 a8bd 25d2 ef3d 593d 953d
000002d0: d385 8b3e 09c8 d1bd fc96 2abe baf8 cf3b
000002e0: dc98 013e a477 373e 52c4 9d3d 2548 df3c
000002f0: b6aa c83b 8517 8bbd c6c9 4bbc b28a 32bc
00000300: cb22 19bd 7a05 39be 489c 94bd 6d2a b33d
00000310: 9111 d4bd f14a 5f3e 723f 673d 2f60 c6bc
00000320: 446c bebc a338 723c 88ce 2b3e 4346 2fbd
00000330: 80e2 e4bd a575 a5bd 963f f6bd 58ec 6fbd
00000340: 829e b63d 59e3 a6bc c4de 043e 7b4c dbbc
00000350: 3531 ff3d 9835 e73c 3137 0b3e c5d8 28be
00000360: ebc6 193e bd02 adbd ad71 853d bee0 d3bc
00000370: 7753 71bd 49fd 0c3e 536c cfbd 3e30 903d
00000380: dcd7 37be 1bff e33d 82f1 bcbd 08b9 af3d
00000390: 545e 9e3d 227a 82bd 6598 aabd 036f d13d
000003a0: 9949 b03d 081b afbc f1ee 7d3d b840 cb3c
000003b0: 6d98 173d b7fb 02be 6a9e 96bc aa6b e93d
000003c0: 3a8e 19bd 3177 52bc a125 633c 3239 1e3e
000003d0: 5152 dc3c 9293 35bd 7c5b 803d cebf 1e3e
000003e0: 6dbe d13d 1e7b f2bd cefd 12be 10d0 b33c
000003f0: 6525 173e 76b0 613d 7c0f d6bd 4bd2 d23d

network_body._body_endoder.seq_layers.0.bias f4 [128]
0.03352292 -0.0016361397 0.015020629 0.025525885 -0.008956226 0.015921904 0.0023630508 0.0020297864
0.005904376 0.002691333 0.010562651 -0.018934352 0.0083652325 0.0040286225 0.010012426 0.01621907
-0.011027638 -0.0030969211 -0.0063493825 -0.024844304 -0.00014911054 0.0034188754 -0.0006311494 0.014919644
0.015021861 -0.0041210987 -0.00010901343 -0.011342486 0.010742223 -0.01190364 0.022749107 -0.016497655
-0.019695144 -0.018114468 0.0003859878 0.0081816865 0.008780022 -0.0069079353 0.011072055 -0.011995712
-0.002031021 -0.015705582 -0.010087475 -0.004998048 -0.012598232 0.0021778708 -0.004081897 -0.0009831225
0.0012445039 -0.0022336463 -0.012675151 -0.008634168 0.012397445 0.0026430627 -0.011952768 -0.01512284
-0.006001275 -0.008236616 -0.001966605 0.01232249 -0.015407859 0.03555961 0.0029133847 0.0052926093
0.008741397 0.008408942 0.017527837 0.004733776 -0.016444014 -0.005053264 0.013572233 0.005667311
-0.001487076 -0.00355672 0.0031603975 0.0009434547 0.010569378 -0.0029859478 -0.0029740832 -0.006986361
-0.013170411 -0.0008234407 -0.012940121 -0.01319286 -0.0144773945 0.0046193954 0.012249058 0.02184579
0.02195351 0.010930329 -0.0059956894 0.010200693 0.022888334 0.0076087085 0.0027094637 -0.0009966019
0.03289731 -0.022842195 -0.0015335357 0.01436313 0.032402996 0.007543339 0.017146975 -0.017780049
0.023821434 -0.009844015 0.015917502 0.020523738 -0.0049426113 -0.011418921 0.016107026 -0.0050971704
0.0015359528 0.018049523 -0.014281802 0.006694828 0.010511757 0.010185025 -0.0049376544 -0.001982964
0.008695107 0.010927673 0.00258085 0.013268366 -0.010512735 -0.005237182 0.00551858 0.012211886
00000000: 544f 093d bd73 d6ba 1619 763c a91b d13c
00000010: 22bd 12bc a76e 823c 6add 1a3b 2a06 053b
00000020: 7f79 c13b 1361 303b f80e 2d3c 371c 9bbc
00000030: 540e 093c 8902 843b 290b 243c dbdd 843c
00000040: 44ad 34bc b7f5 4abb 7b0e d0bb 4886 cbbc
00000050: 8e5a 1cb9 360f 603b b873 25ba 8671 743c
00000060: 401e 763c 480a 87bb 249e e4b8 d6d5 39bc
00000070: 2600 303c 7c07 43bc 565c ba3c 1726 87bc
00000080: b657 a1bc cb64 94bc 685e ca39 7b0c 063c
00000090: 15da 0f3c f65b e2bb 9167 353c aa89 44bc
000000a0: e11a 05bb fea8 80bc f045 25bc aac6 a3bb
000000b0: d168 4ebc 9cba 0e3b 6fc1 85bb 1edc 80ba
000000c0: 9f1e a33a 5e62 12bb 70ab 4fbc 5376 0dbc
000000d0: a71e 4b3c 3c37 2d3b 8bd5 43bc cac5 77bc
000000e0: 58a6 c4bb dff2 06bc 28e2 00bb 45e4 493c
000000f0: 3f71 7cbc f4a6 113d 7cee 3e3b a06d ad3b
00000100: 1438 0f3c a9c5 093c 8a96 8f3c cb1d 9b3b
00000110: 99b5 86bc da95 a5bb 125e 5e3c dab4 b93b
00000120: fee9 c2ba dc17 69bb ac1e 4f3b 2c52 773a
00000130: 2f2b 2d3c e4af 43bb d6e8 42bb d8ed e4bb
00000140: b5c8 57bc 2cdc 57ba cd02 54bc de26 58bc
00000150: 9832 6dbc 4c5e 973b 46b0 483c f1f5 b23c
00000160: d9d7 b33c 1f15 333c 7d77 c4bb cf20 273c
00000170: 5180 bb3c 7952 f93b 4291 313b 69a0 82ba
00000180: 54bf 063d 8e1f bbbc eb00 c9ba 5553 6b3c
00000190: 01b9 043d 1d2e f73b d077 8c3c 77a7 91bc
000001a0: 2b25 c33c cb48 21bc 6c65 823c 6621 a83c
000001b0: a1f5 a1bb 6d16 3bbc e2f2 833c 2a06 a7bb
000001c0: 0652 c93a 98dc 933c 38fe 69bc 4a60 db3b
000001d0: 8139 2c3c 17df 263c 0ccc a1bb 9ef4 01bb
000001e0: ec75 0e3c fc09 333c 7a23 293b 9063 593c
000001f0: 9b3d 2cbc ab9c abbb 34d5 b43b 5d14 483c

network_body._body_endoder.seq_layers.2.weight f4 [128, 128]
0.0051096687 0.09963101 -0.097676925 -0.030077478 0.0959903 -0.04071369 -0.105491124 -0.1235869
0.16612525 0.057220276 0.02568624 -0.014622041 -0.026560303 0.10350228 0.06722728 0.20373917
0.15754302 -0.13887668 0.0048829345 -0.2661027 0.09497257 0.078747176 0.03975617 -0.04922351
0.040704224 -0.013734575 -0.07965715 0.06338608 -0.114591055 -0.11367598 0.07827969 0.033242617
0.09075721 -0.11229792 0.15152611 0.015686736 -0.066456534 0.023278587 0.014517705 -0.15133037
-0.060364015 -0.03504603 -0.17353432 -0.0018413619 0.11160206 0.0881232 0.07977926 -0.015769582
0.12177422 0.033169348 -0.03297031 0.0453858 0.0142507 0.0010309337 0.17622967 0.0828509
0.0105287945 -0.11959415 0.1530586 0.02726404 -0.020471357 -0.14550935 0.16504791 0.037001617
0.117100984 -0.03177629 0.11078065 -0.058242194 -0.013880574 0.11726384 0.02960975 0.011449631
-0.04520152 -0.073014 0.007741648 0.046688754 0.12816986 -0.15129197 0.01697641 0.07870253
-0.08238829 -0.026707549 0.011333853 -0.023262702 -0.07141166 0.017700285 -0.048343208 0.021592574
0.022029445 -0.09087924 -0.02487303 -0.07541183 -0.10161872 -0.061842874 -0.03997368 0.13081366
0.035093304 0.1268271 0.025523977 -0.037133187 0.024213482 0.13994072 0.07909608 -0.070789516
-0.09125909 -0.13486673 -0.027722277 0.0662856 -0.06851567 -0.03179643 -0.1112231 0.07609064
-0.054117784 0.095133126 -0.024419902 0.050378665 -0.03275429 -0.065062925 -0.06526708 -0.041456323
-0.035425697 -0.004609985 -0.020136403 0.021363504 0.038209025 0.11564493 0.04328204 0.04722056
-0.15957053 -0.04881044 -0.036537964 0.038211025 -0.033738773 -0.029381193 0.13808072 0.04468501
0.17261699 -0.14559491 -0.123058386 -0.13558052 -0.009328733 -0.1091818 0.13009498 -0.021238266
-0.074408665 0.08584489 -0.025859652 -0.15114556 0.021354888 -0.08142166 0.021572588 0.0028671268
-0.041121263 -0.019129694 -0.14117216 -0.014370305 -0.020884853 -0.047586072 -0.031038787 0.070160285
0.2664488 -0.17657965 0.01317522 -0.017261405 0.043540675 -0.051341772 -0.10972636 0.14899594
-0.059066284 -0.0337838 0.013147369 0.09545102 0.020610148 -0.03127667 -0.10191989 -0.05250749
0.0077704913 -0.016034685 0.0052751154 0.21377057 0.04629776 -0.044824235 0.023081401 -0.026459515
0.13992994 -0.009667225 -0.046835724 0.07233657 0.06179809 0.12138303 0.045859512 0.13933669
-0.016583625 0.22785595 -0.054551706 0.0085818125 -0.15823536 -0.07333365 -0.11189976 -0.036056153
0.081729375 -0.007486348 0.026837794 0.106805354 -0.1213334 0.10621112 0.06775493 -0.042138062
0.01680637 -0.08079555 -0.037740566 0.01629363 0.11206723 0.09923391 -0.25092643 0.042976324
-0.035583824 -0.03097544 -0.15997094 -0.0201057 0.1375697 -0.08923358 0.048739087 0.008837835
-0.042784337 -0.00036725774 -0.009213837 -0.07536858 0.15360023 0.15954655 -0.032948997 0.15320706
0.20420475 0.012741711 0.031146167 -0.023061052 0.022651596 0.18658742 0.090730995 -0.009122667
0.006656646 -0.08482075 -0.1523683 0.036523223 -0.12781078 -0.10376772 0.072053395 0.0107352855
0.14667818 -0.16355255 0.081039585 -0.03949574 0.035451263 -0.06483114 0.24136685 0.109871045
00000000: 026f a73b 580b cc3d d70a c8bd 0b65 f6bc
00000010: 9096 c43d 66c3 26bd bb0b d8bd 211b fdbd
00000020: bd1c 2a3e cf5f 6a3d f36b d23c 4991 6fbc
00000030: fe94 d9bc 01f9 d33d 75ae 893d 00a1 503e
00000040: f552 213e b035 0ebe 0601 a03b 9d3e 88be
00000050: fb80 c23d 3346 a13d 5ed7 223d 979e 49bd
00000060: 79b9 263d fc06 61bc 4a23 a3bd 90d0 813d
00000070: b7ae eabd f4ce e8bd 1a51 a03d 6929 083d
00000080: ebde b93d 74fc e5bd a929 1b3e 7881 803c
00000090: 5d1a 88bd bcb2 be3c abdb 6d3c 59f6 1abe
000000a0: 4240 77bd 6d8c 0fbd fbb2 31be da59 f1ba
000000b0: 9f8f e43d f079 b43d 4f63 a33d 362f 81bc
000000c0: c364 f93d 95dc 073d e00b 07bd 76e6 393d
000000d0: c57b 693c 6520 873a 8d75 343e bcad a93d
000000e0: f780 2c3c c7ed f4bd 65bb 1c3e d658 df3c
000000f0: 8cb3 a7bc 6700 15be 5202 293e 028f 173d
00000100: a4d2 ef3d db27 02bd f7e0 e23d 5e8f 6ebd
00000110: 596b 63bc 0628 f03d 2590 f23c 3c97 3b3c
00000120: 3b25 39bd 5d88 95bd a6ad fd3b b53c 3f3d
00000130: f63e 033e 48ec 1abe 1d12 8b3c cb2e a13d
00000140: 31bb a8bd cac9 dabc a0b1 393c 6c91 bebc
00000150: 4740 92bd 3000 913c 8703 46bd e9e2 b03c
00000160: 1877 b43c e51e babd 86c2 cbbc 8471 9abd
00000170: 7a1d d0bd f44e 7dbd 71bb 23bd 04f4 053e
00000180: ffbd 0f3d f7de 013e a917 d13c f818 18bd
00000190: 5a5b c63c 9f4c 0f3e 20fd a13d 18fa 90bd
000001a0: 0ce6 babd 811a 0abe d419 e3bc bfc0 873d
000001b0: f251 8cbd f93c 02bd f0c8 e3bd 69d5 9b3d
000001c0: 9caa 5dbd 28d5 c23d 3f0c c8bc dc59 4e3d
000001d0: 5d29 06bd b63f 85bd bfaa 85bd 1bce 29bd
000001e0: 891a 11bd 5b0f 97bb 19f5 a4bc 8402 af3c
000001f0: 1181 1c3d 40d7 ec3d 8248 313d 596a 413d
00000200: 7566 23be 75ed 47bd d5a8 15bd 2a83 1c3d
00000210: ab31 0abd d4b0 f0bc 0865 0d3e a107 373d
00000220: 82c2 303e d516 15be 0906 fcbd 9fd5 0abe
00000230: 8bd7 18bc b59a dfbd 9e37 053e dffb adbc
00000240: 9263 98bd 72cf af3d 9fd7 d3bc e7c5 1abe
00000250: 72f0 ae3c 66c0 a6bd ffb8 b03c 68e6 3b3b
00000260: c56e 28bd e0b5 9cbc 6f8f 10be 6e71 6bbc
00000270: b616 abbc 9de9 42bd 0e45 febc 32b0 8f3d
00000280: fa6b 883e 4cd1 34be e1dc 573c ca67 8dbc
00000290: b557 323d c04b 52bd 37b8 e0bd 6492 183e
000002a0: 7def 71bd e260 0abd 1068 573c d37b c33d
000002b0: 9dd6 a83c f71b 00bd 60bb d0bd 1812 57bd
000002c0: 9b9f fe3b 2c5b 83bc e0da ac3b ace6 5a3e
000002d0: b8a2 3d3d 9e99 37bd 3515 bd3c a0c1 d8bc
000002e0: cb49 0f3e 4863 1ebc d1d6 3fbd 3225 943d
000002f0: fe1f 7d3d ab97 f83d 2fd7 3b3d 47ae 0e3e
00000300: 62da 87bc 1253 693e 9c71 5fbd bb9a 0c3c
00000310: 7308 22be f42f 96bd b42b e5bd 9eaf 13bd
00000320: bb61 a73d 0a50 f5bb efda db3c c4bc da3d
00000330: a57d f8bd 3785 d93d 19c3 8a3d f698 2cbd
00000340: 83ad 893c 2378 a5bd da95 1abd 387a 853c
00000350: 8183 e53d 263b cb3d 6e79 80be f107 303d
00000360: 58c0 11bd 35c0 fdbc 6ccf 23be b5b4 a4bc
00000370: 12df 0c3e 18c0 b6bd a3a2 473d 91cc 103c
00000380: a13e 2fbd 808c c0b9 a2f5 16bc d85a 9abd
00000390: 6149 1d3e 2c60 233e 87f5 06bd 50e2 1c3e
000003a0: 0d1b 513e 9cc2 503c 3f26 ff3c 88ea bcbc
000003b0: d78f b93c c610 3f3e 2cd1 b93d 3d77 15bc
000003c0: fe1f da3b 80b6 adbd 7006 1cbe 6099 153d
000003d0: d4e0 02be 2c84 d4bd bb90 933d 0de3 2f3c
000003e0: ce32 163e 527a 27be 15f8 a53d 49c6 21bd
000003f0: 5835 113d 30c6 84bd df28 773e 1204 e13d

network_body._body_endoder.seq_layers.2.bias f4 [128]
0.0013449694 9.979871e-05 -0.0016933655 -0.009898855 0.01419545 0.0014119457 0.01740777 -0.005683629
-0.00831659 -0.0037622654 0.0129832495 0.006545575 -0.010530915 -0.015504554 -0.0029165964 0.009741802
0.0021376095 0.004847949 0.00053402834 0.0069269505 0.009270419 0.003277241 0.023196012 0.0013062571
-0.01654915 -0.004316585 -0.0071033887 -0.0014453139 -0.0034060178 0.0005540461 0.0043007783 -0.012371201
0.00863198 0.017451005 -0.012747403 0.0036264632 -0.007935611 0.0012264552 0.023202665 -0.0057727736
0.00865905 -0.006903606 0.008933563 0.017397674 0.0021390968 0.018695544 -0.009830086 0.010633464
0.013849591 0.013281075 -0.0045570084 0.0023588827 0.004793255 0.011222552 0.007859734 0.006366365
0.013487893 0.006108324 -0.0047009485 0.008453459 0.01071606 0.012892303 -0.0024782459 0.002363665
0.015824242 0.00031454462 0.008763972 -0.001639667 0.03176177 0.005026752 -0.0016612589 0.01620874
-0.015442963 0.022909112 0.0038684607 -0.013684849 0.015660493 0.017954804 0.0010916556 -0.0010497855
-0.0077990405 0.010285028 -0.0083851805 0.019572731 0.00029539497 0.013731486 -0.0011402016 0.030210424
0.0036817887 -0.0015250364 -0.010220476 -0.012258021 0.00960799 0.009818484 -0.00451403 -0.0033459095
-0.013572735 0.020336011 -0.022631591 0.000987094 0.012717511 0.011868879 -0.018744554 -0.01398028
0.005745707 -0.008631167 0.0076857973 -0.0015790324 0.020284852 -0.00839118 1.1831666e-05 0.0052938308
-0.0028807055 -0.008187255 -0.005269575 -0.002388729 0.0027415457 -0.0072080954 -0.004069164 0.02445566
0.017435871 0.0022116469 -0.002513664 -0.007473613 -0.0024241044 0.014604705 -0.0017040023 -0.0072026374
00000000: af49 b03a 064b d138 ebf3 ddba cf2e 22bc
00000010: 0894 683c 0911 b93a bd9a 8e3c bc3d babb
00000020: 4f42 08bc 5790 76bb b2b7 543c 437c d63b
00000030: dc89 2cbc d006 7ebc 5e24 3fbb 149c 1f3c
00000040: 2317 0c3b 8bdb 9e3b 09fe 0b3a 79fb e23b
00000050: f5e2 173c fbc6 563b 9005 be3c b736 ab3a
00000060: 1592 87bc 2472 8dbb 8bc3 e8bb b070 bdba
00000070: 7f37 5fbb 683d 113a 8bed 8c3b 94b0 4abc
00000080: 266d 0d3c 69f5 8e3c 7cda 50bc f5a9 6d3b
00000090: 5d04 02bc 02c1 a03a 8413 be3c 8929 bdbb
000000a0: b0de 0d3c a537 e2bb 145e 123c 9185 8e3c
000000b0: 1730 0c3b 6627 993c 5e0e 21bc fb37 2e3c
000000c0: 65e9 623c de98 593c f552 95bb 7c97 1a3b
000000d0: bd10 9d3b cbde 373c 1dc6 003c f19c d03b
000000e0: 53fc 5c3c 5628 c83b 6a0a 9abb 6080 0a3c
000000f0: 6a92 2f3c 3d3a 533c 116a 22bb b8e7 1a3b
00000100: d7a1 813c 77e9 a439 c396 0f3c 18ea d6ba
00000110: a118 023d 74b7 a43b 99be d9ba 31c8 843c
00000120: 7b04 7dbc e4ab bb3c 0086 7d3b 6b36 60bc
00000130: 6f4a 803c f415 933c e215 8f3a f598 89ba
00000140: 188f ffbb 8982 283c ff61 09bc fe56 a03c
00000150: 3edf 9a39 07fa 603c d172 95ba da7b f73c
00000160: 2a4a 713b bbe3 c7ba c973 27bc ded5 48bc
00000170: d56a 1d3c b5dd 203c 6eea 93bb 0c47 5bbb
00000180: 2d60 5ebc b597 a63c e365 b9bc 6161 813a
00000190: 1b5d 503c b075 423c 2e8e 99bc 8b0d 65bc
000001a0: 7c46 bc3b bd69 0dbc 24d9 fb3b 89f7 ceba
000001b0: 6b2c a63c 297b 09bc 9e80 4637 df77 ad3b
000001c0: 38ca 3cbb d623 06bc 66ac acbb 398c 1cbb
000001d0: 81ab 333b e331 ecbb 9f56 85bb 3c57 c83c
000001e0: acd5 8e3c 47f1 103b 49bc 24bb 36e5 f4bb
000001f0: b9dd 1ebb 9348 6f3c d458 dfba 1a04 ecbb

action_model._discrete_distribution.branches.0.weight f4 [5, 64]
-0.0066306745 -0.03434476 -0.017039102 0.042714555 -0.0057502883 0.019364804 0.024196293 -0.007851132
0.002012146 -0.004414402 0.015503385 0.0044605336 0.009522692 -0.03271205 -0.006249856 0.014176562
-0.003927374 0.026529407 0.007923365 -0.0131742405 0.0021946034 0.012455368 0.02449097 -0.014136625
0.0008143295 -0.05063216 0.0062153256 0.00690395 -0.016586382 0.00838745 -0.029409088 0.010103642
-0.03305971 -0.0037637372 -0.017516075 -0.010891078 -0.0008912465 0.011706112 0.0048763747 0.055085946
0.0075995564 0.041370098 -0.009707727 -0.026563779 0.050828554 0.021839846 0.009867761 -0.00069502956
-0.023908252 0.016184067 0.03162693 -0.027913596 -0.008789356 -0.006016424 0.019938719 -0.016503349
-0.015406126 0.007171315 0.01405407 0.0500615 -0.032546747 0.00021370105 -0.057606716 0.04482939
0.019229062 0.028526474 -0.023858525 -0.045780614 0.0071906694 0.040235538 -0.010193429 -0.018342016
0.018933598 -0.009558759 -0.038791843 -0.0051173847 0.006908426 -0.013396807 0.027339619 0.009299661
-0.009732999 -0.055149186 -0.041060735 -0.06256141 0.02842612 -0.029952567 -0.010218409 0.009876844
0.010036682 0.036049783 -0.014579319 -0.0072878106 0.028768882 0.035727058 0.023031747 -0.029321099
0.043568775 -0.023283543 -0.007865359 0.020809563 -0.024631351 0.012984622 -0.037536226 -0.04460296
-0.014202954 -0.038749423 0.036950402 -0.039495073 -0.025657838 -0.022007188 0.059012096 0.019188436
-0.035492465 0.031378668 -0.017486194 -0.025809353 0.021984236 -0.031573348 -0.022913707 0.0060226577
-0.037959527 -0.0037640939 -0.020107059 0.00031562845 0.03756774 0.0042759073 -0.014245173 -0.013429764
-0.007029851 -0.027069867 -0.006676265 0.02981836 -0.015180085 -0.026566021 0.01972004 0.0058870097
-0.010103461 -0.012361393 0.01695502 -0.0316083 0.020041427 -0.030867089 -0.004845924 0.011224808
0.016624708 0.029496951 0.020494584 0.03852278 -0.0126796095 0.044556804 0.0046694744 0.012373861
-0.01557852 0.033723228 -0.029114196 0.03496921 -0.024637932 -0.01887646 -0.009377978 -0.00022594188
0.037246242 -0.008322887 -0.0076440684 0.032549426 -0.03293488 -0.04412103 0.0029102755 0.024593364
-0.010151923 0.015506739 -0.04857944 -0.0066525666 0.06488489 0.014513352 -0.033188738 0.0015820384
0.055282526 -0.006509214 0.0062828637 0.0074095437 0.019311024 0.013732964 0.010874613 -0.015199877
-0.015445461 -0.01996755 0.057691477 0.023881877 -0.015019911 -0.0033356869 0.011558282 -0.015092925
-0.030929435 -0.014730842 0.023658175 -0.018231483 0.05237303 -0.008532114 -0.028047241 0.023279095
-0.053990774 0.00598358 0.038850702 0.04009024 -0.015957497 0.044675354 -0.07428874 0.031010993
0.04332099 0.00028922135 -0.004277903 0.0295325 -0.0104638 0.035153754 0.063263066 -0.044636186
-0.04197293 -0.019947544 0.03376023 0.012618532 -0.06408147 -0.045487307 0.006329961 0.035430167
-0.053076554 0.03881134 0.062757514 0.009621696 -0.01614514 -0.015053296 0.048562247 0.027064424
0.04573345 0.028366238 -0.04163204 0.025121411 -0.01762805 0.07306252 -0.047526438 -0.037102498
0.025213689 -0.061426476 0.054241464 -0.0059551946 -0.054278594 0.044963665 -0.043825794 -0.017319163
-0.010121431 0.035210382 -0.0010175554 0.066134244 -0.01991928 0.051178657 -0.043933935 0.046793398
00000000: 2146 d9bb 17ad 0cbd 9695 8bbc 75f5 2e3d
00000010: ea6c bcbb f0a2 9e3c 4e37 c63c 09a2 00bc
00000020: 35de 033b b0a6 90bb e901 7e3c ab29 923b
00000030: 1105 1c3c 12fd 05bd 98cb ccbb d044 683c
00000040: 33b1 80bb 3354 d93c 00d1 013c c5d8 57bc
00000050: 56d3 0f3b 9a11 4c3c 49a1 c83c 4e9d 67bc
00000060: ba78 553a ab63 4fbd eea9 cb3b 883a e23b
00000070: 2ae0 87bc 846b 093c 54eb f0bc bf89 253c
00000080: 9e69 07bd 08a9 76bb df7d 8fbc 7e70 32bc
00000090: 8aa2 69ba feca 3f3c ffc9 9f3b cda1 613d
000000a0: b305 f93b b173 293d 280d 1fbc 489c d9bc
000000b0: 9a31 503d 7ae9 b23c 64ac 213c a532 36ba
000000c0: 3ddb c3bc 7394 843c 3d8b 013d 0eab e4bc
000000d0: 3b01 10bc 6c25 c5bb 8656 a33c 0832 87bc
000000e0: fa69 7cbc 5afd ea3b 0b43 663c 4a0d 4d3d
000000f0: bd4f 05bd f014 6039 05f5 6bbd 069f 373d
00000100: 4486 9d3c 5ab0 e93c f472 c3bc 7484 3bbd
00000110: b59f eb3b 05ce 243d 5702 27bc ff41 96bc
00000120: a21a 9b3c 579c 1cbc 32e4 1ebd bcaf a7bb
00000130: 1460 e23b 487e 5bbc 56f7 df3c 9b5d 183c
00000140: 2877 1fbc 1de4 61bd 4d2f 28bd 3220 80bd
00000150: e5dd e83c 165f f5bc 1d6b 27bc 7cd2 213c
00000160: e570 243c f0a8 133d 19de 6ebc 96ce eebb
00000170: b8ac eb3c 8956 123d 13ad bc3c cd32 f0bc
00000180: 2c75 323d 21bd bebc b5dd 00bc d178 aa3c
00000190: b0c7 c9bc 74bd 543c 96bf 19bd 98b1 36bd
000001a0: 82b3 68bc b7b7 1ebd 4e59 173d 96c5 21bd
000001b0: 6330 d2bc 6b48 b4bc abb6 713d 1131 9d3c
000001c0: 8c60 11bd eb86 003d 353f 8fbc 236e d3bc
000001d0: 4918 b43c 0e53 01bd 87b5 bbbc b759 c53b
000001e0: 737b 1bbd 04af 76bb 8fb7 a4bc ef7a a539
000001f0: a1e0 193d e91c 8c3b 9664 69bc 8308 5cbc
00000200: aa5a e6bb a0c1 ddbc 92c4 dabb a245 f43c
00000210: e4b5 78bc fca0 d9bc ec8b a13c d1e7 c03b
00000220: fd88 25bc 7187 4abc 41e5 8a3c b477 01bd
00000230: eb2d a43c fadc fcbc 8fca 9ebb 42e8 373c
00000240: 8a30 883c 97a3 f13c 42e4 a73c 10ca 1d3d
00000250: 23be 4fbc 3281 363d 6402 993b bcbb 4a3c
00000260: 0c3d 7fbc 5e21 0a3d e580 eebc e03b 0f3d
00000270: 7dd5 c9bc cea2 9abc 17a6 19bc d0ea 6cb9
00000280: 848f 183d b85c 08bc 187b fabb 8c52 053d
00000290: bae6 06bd 41b8 34bd 52ba 3e3b 0678 c93c
000002a0: 4054 26bc fa0f 7e3c 3cfb 46bd c6fd d9bb
000002b0: 5fe2 843d 69c9 6d3c eaf0 07bd 665c cf3a
000002c0: ee6f 623d 3f4b d5bb 7be0 cd3b c2cb f23b
000002d0: 2732 9e3c 3a00 613c 6f2b 323c e808 79bc
000002e0: f50e 7dbc fd92 a3bc e64d 6c3d eda3 c33c
000002f0: 1316 76bc 8a9b 5abb f35e 3d3c 5148 77bc
00000300: ba5f fdbc a159 71bc cace c13c 315a 95bc
00000310: 1a85 563d 48ca 0bbc 54c3 e5bc cdb3 be3c
00000320: 6e25 5dbd e811 c43b ea21 1f3d aa35 243d
00000330: 4cb9 82bc 81fd 363d b224 98bd c40a fe3c
00000340: 5a71 313d a2a2 9739 a72d 8cbb 24ee f13c
00000350: 5c70 2bbc 62fd 0f3d 1190 813d 6fd4 36bd
00000360: cfeb 2bbd 0869 a3bc 2b48 0a3d f6bd 4e3c
00000370: 253d 83bd e650 3abd 906b cf3b 391f 113d
00000380: cd66 59bd a4f8 1e3d 0387 803d 51a4 1d3c
00000390: d042 84bc 1aa2 76bc 35e9 463d 36b6 dd3c
000003a0: 0053 3b3d 5060 e83c 5c86 2abd 6bcb cd3c
000003b0: b368 90bc cda1 953d 15ab 42bd caf8 17bd
000003c0: f08c ce3c 549a 7bbd 4c2c 5e3d cb23 c3bb
000003d0: 3b53 5ebd d22b 383d ad82 33bd ebe0 8dbc
000003e0: 5cd4 25bc c338 103d 7e5f 85ba 6471 873d
000003f0: c22d a3bc b6a0 513d 12f4 33bd 6faa 3f3d

action_model._discrete_distribution.branches.0.bias f4 [5]
-0.0025245124 0.030712029 -0.007868788 -0.017029937 0.0013046364
00000000: 4a72 25bb cb97 fb3c 17ec 00bc 5e82 8bbc
00000010: 5500 ab3a

onnx::LSTM_99 f4 [1, 256, 128]
-0.19792019 0.06170166 0.09236378 0.010680511 -0.02352403 0.018648073 -0.19365285 -0.08205897
0.18761696 0.07871248 -0.0597184 0.018268157 0.14020132 0.022991767 0.08203906 -0.12899593
0.12435125 0.08966491 0.09236752 0.088592425 0.025812121 0.1444231 -0.10339881 0.009746941
-0.048886254 0.003716584 -0.12157536 -0.11577943 0.13779432 0.07429743 0.0037073256 -0.03581806
-0.12845418 -0.03610455 0.06850858 0.11090029 0.05452602 0.077034906 0.06014795 -0.13733687
-0.17829175 -0.11795507 -0.025145844 -0.15643506 -0.13551363 0.069797456 0.0017225988 -0.19078034
-0.15505537 0.13805136 0.019349057 0.12823161 -0.04128418 -0.17495134 -0.013234651 0.16997992
-0.12603378 0.1304396 0.12589474 0.072448544 0.04323809 -0.19204088 0.1684521 0.06645867
-0.13142078 0.0022814376 -0.18635245 0.029148586 0.06022998 0.14834377 -0.042807072 0.041433766
-0.10076881 0.16278891 -0.09428816 0.011363177 -0.13969815 -0.14549954 0.10624835 0.16017689
0.08614738 0.11686626 -0.08219231 0.07278123 -0.20538402 0.11813366 0.08864421 0.1932218
0.15893796 -0.039670356 0.19546258 0.06644968 -0.02671405 0.073478855 0.14289889 0.14574571
-0.0044908505 0.028148437 0.048640564 -0.012691158 0.013676238 0.067351766 0.016705751 0.09941945
0.017024959 0.035994094 0.13081299 0.039323132 0.17791504 -0.056838468 -0.086919606 0.02467601
0.05249479 -0.13005763 0.17405409 0.04132741 0.14975618 -0.11392724 0.033463538 0.07913528
0.1558002 0.08949883 -0.13230419 0.18402703 -0.022298487 0.06996955 0.06398711 -0.088327415
-0.07395328 0.059540547 -0.024896957 0.02132506 0.17553309 0.15748435 0.049063176 0.027324079
-0.07496612 0.14661312 -0.09927323 -0.11811442 0.05511339 0.08067293 0.121765405 0.094956756
-0.03750081 -0.10273634 -0.12758933 0.14713879 0.21617787 -0.0758885 -0.16564648 0.07118286
0.07883518 -0.17541426 0.073972136 -0.050535668 0.064163044 -0.029877517 -0.03963324 0.14454629
-0.12311792 0.057562247 0.0730752 0.055324845 0.002500987 0.18680048 0.09531883 -0.034291852
0.065730244 0.005873513 -0.08006769 0.039392456 -0.14431712 0.040557485 -0.14772327 -0.14631793
-0.022553422 -0.06457028 0.11746892 -0.22364676 0.044476356 0.117265895 0.05912526 -0.13314801
-0.01489084 0.031769224 0.14860496 0.12572369 -0.124038085 -0.14779341 0.08836296 -0.047191408
0.15024342 0.013508395 0.0825268 -0.041259296 0.17788433 0.028143177 0.081452765 -0.030939082
0.039119348 0.13952279 -0.15985979 0.037412323 -0.06423829 0.07841994 -0.0045475163 -0.045923006
-0.015721811 0.056180757 0.12448935 0.0053558364 -0.10560378 -0.08530991 0.08374295 0.13015252
0.03176001 -0.055865 -0.16149944 0.13649237 -0.10397618 0.060177512 -0.10753729 0.12582229
-0.17195617 0.040833168 0.10032316 0.13285589 -0.077245094 -0.024831131 0.11133984 0.072858915
0.08488732 0.020096421 0.041635886 -0.03537774 0.024275973 0.15164928 0.019237481 0.13604797
-0.14857735 0.02886709 -0.046829525 -0.17360342 -0.04083442 -0.109337404 0.15952286 0.080015354
0.03103172 -0.08411855 0.12494214 -0.045358025 0.13159613 0.058845405 0.15422514 -0.085142754
00000000: 97ab 4abe e1ba 7c3d 3929 bd3d 4ffd 2e3c
00000010: 77b5 c0bc d8c3 983c ef4c 46be 890e a8bd
00000020: a91e 403e 0234 a13d 489b 74bd 1aa7 953c
00000030: ef90 0f3e 3b59 bc3c 1804 a83d 8217 04be
00000040: deab fe3d 3da2 b73d 2f2b bd3d f26f b53d
00000050: f173 d33c a6e3 133e c1c2 d3bd a2b1 1f3c
00000060: f43c 48bd ef91 733b 81fc f8bd c41d edbd
00000070: f419 0d3e 4029 983d 9af6 723b f5b5 12bd
00000080: 7e89 03be 5de2 13bd 3a4e 8c3d b11f e33d
00000090: ad56 5f3d 7ac4 9d3d b25d 763d 09a2 0cbe
000000a0: 1d92 36be 6e92 f1bd a8fe cdbc 8330 20be
000000b0: 16c4 0abe f8f1 8e3d d3c8 e13a ec5b 43be
000000c0: d6c6 1ebe 565d 0d3e ea81 9e3c 264f 033e
000000d0: 9a19 29bd 7226 33be 26d6 58bc 370f 2e3e
000000e0: 000f 01be f591 053e 8dea 003e e75f 943d
000000f0: 6c1a 313d 5da6 44be b57e 2c3e 7c1b 883d
00000100: 2b93 06be 2c84 153b 2dd3 3ebe 04c9 ee3c
00000110: b6b3 763d 6ee7 173e 7856 2fbd 74b6 293d
00000120: e15f cebd 23b2 263e 271a c1bd 9e2c 3a3c
00000130: 080d 0fbe d5fd 14be bc98 d93d 6905 243e
00000140: 0a6e b03d 9457 ef3d 7154 a8bd 530e 953d
00000150: 3050 52be 0ff0 f13d 188b b53d efdb 453e
00000160: a2c0 223e 627d 22bd 5827 483e c516 883d
00000170: 6cd7 dabc 157c 963d 1654 123e 5d3e 153e
00000180: fc27 93bb 8d97 e63c 543b 473d 93ee 4fbc
00000190: 4d12 603c b9ef 893d 80da 883c 6d9c cb3d
000001a0: ed77 8b3c 8b6e 133d d7f3 053e 4b11 213d
000001b0: 5c2f 363e 74cf 68bd e802 b2bd 5825 ca3c
000001c0: c704 573d d42d 05be 3c3b 323e ee46 293d
000001d0: af59 193e af52 e9bd 1011 093d ad11 a23d
000001e0: 168a 1f3e 2a4b b73d c07a 07be 9571 3c3e
000001f0: 51ab b6bc 324c 8f3d ad0b 833d 01e5 b4bd
00000200: d174 97bd cae0 733d b4f4 cbbc e4b1 ae3c
00000210: f2be 333e 9443 213e 78f6 483d bfd6 df3c
00000220: d687 99bd c021 163e c34f cbbd f9e5 f1bd
00000230: 94be 613d d937 a53d 2460 f93d b078 c23d
00000240: 739a 19bd 6e67 d2bd c7a6 02be 8dab 163e
00000250: bb5d 5d3e 6e6b 9bbd 3b9f 29be 52c8 913d
00000260: 5774 a13d cc9f 33be b47e 973d 7dfe 4ebd
00000270: ea67 833d b2c1 f4bc 7756 22bd f103 143e
00000280: 3f25 fcbd 64c6 6b3d 73a8 953d 4e9c 623d
00000290: 99e7 233b a048 3f3e 8536 c33d 9d75 0cbd
000002a0: 949d 863d 9976 c03b 87fa a3bd fc59 213d
000002b0: dec7 13be 9b1f 263d c544 17be 5ed4 15be
000002c0: f4c1 b8bc 6c3d 84bd 8c93 f03d a803 65be
000002d0: d72c 363d 1a29 f03d 542d 723d f457 08be
000002e0: b6f8 73bc 7220 023d e62b 183e b6bd 003e
000002f0: ae07 febd 2857 17be a4f7 b43d c74b 41bd
00000300: 69d9 193e 5152 5d3c d003 a93d 82ff 28bd
00000310: 4f27 363e 858c e63c b5d0 a63d f573 fdbc
00000320: 9c3b 203d 10df 0e3e 49b2 23be aa3d 193d
00000330: 5d8f 83bd a29a a03d 5503 95bb c319 3cbd
00000340: 07cb 80bc cb1d 663d 46f4 fe3d 0380 af3b
00000350: cb46 d8bd f6b6 aebd 6c81 ab3d b446 053e
00000360: c916 023d b3d2 64bd 1c60 25be a8c4 0b3e
00000370: 77f1 d4bd b27c 763d 833c dcbd 8fd7 003e
00000380: 4715 30be ae40 273d 3b76 cd3d 600b 083e
00000390: ad32 9ebd a86a cbbc 2406 e43d 0e37 953d
000003a0: 67d9 ad3d 40a1 a43c 648a 2a3d 40e8 10bd
000003b0: 68de c63c f349 1b3e ec97 9d3c 2950 0b3e
000003c0: a924 18be ad7a ec3c 51d0 3fbd 18c5 31be
000003d0: fe41 27bd 4aec dfbd f659 233e 17df a33d
000003e0: 3c36 fe3c 5946 acbd aae1 ff3d 56c9 39bd
000003f0: 23c1 063e e107 713d 32ed 1d3e 535f aebd

onnx::LSTM_100 f4 [1, 256, 64]
0.1702154 0.2051344 -0.08084418 -0.08510409 0.08039225 -0.039895695 -0.055498764 -0.106947355
-0.08953958 0.19082275 -0.17884658 0.12918434 -0.14479901 0.17287387 -0.090116255 0.17135443
0.23909928 -0.042856872 -0.056099698 -0.0988863 -0.12559761 0.14497282 -0.16906916 0.19027731
0.12364529 -0.12560728 0.13218388 -0.09392823 0.09155226 -0.10435033 -0.15244131 -0.16416614
0.17806941 0.19337833 0.060754403 -0.0392387 0.06641908 -0.0729549 0.1529774 0.013650316
0.121358864 -0.09946345 -0.0022325676 0.1571482 -0.042149566 -0.09019369 0.05676318 0.20953223
0.1015076 -0.008452452 -0.03938158 0.27061287 -0.09316996 0.07739349 0.10608879 -0.13338429
0.15106823 0.21097617 -0.093056336 0.060489412 -0.06966665 0.1173587 -0.17162143 -0.06209023
0.16291045 -0.12893473 -0.18076032 -0.11267429 0.03866225 0.014611889 -0.11891226 0.08271363
0.18456426 -0.026079359 -0.12836532 -0.16296718 -0.069422156 -0.18326126 0.099781595 0.13952361
-0.041890357 0.09073172 -0.1740854 0.090544425 0.03723787 0.010217759 -0.037534665 -0.16018653
0.19209898 0.099283345 0.033098005 0.09690431 0.18782543 0.1231126 0.17093642 -0.11232812
-0.088614024 0.14772995 -0.13716903 -0.03364235 -0.18174952 -0.16278404 -0.008984261 -0.10431045
0.03114514 -0.1543342 -0.1034436 0.15462542 0.17653774 -0.15549843 -0.13085228 -0.035555314
0.17145379 -0.1711377 0.1005486 -0.11112857 -0.13152698 -0.2053452 0.19850484 0.07258952
-0.1289648 -0.08423928 0.077133745 0.20038767 0.11639055 0.14760585 -0.034240074 -0.019413285
-0.16656674 -0.23523429 -0.08855769 -0.1795872 -0.14456166 -0.06572212 0.1762502 -0.034291454
-0.19462584 0.1854122 -0.18807833 0.08498667 0.04926573 -0.0926059 0.02673867 0.16169715
0.05465074 0.112888016 -0.056244552 0.015947841 -0.19867001 -0.0023599688 -0.049252998 0.018499576
-0.014235025 -0.11664694 0.122701965 -0.06796142 -0.14678694 0.19508523 0.08856385 -0.13418253
0.063208856 -0.014127252 0.19028664 0.02479393 0.008697849 -0.012616707 0.09831793 -0.1483027
-0.014129965 0.23386918 0.041292123 0.110470966 0.15193847 -0.049553465 0.13968176 0.18403779
0.112907104 0.19141902 -0.029810268 0.15779576 0.12880957 0.12999456 -0.15620434 0.094075315
-0.008245621 0.049356803 0.007556851 -0.16851437 0.09829826 -0.15473887 0.14435752 0.15713546
0.019915547 -0.1417562 0.13819669 0.022538438 -0.05338689 0.009102552 0.024846403 -0.0026460325
-0.08993393 0.1195418 0.15804689 -0.20128272 -0.15180367 -0.20376503 0.022142483 0.04695017
-0.21929318 0.10336067 -0.06217127 -0.16574563 0.17032391 0.109469675 -0.13762029 0.087763555
0.025910126 -0.18444288 -0.10041733 -0.03384113 0.19049035 0.16964561 0.14645252 0.056741104
-0.045304343 0.07870205 0.06499499 0.11052969 0.04534618 0.21963322 0.06613875 0.19098422
-0.02745746 -0.04195632 -0.059195608 0.06944656 0.029796368 0.14647974 0.17547312 0.07450406
0.022923162 -0.17534058 0.08179246 -0.20256397 -0.16597618 -0.051916007 -0.1941552 -0.03117456
-0.16162302 0.06379117 0.028143417 -0.083440475 -0.12961935 -0.2007676 0.09421107 0.14044444
00000000: f24c 2e3e c10e 523e a291 a5bd 0e4b aebd
00000010: b1a4 a43d ab69 23bd ac52 63bd 3707 dbbd
00000020: 8760 b7bd 0a67 433e 8f23 37be e648 043e
00000030: 3146 14be d905 313e df8e b8bd 8977 2f3e
00000040: 71d6 743e b08a 2fbd ccc8 65bd e784 cabd
00000050: a99c 00be c173 143e 7720 2dbe 0ed8 423e
00000060: be39 fd3d 329f 00be 365b 073e 725d c0bd
00000070: c07f bb3d a0b5 d5bd 9319 1cbe 2b1b 28be
00000080: d457 363e f804 463e 9cd9 783d c2b8 20bd
00000090: ba06 883d 6169 95bd 1ca6 1c3e 93a5 5f3c
000000a0: ff8a f83d 7eb3 cbbd 4550 12bb 75eb 203e
000000b0: 06a5 2cbd 78b7 b8bd 8280 683d 9e8f 563e
000000c0: 37e3 cf3d 277c 0abc 944e 21bd c58d 8a3e
000000d0: e4cf bebd 7a80 9e3d 1445 d93d e495 08be
000000e0: a1b1 1a3e 230a 583e 5294 bebd bfc3 773d
000000f0: 63ad 8ebd c259 f03d 87bd 2fbe 5352 7ebd
00000100: ffd1 263e 7707 04be 3c19 39be c7c1 e6bd
00000110: 4f5c 1e3d b466 6f3c 4588 f3bd c365 a93d
00000120: 6afe 3c3e 61a4 d5bc 3372 03be dee0 26be
00000130: 342d 8ebd d7a8 3bbe 4b5a cc3d 47df 0e3e
00000140: 3995 2bbd 8dd1 b93d 7143 32be 5b6f b93d
00000150: bd86 183d 6368 273c f3bd 19bd f007 24be
00000160: 98b5 443e 1155 cb3d c691 073d c475 c63d
00000170: 4f55 403e 7522 fc3d f509 2f3e 490c e6bd
00000180: 457b b5bd 8546 173e 0a76 0cbe 90cc 09bd
00000190: 8c1c 3abe dcb0 26be b932 13bc b8a0 d5bd
000001a0: 1824 ff3c c909 1ebe 3dda d3bd 2056 1e3e
000001b0: 4fc6 343e fb3a 1fbe 24fe 05be 73a2 11bd
000001c0: 9591 2f3e b93e 2fbe 6dec cd3d 6097 e3bd
000001d0: 02af 06be 0346 52be da44 4b3e d0a9 943d
000001e0: 590f 04be a585 acbd 4cf8 9d3d 6d32 4d3e
000001f0: 2b5e ee3d fd25 173e 523f 0cbd 9c08 9fbc
00000200: 7990 2abe 42e1 70be bc5d b5bd b5e5 37be
00000210: f907 14be 5299 86bd ef7a 343e 3275 0cbd
00000220: ff4b 47be b2dc 3d3e 9b97 40be 7e0d ae3d
00000230: ddca 493d 29a8 bdbd 0e0b db3c f093 253e
00000240: 74d9 5f3d d531 e73d b060 66bd 0ca5 823c
00000250: 2770 4bbe b5a9 1abb 83bd 49bd 6c8c 973c
00000260: 063a 69bc 97e4 eebd 2b4b fb3d 5b2f 8bbd
00000270: 514f 16be 6cc4 473e f760 b53d 2567 09be
00000280: a573 813d fd75 67bc 80da 423e a41c cb3c
00000290: 6c81 0e3c 4eb6 4ebc e95a c93d aadc 17be
000002a0: 5e81 67bc 677b 6f3e ee21 293d 9a3e e23d
000002b0: c295 1b3e 93f8 4abd bc08 0f3e 6774 3c3e
000002c0: d73b e73d 5903 443e aa34 f4bc 3695 213e
000002d0: a8e6 033e 4b1d 053e 08f4 1fbe 8faa c03d
000002e0: a418 07bc 5c2a 4a3d 769f f73b 088f 2cbe
000002f0: 9950 c93d de73 1ebe 75d2 133e 1ee8 203e
00000300: ee25 a33c 8a28 11be 6f83 0d3e 88a2 b83c
00000310: 36ac 5abd df22 153c af8a cb3c 0f69 2dbb
00000320: 482f b8bd 55d2 f43d 0bd7 213e 0f1d 4ebe
00000330: 6c72 1bbe c8a7 50be 2764 b53c d24e 403d
00000340: 648e 60be c2ae d33d 4da7 7ebd 39b9 29be
00000350: 6469 2e3e a331 e03d 55ec 0cbe 61bd b33d
00000360: 7941 d43c 98de 3cbe 9aa7 cdbd ff9c 0abd
00000370: e70f 433e 94b7 2d3e a6f7 153e 5c69 683d
00000380: 0c91 39bd 8a2e a13d 181c 853d 645d e23d
00000390: ebbc 393d 88e7 603e c173 873d 5e91 433e
000003a0: 78ee e0bc 64da 2bbd 1877 72bd 003a 8e3d
000003b0: 8317 f43c c9fe 153e 3aaf 333e 9695 983d
000003c0: 5bc9 bb3c 7b8c 33be ce82 a73d ee6c 4fbe
000003d0: a9f5 29be e1a5 54bd 9fd0 46be ca61 ffbc
000003e0: 8180 25be f2a4 823d 068d e63c d7e2 aabd
000003f0: efba 04be 0696 4dbe bcf1 c03d abd0 0f3e

onnx::LSTM_101 f4 [1, 512]
-0.030942587 0.020826766 0.015344107 0.014519294 -0.017935175 -0.0032323634 -0.015953299 0.0005383333
0.025002709 -0.004329503 0.0015897832 0.007607992 0.014869378 0.017610017 -0.014695735 0.028659986
0.020969754 0.016426142 -0.024192559 -0.011955645 -0.00043724992 -0.006391603 0.026495013 -0.0054544443
0.0076930965 0.014164249 -8.123157e-05 -0.008581759 0.01050891 0.0266728 -0.0062412666 -0.013455889
-0.028617833 -0.0069590406 -0.011351908 -0.016501391 -0.002287964 0.027045026 -0.014000615 0.030745354
-0.008019071 0.015320163 0.0063174036 0.0042663044 0.0059794215 0.05293342 -0.008118758 -0.012601217
0.027720002 0.029647509 -0.0037572898 0.024885483 0.0070560155 0.01648295 0.017470544 -0.0056619486
0.012886517 -0.007065264 0.005488029 0.041634887 0.010613551 -0.007154615 0.02144674 0.021705965
0.0027954995 -0.0013305265 -0.010767124 0.020340722 0.0016248005 0.008779624 -0.00854363 0.0064227586
0.0064497124 0.010666779 0.01568897 0.018709706 0.030707935 0.03504008 0.008944958 -0.0027902434
0.00732884 0.0336043 0.005416716 0.015843516 -0.011429608 -0.0038756733 0.028657086 0.0113103865
0.0060804877 0.022315718 0.008449045 -0.016023256 0.036107972 0.02632123 -0.0051858025 -0.00043331043
0.019369487 0.0024783406 0.022106266 -0.01026765 0.019590568 0.0020022397 0.012494499 0.03206205
0.0040729563 0.026819741 0.010752365 0.0056697344 0.0176366 0.059520885 0.032200027 0.004130297
0.03154735 0.043401692 0.01649131 0.029014925 0.023332877 0.020540403 -0.0016825321 0.0016706014
0.018025117 -0.0008930792 -0.0043827426 0.069822505 0.004552466 0.02068287 0.034840465 0.04696145
0.9608566 1.016864 1.0332705 1.0170095 0.98709977 0.9849739 0.9925089 1.0157884
0.9916955 0.9860363 1.0170888 0.9969287 1.0303435 1.0219953 1.0010775 1.0160108
1.000006 1.0284224 0.9728836 1.0014794 1.0020939 0.99707407 0.9991691 1.0207028
0.98857516 1.0346316 0.98937833 0.99402076 1.0115706 1.0075908 0.98811746 0.97062093
0.9930814 1.0024395 0.9801922 0.996678 1.0154295 0.99844474 0.9774315 1.0257995
1.0177182 1.0063304 1.0244297 0.9839714 1.0229088 0.9876641 1.0602404 0.9916908
1.0265448 0.99769586 1.0367023 1.0336473 1.0433885 1.0023258 0.9909523 1.0031747
1.0182841 0.98778254 0.9937351 0.970103 1.0278382 1.0354956 0.99706143 1.0058788
0.0009807654 -0.0013624933 -0.01529866 -0.00097612257 0.009230503 -1.07237065e-05 -0.0037265494 -0.009308144
-0.00318753 -0.012684527 -0.011913576 -0.0016736005 0.009207998 0.0017967017 0.010573916 0.0050864434
-0.020491516 -0.0023500728 0.0018738795 -0.00094720843 -0.019215204 -0.008747181 0.0028335974 -0.017764885
0.003430116 -0.002694344 0.014189062 0.0019051163 0.00081940857 0.006983689 -0.021608949 0.00839768
-0.00071065605 -0.008778112 0.0018070715 0.0063138176 -0.01078659 0.002427707 0.0009843467 0.0048647164
0.014512256 0.004649637 -0.012273117 -0.018510327 -0.0066623436 -0.0025535584 0.006413955 0.0011741648
-0.013265411 -0.0010699747 -0.002535689 -0.0041106506 -0.008711328 -0.012322454 -0.0040325364 -0.012529524
-0.0137200635 0.001209574 0.0020090458 0.0017313276 -0.008086047 -0.0022656843 -0.0015056818 0.008451802
00000000: 4f7b fdbc e59c aa3c d965 7b3c 55e2 6d3c
00000010: caec 92bc 0fd6 53bb 7eb0 82bc f01e 0d3a
00000020: 7bd2 cc3c 81de 8dbb 4660 d03a 764c f93b
00000030: b19e 733c e242 903c 61c6 70bc 59c8 ea3c
00000040: c3c8 ab3c 1e90 863c 792f c6bc 9ce1 43bc
00000050: b13e e5b9 a770 d1bb 120c d93c 32bb b2bb
00000060: 5f16 fc3b 2b11 683c de5a aab8 829a 0cbc
00000070: 902d 2c3c ea80 da3c 8a83 ccbb 1776 5cbc
00000080: f26f eabc aa08 e4bb 5afd 39bc ed2d 87bc
00000090: abf1 15bb 888d dd3c d662 65bc aedd fb3c
000000a0: 6c62 03bc 6c01 7b3c 3902 cf3b 5bcc 8b3b
000000b0: 06ef c33b b7d0 583d 8a04 05bc 5675 4ebc
000000c0: 0f15 e33c 55df f23c dd3c 76bb a4dc cb3c
000000d0: 2636 e73b 4007 873c 631e 8f3c de87 b9bb
000000e0: f821 533c bb83 e7bb edd4 b33b 5889 2a3d
000000f0: 76e4 2d3c 4371 eabb 13b1 af3c b5d0 b13c
00000100: b334 373b 1065 aeba 9768 30bc 96a1 a63c
00000110: 42f7 d43a 69d8 0f3c 95fa 0bbc 0176 d23b
00000120: 1c58 d33b b7c3 2e3c 2886 803c 1945 993c
00000130: 358f fb3c 3086 0f3d e08d 123c 84dc 36bb
00000140: c426 f03b aaa4 093d b57e b13b 43ca 813c
00000150: 4043 3bbc 02ff 7dbb 44c2 ea3c 334f 393c
00000160: d43e c73b 74cf b63c dd6d 0a3c 3443 83bc
00000170: f4e5 133d 9f9f d73c aaed a9bb f12d e3b9
00000180: c2ac 9e3c a86b 223b 3318 b53c a539 28bc
00000190: 667c a03c 0238 033b bab5 4c3c 7f53 033d
000001a0: 6f76 853b 13b5 db3c b02a 303c 2ec9 b93b
000001b0: a27a 903c 2ccc 733d 2de4 033d 7157 873b
000001c0: cb37 013d f9c5 313d c918 873c b5b0 ed3c
000001d0: 9724 bf3c 5944 a83c 6988 dcba 15f8 da3a
000001e0: 69a9 933c 881d 6aba 1c9d 8fbb 1aff 8e3d
000001f0: da2c 953b 1f6f a93c e0b4 0e3d a65a 403d
00000200: b3fa 753f 9928 823f 3542 843f 5e2d 823f
00000210: 92b2 7c3f 4027 7c3f 1015 7e3f 5b05 823f
00000220: c2df 7d3f e06c 7c3f f72f 823f b836 7f3f
00000230: 4ce2 833f bed0 823f 4f23 803f a40c 823f
00000240: 3200 803f 58a3 833f e60e 793f 7a30 803f
00000250: 9d44 803f 3f40 7f3f 8cc9 7f3f 64a6 823f
00000260: 4313 7d3f cf6e 843f e647 7d3f 2578 7e3f
00000270: 257b 813f bcf8 803f 44f5 7c3f 9d7a 783f
00000280: 953a 7e3f f04f 803f e0ed 7a3f 4a26 7f3f
00000290: 98f9 813f 139a 7f3f f338 7a3f 664d 833f
000002a0: 9744 823f 6fcf 803f 8320 833f 8de5 7b3f
000002b0: adee 823f 8ed7 7c3f f5b5 873f 73df 7d3f
000002c0: d265 833f ff68 7f3f a9b2 843f 8e4e 843f
000002d0: c18d 853f 364c 803f 0daf 7d3f 0768 803f
000002e0: 2257 823f 51df 7c3f 6c65 7e3f ac58 783f
000002f0: 3490 833f 1f8b 843f 6b3f 7f3f a3c0 803f
00000300: 078d 803a b095 b2ba 3ba7 7abc 7ae2 7fba
00000310: 893b 173c f8e9 33b7 2039 74bb 3081 18bc
00000320: e1e5 50bb c3d2 4fbc 2931 43bc b75c dbba
00000330: 25dd 163c 4e7f eb3a 383e 2d3c 2eac a63b
00000340: d3dd a7bc ae03 1abb f69c f53a 154e 78ba
00000350: 3469 9dbc 5650 0fbc e0b3 393b aa87 91bc
00000360: cccb 603b 9793 30bb 3d79 683c 18b5 f93a
00000370: 94cd 563a 6ed7 e43b 4005 b1bc 6c96 093c
00000380: 524b 3aba 12d2 0fbc 42db ec3a 24e4 ce3b
00000390: 3dba 30bc 2a1a 1f3b 3205 813a 3368 9f3b
000003a0: d0c4 6d3c fb5b 983b 2f15 49bc f8a2 97bc
000003b0: ca4f dabb 9a59 27bb 272c d23b 6fe6 993a
000003c0: 2b57 59bc 653e 8cba cd2d 26bb a3b2 86bb
000003d0: f5b9 0ebc 1ee4 49bc 5e23 84bb a248 4dbc
000003e0: 1eca 60bc 928a 9e3a 32aa 033b b7ed e23a
000003f0: 577b 04bc e07b 14bb 4c5a c5ba 6d79 0a3c
