results/3dball_test2/3DBall/3DBall-72323.pt (torch, 451139 bytes, 44 tensors)

network_body.observation_encoder.processors.0.normalizer.running_mean f4 [8]
00000000: 01cd 813b 5554 893b 4032 133c a918 4640
00000010: ab41 a93d 5fd1 bbbc 91ac 4cbf b845 ad3d
0.003961206 0.0041909614 0.0089841485 3.0952551 0.08264478 -0.022926984 -0.79950815 0.084605634

network_body.observation_encoder.processors.0.normalizer.running_variance f4 [8]
00000000: 0747 d243 a227 df43 d6db b947 12c2 2d46
00000010: ac36 b247 8f20 8647 0722 ab47 6782 8e47
420.5549 446.30963 95159.67 11120.518 91245.34 68673.12 87620.055 72964.805

network_body.processors.0.normalizer.running_mean f4 [8]
00000000: 01cd 813b 5554 893b 4032 133c a918 4640
00000010: ab41 a93d 5fd1 bbbc 91ac 4cbf b845 ad3d
0.003961206 0.0041909614 0.0089841485 3.0952551 0.08264478 -0.022926984 -0.79950815 0.084605634

network_body.processors.0.normalizer.running_variance f4 [8]
00000000: 0747 d243 a227 df43 d6db b947 12c2 2d46
00000010: ac36 b247 8f20 8647 0722 ab47 6782 8e47
420.5549 446.30963 95159.67 11120.518 91245.34 68673.12 87620.055 72964.805

network_body._body_endoder.seq_layers.0.weight f4 [128, 8]
00000000: 3c71 ad3e 53e7 5a3c 4a7b 223e 466c 493e
00000010: ab63 923e b183 d23e 3882 983d 2e38 cabe
00000020: be6f f6be f0ea 0dbf e26a 38be b081 753e
00000030: ced7 c0be 6088 f83e a6bd 14bd e1b7 e13c
00000040: 5857 023f 5268 d53d 8a7c fe3d 7f06 993e
00000050: ddec 82be b18e 063f 07b7 febe 421e 9cbe
00000060: 9914 6e3e 5076 c03e 393f 423d cf66 f8be
00000070: 9c55 13be 56d3 be3e 2f59 fb3c 2bab 143d
00000080: 4575 b5be 66fd e33d 35c4 12bd 1d37 bd3c
00000090: c9a6 ebbe 132a 593f a8cf c0be cc82 1dbe
000000a0: 2f47 ed3d 03df 06bf 1ecf 733e 29c7 fdbe
000000b0: 5fbb bd3e e273 1fbe 10ad e2be 5a3f 82bd
000000c0: c694 d0bd e2aa 00be 381f 0d3e fb24 debe
000000d0: 68e1 93bf bfdc a4be 98ae 05be b08b c5be
000000e0: c8fd 2dbf 70d7 ab3c ebda a2bc 127b f13e
000000f0: b8f6 e23d 5301 173e 0ad5 953e b688 df3d
00000100: 54c1 8d3d ad5b c63e 3fb7 a83e d515 7f3e
00000110: 9840 893e a2bd 8ebf a5c6 7b3e e542 bfbe
00000120: 57a2 17bf 98ea a53e e23e 3d3e 3392 f13d
00000130: 0f9e b6be 0fbe bd3e 2f35 15bf 88ae afbd
00000140: 0910 e43e 8d32 21bd 883c 0a3f bea5 8bbe
00000150: 7983 7ebe 3a24 6cbe e2d8 e23e f5f6 6cbd
00000160: 4c82 cf3e e5bd e3be 61ba 453e c145 3c3f
00000170: 7f3d dd3e b5b5 a43e 4df4 e73e 8838 7a3e
00000180: 5bd9 2a3f faf4 903e bbb9 99be 6bd2 74bd
00000190: 0d1e a13d fe87 c13e 73b1 92be 93ca e73e
000001a0: fd03 5a3f 8ad2 333f a734 0bbe 0d4c 243e
000001b0: c33c 92be 43a4 7b3c 445d 7cbe 208a b13e
000001c0: 0f63 143e 5fdc 3abf fb45 86bf ca80 01bd
000001d0: c4f3 843e 69c7 64be 6bb8 0f3e f2c6 41bf
000001e0: a831 503e 6aa5 223c 1109 333f 6a9d 0c3f
000001f0: 0048 f0bd ba68 97be 3603 2f3e f7f0 c3be
00000200: f838 893e c679 08bf 8c3a d0be b424 dcbe
00000210: f2dd bfbe 93a7 0abe 73ac aa3e 9870 0fbf
00000220: 3a16 1fbf 890b b2be 29ec 99bd 576c 09bf
00000230: 604c 053f 8022 81bf 835a 68bd c033 003f
00000240: 5a3b df3e c701 ab3e acda 973d 110f e23d
00000250: b603 2a3f 0879 2e3e abc7 203f 4d50 f63e
00000260: 5e7b cd3e 8cd9 083e 4820 fdbe 4293 44be
00000270: 39bb 663f bbc8 acbc aa31 84be ddbb 35be
00000280: 6d89 86bd 42f3 22bb 0298 c3be 3be7 4ebf
00000290: e978 eabe 7df0 863e d649 b9be 879c 62bd
000002a0: cd90 49bd d679 52bf 5404 ed3b 791a e4bc
000002b0: fe6c 81be 32c0 8f3e 97e1 29bf 6145 63bf
000002c0: b10b 193e 8172 15bf f9a9 223d bdcb d03d
000002d0: b22a 3cbe f629 edbc a403 3b3d 78b7 a83b
000002e0: 87d2 1c3e 1e26 d2be caac 27be 0653 71bf
000002f0: 7575 563d 60e0 8d3e 12bd a9bd 82f6 adbb
00000300: 55a8 a3be 1fba 453f 685f 333e be41 493e
00000310: f42b 4ebc 8630 0abe d3b4 14bf da07 2a3f
00000320: b367 7e3c edcc 82be 320d d63d 005a f43e
00000330: 317d f0bd 96c6 2e3c 10cc a4be 45b9 8dbe
00000340: ad59 86be bbc1 efbb 62c0 f03e 2016 5fbe
00000350: 0b79 333d 55e4 bb3e 60e0 4d3e 573a 843e
00000360: e815 febe 61c8 633e a942 a23d ebc1 3d3e
00000370: 0e49 4bbe 16d0 1abf d1ec da3d 8db5 e63e
00000380: 0820 883d 3242 9ebe 8c8b 98bd a1b7 1dbd
00000390: 1a9f bbbd 3d9a 4cbe e137 06bf 3247 d5be
000003a0: 2e3b a73e cf37 653c 1aa8 14bd 7d64 f2bd
000003b0: c00f 453f e136 1f3e 4356 2d3e ad76 683e
000003c0: de5b 99bd 9725 173c 5a91 3e3f 4ba3 243e
000003d0: 35d5 b53e c7f7 0c3f 8d51 4fbe dfdd aa3e
000003e0: e6d2 bf3b efe8 2e3f c2be bc3e c7c6 443e
000003f0: 21fa b7be 9daa a9be 40ca 9ebe c50f 2a3f
0.33875453 0.013360816 0.15867344 0.1967021 0.28591666 0.41116098 0.07446712 -0.39495987
-0.48132128 -0.5543661 -0.18009523 0.23975253 -0.37664646 0.48541546 -0.036313675 0.0275535
0.50914526 0.10420288 0.12426098 0.2988777 -0.25571337 0.5256148 -0.49749014 -0.30491835
0.23250045 0.37590265 0.047423575 -0.48515937 -0.14388126 0.37270612 0.030682174 0.03629605
-0.35441032 0.11132316 -0.03583165 0.02309757 -0.46025684 0.84829825 -0.3765843 -0.15381926
0.11585843 -0.5268404 0.23809478 -0.4956601 0.37057015 -0.1557155 -0.4427266 -0.063597396
-0.10184626 -0.12565187 0.1378144 -0.4338759 -1.1553164 -0.32199666 -0.13054883 -0.38583136
-0.67965364 0.020976752 -0.019879779 0.47164208 0.11082214 0.14746599 0.29264098 0.109147474
0.0692164 0.38741818 0.32952306 0.24910672 0.26807094 -1.1151621 0.24587496 -0.37355724
-0.59232086 0.32405543 0.18481019 0.117954634 -0.35667464 0.37059066 -0.58284277 -0.08578211
0.44543484 -0.03935485 0.53998613 -0.2727489 -0.2485484 -0.23060694 0.44306093 -0.057852704
0.40529096 -0.44480816 0.19309379 0.73543936 0.4321098 0.3216988 0.45303574 0.24435627
0.6673791 0.28311902 -0.30024514 -0.059770983 0.0786706 0.37799066 -0.28651008 0.4527174
0.85162336 0.7024313 -0.13594304 0.16044636 -0.28561983 0.015358987 -0.24644953 0.34675694
0.14490913 -0.7299251 -1.0490106 -0.031616963 0.25967228 -0.22341694 0.14035194 -0.7569419
0.20331442 0.009927133 0.6993571 0.54927695 -0.11732483 -0.29572088 0.17091069 -0.3826978
0.26801276 -0.5331081 -0.40669668 -0.42996752 -0.37474018 -0.13540487 0.33334693 -0.5603118
-0.6214329 -0.34774426 -0.07515747 -0.5368094 0.52069664 -1.0088654 -0.056726944 0.50078964
0.4359997 0.33399794 0.07414755 0.1103803 0.6641191 0.17038357 0.6280467 0.4810814
0.40133184 0.13364238 -0.4943869 -0.191968 0.9012943 -0.02109181 -0.2581914 -0.17747445
-0.06569181 -0.0024864231 -0.3820191 -0.8082158 -0.45795372 0.26355353 -0.36189145 -0.055325057
-0.04921036 -0.82217157 0.007233182 -0.027844654 -0.25278467 0.2807632 -0.6635985 -0.8877774
0.14945866 -0.58377844 0.03971288 0.1019511 -0.18375662 -0.028950673 0.04565777 0.0051488243
0.15314685 -0.41044706 -0.16374508 -0.9426731 0.05235811 0.27710247 -0.082880154 -0.005308927
-0.31964365 0.77237123 0.17516863 0.19653985 -0.012583721 -0.13495073 -0.58088416 0.6641823
0.0155276535 -0.2554697 0.104517356 0.47724915 -0.11742628 0.010667464 -0.32186937 -0.27680412
-0.26240292 -0.0073167956 0.47021776 -0.21785784 0.043816607 0.3669764 0.20105124 0.2582576
-0.49626088 0.22244407 0.07922871 0.18531005 -0.19852087 -0.60473764 0.106897004 0.45060387
0.066467345 -0.30909878 -0.074484915 -0.0385052 -0.091612056 -0.19980712 -0.52429014 -0.4165588
0.32662338 0.013990357 -0.036293127 -0.11835573 0.7697716 0.15548278 0.16927437 0.22701521
-0.074882254 0.009225271 0.7444054 0.16077916 0.35514227 0.5506558 -0.20245953 0.333724
0.0058539985 0.6832418 0.36864287 0.19216453 -0.3593302 -0.3313798 -0.3101368 0.6643031

network_body._body_endoder.seq_layers.0.bias f4 [128]
00000000: eb3f 583c 0f91 b5bd 9800 cd3c b16c 07bd
00000010: 4130 94bd 248c 74ba 18db fabc 6bbc 223c
00000020: cd08 223c 9c72 a53c 937d 443c d315 003b
00000030: 4458 813c 8353 f13c 2f95 00bd df6c 9ebc
00000040: bfa8 88bd e569 05bc 6012 2b3d 1d4f b6bb
00000050: a5dc e2bc 3a4d 773b dcc6 2dbd db4d 60bd
00000060: 3a67 90bd 9543 4cbc 4853 c3bd 53bc 8c3d
00000070: 4299 a9bc b573 313c 163b 233c 27c2 b9bc
00000080: 9e8b abbc 1629 18bd 4bb1 22bc 8210 17bb
00000090: 30b9 3c3a 4eae 7a3c 116e 82bc cdf3 77bc
000000a0: 90e3 1b3b 2188 2a3d 2c9d 3abd 3004 8f3c
000000b0: 24ea 2ebd 4ce2 80bd 0de1 2bbd 29da cdbc
000000c0: 22ba 193d 557c 953d 8183 2cbc ff92 d9bb
000000d0: 2281 30bd 6cd4 24bd f4b6 01bd a401 0fbc
000000e0: 698a 0e3c 8f62 adbb 99ae 09bd 8588 6cbd
000000f0: 6edd 043d e4ad f73c d38d b33c bbaa f2bc
00000100: 7807 93ba 8007 b73b 3ab3 203b 35f0 61bd
00000110: f1d8 1cbd f41c 34bd aa62 db3b 4378 0a3d
00000120: c8e9 94bb 926c 77bc 2c10 08bc b118 aabd
00000130: d750 66bd a236 65bd 40f6 083d 4319 0e3b
00000140: 1849 96bc d767 64bc 91fb febc 591f 823c
00000150: 59b1 193d 8888 9dbd 06e9 1d3d 0b4c 2f3d
00000160: ea09 f2bc c09a abbb f802 0a3d e154 a8bc
00000170: 2281 a4bd 069d 00be ce71 3cbd 06dc fbbc
00000180: 2cf0 31bd 918b e1bb e471 48bd 59b3 bbbc
00000190: 6d66 023d 3f62 10bd 156a ca3c fe5d 273c
000001a0: daea 9cbd caa6 45bd ce42 f3bc 11de 2cbd
000001b0: 7ede 0ebd b78c 06ba 5e92 61bd 8f3e 2dbc
000001c0: 53ad 683c 80ee 743c 1c46 59bc 533c aeba
000001d0: 23ae d93b eff7 a3bd a366 983c 3588 99bd
000001e0: 2783 8a3d cf6d 173d bfd3 77bd e9d3 51bd
000001f0: 6f15 95bc 6413 47bd 6968 173d 67c7 3b3c
0.013198833 -0.08865558 0.025024697 -0.03306264 -0.07235766 -0.0009328744 -0.03062205 0.009932618
0.009889794 0.020196252 0.01199283 0.0019544258 0.015789159 0.029458767 -0.031392273 -0.019339023
-0.06672811 -0.008142923 0.04176557 -0.0055636303 -0.027693102 0.003773524 -0.042425975 -0.05476175
-0.07050939 -0.012467285 -0.09537369 0.068718575 -0.020702962 0.010830809 0.009962818 -0.022675587
-0.020940598 -0.037148558 -0.009929965 -0.002305061 0.0007199226 0.015300347 -0.015921624 -0.01513381
0.002378676 0.04163373 -0.045560047 0.017458051 -0.042703763 -0.06293163 -0.041962672 -0.025128441
0.037531026 0.07299105 -0.0105294 -0.0066398378 -0.0430919 -0.040241644 -0.03166862 -0.0087284185
0.008699992 -0.00529129 -0.033613775 -0.057747383 0.032437734 0.030234285 0.021918213 -0.029622426
-0.0011217436 0.005585611 0.002452089 -0.05516072 -0.03829283 -0.043972924 0.0066951113 0.033806097
-0.0045444705 -0.015101569 -0.008304637 -0.08305491 -0.05622944 -0.055960305 0.033437967 0.0021682538
-0.0183454 -0.013940773 -0.031125816 0.015884088 0.037522648 -0.07692057 0.038552307 0.04279713
-0.029545743 -0.0052369535 0.033694237 -0.020548286 -0.08032443 -0.125599 -0.04600697 -0.030744564
-0.043441936 -0.0068830927 -0.04893674 -0.022912668 0.031835962 -0.035249945 0.024708787 0.010215281
-0.07661982 -0.048254766 -0.02969494 -0.042203967 -0.034880154 -0.00051326625 -0.055071227 -0.010573997
0.01420148 0.014949441 -0.013261344 -0.0013293125 0.006643073 -0.08006274 0.018603629 -0.074966826
0.067632966 0.036969956 -0.06050467 -0.051227484 -0.018198697 -0.048602477 0.036964808 0.011461115

network_body._body_endoder.seq_layers.2.weight f4 [128, 128]
00000000: d5d6 8b3d cc23 eebd e2b9 ef3d 6c8d 1e3d
00000010: eaa2 99be b481 0dbe 8041 c2bc fea7 3c3e
00000020: 7e80 da3d 274c cdbd d2bf 123c a124 1a3c
00000030: 4379 30bd 6750 003e 2e38 bb3d 9c67 f5bd
00000040: 78c4 de3d 3252 0e3e 30b1 d0bd 6f1b 9cbd
00000050: e1ac b0bd bf2d 803d 58c2 103e d937 4dbe
00000060: d7b6 cdbd 293b eabd 318c e3bd 9481 8a3b
00000070: a289 1a3d 1aa0 3a3c f0a8 f03d 07ca bc3b
00000080: 6316 4f3d 6537 233c da96 fbbd 56b8 e03d
00000090: 971f 92bd bd9e 0a3c c177 0ebd 8450 7cbd
000000a0: 0b30 b4bc 839a 1dbd 13cd 92bd d717 f0bd
000000b0: 5939 b0bd dfd8 0abc 7066 ea3c 0445 c5bd
000000c0: 621c a0bd aedf d7bd 46bc c6bc a75f 713b
000000d0: 9143 283d d0f4 84be f965 34bd ddec 483c
000000e0: aee6 1a3e 773b 4a3d ee7c 02bd 97e7 e6bc
000000f0: f55a 8e3e e80a a83d 91ce e03d 073f b9bc
00000100: 58aa 4f3d f16a 3d3d 0470 ab3d 40e8 a7bd
00000110: aee0 e1bd 681d 2a3e 11b0 ac3d 9e8c 0abd
00000120: 4adb 09be f4f2 30be 1339 acbd 818e 97bd
00000130: e452 173c 576e 21bd 18cc debd eec5 d63d
00000140: 476e a53b 75f2 ac3d 6e30 84be fd31 0f3d
00000150: 23bc 2f3e aa1e babd c200 0d3d 1e01 9a3d
00000160: ac13 d63d e05c 14be dcb2 0f3c 34fc fabc
00000170: ea42 17bd 8519 e13b d758 a1bd d7e8 a53d
00000180: bb5f ac3c 13f2 753c 407d bebd 010c 283d
00000190: 2711 2c3d 63fd 393c 3212 ef3d d15e f8bd
000001a0: 6e52 ff3c da4d 0abd 9c16 dabd 6d8d b23c
000001b0: 226c ea3c 58fc 153d 0f0b e73d 3a5e 36be
000001c0: 8de3 92bb 2a0f 423d 2794 49bc deb4 9fbd
000001d0: 166e 5a3d 20a8 893d b02c 5cbd ba19 edbd
000001e0: b063 533b 6f64 9c3d 3840 813c 41c6 e4bd
000001f0: f4b1 ffbd 3c26 b53d d4d9 c2bd 89b0 61be
00000200: b93e 0f3d d2f9 81bc db2e 7abd 5086 dc3d
00000210: 1e28 063e 5c0f c73d 322f 19bd 616f 49bd
00000220: 0904 83be 43fb 413a db82 febd 8e79 ec3c
00000230: e245 1bbe 457e c73b 1a5b 52be 49a1 153e
00000240: dc55 26bd 65f9 a3bd 7b5b 26bc 63e1 143e
00000250: 8fb4 113e c433 a0bd 084c fb3c 27c8 ea3b
00000260: f7b0 233d e472 eabb 38c4 823d 8d4c 313d
00000270: 2db4 d63d 7217 1bbd 13bf 61bb 71ca 5abd
00000280: 2855 663d d21b 21be 27e7 993c 3b46 923c
00000290: b0a1 90bc 1750 14bd 9702 9b3c 7a79 39bd
000002a0: af2d 093c 1f10 83bd f2a9 b33d 98b6 f53c
000002b0: 00e9 b13d 4d50 67bd bc8a 83bd dbed 393b
000002c0: ea83 98bc 5a98 82bc cd3c be3d 0517 ff3d
000002d0: efb6 5fbe d69c 1cbe 324e 513d 5c05 ab3c
000002e0: c82a fb3c 0b16 0cbe c7a8 b73d 62d9 26bd
000002f0: f6c0 4a3a d189 9a3d a3cf 503d 93e6 d7bd
00000300: 40f7 823d cd38 6d3b 97ee 2fbd aa54 84bb
00000310: 62ea 5d3d 1e94 1abd e39c cebc d36c 1bbe
00000320: 72b6 9abc eb24 173e de6a c23c 510e 3ebe
00000330: 02de c9bc 8683 68bd 31bc bd3c 9c4f 46bb
00000340: daa3 8e3c 963f 1fbe 0b85 2c3b 2b89 48bd
00000350: ce87 533d 9f63 48bb e5ab efbd c624 bf3c
00000360: efd4 2fbe 411f 07bd 7231 aa3d 1a86 033d
00000370: 0128 92bd 7bc8 f6bd e9a6 773d c920 2c3d
00000380: 9d91 e33d 8e26 033c 9b76 c8bd f159 e5bd
00000390: ce84 8fbd aaf6 483e 2dfe 023e 51dc 8abd
000003a0: a8e4 81ba c96a 0fbe b069 543d f5bc 91bd
000003b0: 8701 76bd 0c86 0b3d 31fc 583e 5d3c fa3d
000003c0: 1829 d93d a850 dabd b482 d23d dab1 9ebd
000003d0: c0b6 50bd 551e 34bd 5174 4e3e 46d7 f5bc
000003e0: 6e27 713e 284e 49be 2966 6abe 01b1 f13b
000003f0: 38fe 943d 08ad 753c 8b33 12be aa72 0e3d
0.06828085 -0.116279215 0.11705376 0.03870909 -0.30007106 -0.13819009 -0.023712873 0.18423459
0.10669039 -0.100242905 0.008956866 0.009408147 -0.043084394 0.12530671 0.09141575 -0.119826525
0.10877317 0.13898543 -0.10190046 -0.0762242 -0.08626724 0.062587254 0.14136636 -0.20040835
-0.100446396 -0.11437065 -0.11110724 0.0042268727 0.037728913 0.01139071 0.11750972 0.005761388
0.05055846 0.009961938 -0.12284632 0.10972659 -0.071349315 0.008460698 -0.034782175 -0.061600223
-0.021995565 -0.038477432 -0.07168021 -0.11723297 -0.08604688 -0.008474558 0.0286133 -0.09632304
-0.078179136 -0.105407104 -0.024259698 0.0036830695 0.04108006 -0.25968027 -0.04404256 0.012263504
0.1512706 0.049373116 -0.031857423 -0.028186603 0.2780377 0.08205205 0.109768994 -0.022613062
0.05069956 0.046244565 0.08370975 -0.08198595 -0.110291824 0.1661278 0.084320195 -0.03382551
-0.13462558 -0.1728018 -0.084093235 -0.07400227 0.009236071 -0.03941187 -0.108787715 0.10486971
0.0050485465 0.084446825 -0.258182 0.034959782 0.17161612 -0.0908788 0.03442455 0.07519744
0.10452971 -0.14488554 0.008770671 -0.030637838 -0.03692905 0.0068694972 -0.07878273 0.08101051
0.021041742 0.015011328 -0.09301233 0.041027073 0.042008545 0.011351916 0.11673392 -0.1212746
0.031167235 -0.03376565 -0.10648844 0.021795953 0.028616015 0.036617607 0.11281406 -0.17809382
-0.0044826926 0.047377743 -0.012303389 -0.077981696 0.053327642 0.067215204 -0.053753555 -0.115771726
0.0032255463 0.07636344 0.015777692 -0.111706264 -0.12485114 0.08845183 -0.09514204 -0.22039999
0.034971926 -0.015866194 -0.06107984 0.107678056 0.13101241 0.097197264 -0.037398525 -0.049178485
-0.25589016 0.00073998066 -0.124273024 0.028866556 -0.15163377 0.0060880505 -0.20542565 0.14612307
-0.040609226 -0.080065526 -0.010153647 0.14539103 0.14229034 -0.078223735 0.030675903 0.0071649733
0.03996369 -0.0071548093 0.06385082 0.043285895 0.104835846 -0.037864156 -0.0034446164 -0.05341572
0.056233555 -0.15733269 0.01878698 0.017855754 -0.017655224 -0.036209192 0.018922133 -0.045281865
0.008372708 -0.06399559 0.08772649 0.029994294 0.08687019 -0.056473065 -0.06422946 0.0028370533
-0.018617589 -0.015941788 0.092889406 0.124555625 -0.21847127 -0.15294203 0.051099963 0.020876579
0.030660048 -0.13680284 0.089677386 -0.040734656 0.0007734442 0.07545818 0.050979268 -0.105420254
0.063948154 0.0036197186 -0.042952146 -0.004038413 0.054178603 -0.03773891 -0.025221294 -0.15178232
-0.018885825 0.14760177 0.023732599 -0.18560149 -0.024641994 -0.056766056 0.023161026 -0.0030259853
0.017412115 -0.155516 0.0026324417 -0.04895894 0.051643185 -0.0030576957 -0.11702708 0.023332965
-0.17171071 -0.03298879 0.08310212 0.03211031 -0.071365364 -0.12049957 0.060461912 0.042023454
0.11111758 0.008004798 -0.09788247 -0.111987956 -0.07007752 0.19625345 0.12792273 -0.06780303
-0.0009910064 -0.14005579 0.051858604 -0.07116119 -0.06006005 0.034063384 0.21189953 0.12218545
0.10603541 -0.10659915 0.10278836 -0.07748766 -0.050955534 -0.04397424 0.20161559 -0.030009877
0.23550197 -0.1965872 -0.22890534 0.007375837 0.07275051 0.014994867 -0.14277475 0.03477732

network_body._body_endoder.seq_layers.2.bias f4 [128]
00000000: a1c2 2b3d edf1 e43c a07f adbc 10ef 7dbc
00000010: 50c0 9dbc e084 e73c 2df0 12bc eb90 86bb
00000020: d8ec 093d 4f85 bcbc f4f1 1cbb a5d6 a63a
00000030: 38cd 96b9 36ba 153c 4835 f439 1a21 a8bc
00000040: 0f71 22bc 3028 923c a9b1 7d3c 4f18 123d
00000050: 80b4 6dbb b4b8 323c 5d6e 01bd 0fae e4ba
00000060: 90ca abbc 905d a53b c048 543d a772 de3c
00000070: f0ff 8abb cee4 c2bc 10d2 533c 5dfa b4bc
00000080: 35d0 aa3c 4ebc ed3c 01ed a43d 9fd9 a8bc
00000090: e5dc 14bc 6ce8 603a 86d6 943a 8807 80bc
000000a0: 8508 693d 9113 bf3d 6a1d 6b3d 01e3 45bc
000000b0: 6f3b 093b 6759 cc3a 7e5d 3ebb 47be fb3b
000000c0: c62c 773c 841b 183d 43d6 87bb 8c04 77bc
000000d0: 438f 84bc 5c77 abbc 63c9 073d a454 d1bb
000000e0: 0ca9 6c3c 9ea6 7e3d 9843 09bc 6dbf 9ebc
000000f0: 664e e33c aeb3 cdbc 972c acbc 1fa1 313d
00000100: 16be 543c ae36 b3bc 9eda 98bc 831b a8bc
00000110: 53dc a03d ebbc a83d b609 b03d a580 0cbd
00000120: 15f4 743d 91b8 453b 1f7e 233c 3669 5fbc
00000130: d3d8 8cbc 4db4 c93b 5378 423c 4526 3abc
00000140: 94f9 21bc 6e09 ff3c 0267 a0bb c947 3e3d
00000150: 1970 9439 15d2 3a3d 3b9d 9c3c 817f 833d
00000160: 97ad d43c a7c0 3cb9 21ef c13b d258 913d
00000170: 7d9d 923d 5ff2 19bb 35ba 4b3d 2d81 053b
00000180: f2a3 9c3c e376 373c 22ee b4bb b348 713d
00000190: bf43 193a 7beb cbbc ff3d a7bc cdb5 9c3c
000001a0: 009d 433d 54a3 e83b 111d 453c f74c cfbb
000001b0: ab8f 4f3b 1c12 1b3d cd50 873c 34dc 74bb
000001c0: f39b 76bc f6bd c53c 589c 863b d0d5 98bc
000001d0: acd5 47bc 335e 71bc 6c69 0c3c be8c 57bc
000001e0: 566a 5ebc d5e7 b7bb 09c1 22bc 225d a23d
000001f0: fd79 ad3b 3cc7 db3c 1629 b9bb e3b9 283c
0.04193366 0.02794739 -0.02117902 -0.0154988915 -0.01925674 0.028261602 -0.008968395 -0.004106631
0.033673137 -0.023012785 -0.0023947926 0.0012728764 -0.0002876313 0.009138634 0.00046579004 -0.020523597
-0.009914651 0.017841429 0.015484252 0.035667714 -0.0036270916 0.0109082945 -0.03159939 -0.0017446893
-0.020970613 0.005046554 0.051827192 0.02715428 -0.004241936 -0.023790743 0.012928501 -0.022092039
0.020851234 0.029020455 0.080530174 -0.020611582 -0.0090858685 0.00085795554 0.0011355437 -0.015628591
0.05689289 0.09329904 0.0574011 -0.012078048 0.0020939966 0.0015590609 -0.0029047425 0.007682595
0.015086358 0.037135616 -0.004145415 -0.015076768 -0.016181594 -0.020930938 0.03315104 -0.006388264
0.014444601 0.062170617 -0.008377932 -0.019378388 0.027747344 -0.025110092 -0.021017356 0.043366548
0.012984773 -0.02187666 -0.018658932 -0.020520931 0.078545235 0.08239158 0.08595602 -0.034302372
0.059803087 0.0030169825 0.0099788 -0.013635924 -0.017193234 0.0061555267 0.011869508 -0.011361663
-0.009886164 0.031132426 -0.004895092 0.04645518 0.0002831228 0.045610506 0.019117942 0.06420804
0.02596168 -0.00018000846 0.005918399 0.07097019 0.07158945 -0.0023490412 0.049738128 0.0020371184
0.019121144 0.011197778 -0.0055215517 0.058907222 0.0005846582 -0.02489256 -0.020415304 0.019129658
0.04775715 0.0070995484 0.012030856 -0.0063263136 0.0031671326 0.037859067 0.016518021 -0.0037362697
-0.01505183 0.024138432 0.004107993 -0.018656641 -0.012196939 -0.0147319315 0.008570056 -0.013156114
-0.013575157 -0.0056123533 -0.0099337185 0.0792792 0.005294083 0.0268284 -0.00565065 0.010298225

action_model._continuous_distribution.log_sigma f4 [1, 2]
00000000: 6c9e 92bd 6f63 8ebd
-0.07159123 -0.06952559

action_model._continuous_distribution.mu.weight f4 [2, 128]
00000000: c648 54bd c99b 163d b121 cf3c 68a1 a63c
00000010: b829 f33c 4c06 60bd 5cc1 21bd d776 edbc
00000020: 27b6 93bc 8dc1 a53a f3ea 04bd 47b4 f03c
00000030: 15ad a03b 2d88 a7bc ef58 e5bc 4d76 96bc
00000040: 1bca 78bc da44 87bd e472 aebd a7b2 6b3d
00000050: 77b1 1abb 258c 16bc 97e9 d93b f001 a23a
00000060: 2859 893c 7add 513b 41b7 5b3d 4441 d73c
00000070: 3934 c13c a9d1 3c3c 89ed 70bc 9d15 5d3a
00000080: ae3d 303d ecbf c23b 9229 9abd 77b5 863b
00000090: d76e c73c e5f7 013d ad14 5e3d 5b43 b73c
000000a0: 997c a83c 9e3f 01be ac5b de3c 5aff bbbb
000000b0: 52bf 983c 6776 813d 48f6 aab9 1a18 2e3d
000000c0: 541f 23bd 7100 263c e1ef 1a3d 9c97 a5bc
000000d0: 689d f6ba 0f77 edbb 9c23 6bbd c146 413d
000000e0: 5ee0 0c3d eb06 debd 9a3f 2abc 884e c43c
000000f0: 4866 bebd dad3 983c bd98 03bc a8a0 62bd
00000100: 2b6c 80bb 86b3 ab3c 4991 033d 57d9 8f3c
00000110: b546 8a3c 776f 7dbb 1a7e 85bc 01b0 3a3b
00000120: c2e4 a63c 74a0 64bd c8b3 cc3b f49d 5d3c
00000130: 608b 86bc 1b0e a5bc df4d 113b f3db 513a
00000140: 1468 a0bc 6a59 95bc bddf 223d 81ff e9bd
00000150: cdba 19bb 3786 1abd 8109 523d 893a 3bbd
00000160: 1d61 143d 6953 f23b 7e90 98bc 7622 63bd
00000170: cd0d 813d 22c0 e0bc 26c2 d5bc 6f8e 153d
00000180: be4e 943d 6854 1cbd ab32 443c cf62 5d3d
00000190: 5959 153d e961 173c dac7 973c 7ff6 d23c
000001a0: 2ab5 0abd b996 103c bb25 f1bb 21fd 42bc
000001b0: 6b6d 023c 89b2 003e 9edb 73bc 5fe8 8d3c
000001c0: 98c4 babb 3406 373d 8252 983d 1f4c 56bc
000001d0: a0f5 ab3a 0e6a dcbc 6f91 debc 8242 bb3b
000001e0: e16b e23b a4e8 22bc 910f 48bc bfde a2bb
000001f0: 7131 58bc ced8 bd3c 875b acbc 8315 56bc
00000200: 38c5 91bc 3490 acbc 03f8 8b3c c1ae 8d3c
00000210: d3a7 b23c 4c45 d8bc cad7 ba3c 904e 66ba
00000220: ce75 4abd 6f6f d63c 4593 16bd dfae 7ebb
00000230: 00f0 1bbc 0dff 00bd 2624 82bc ba05 173b
00000240: 2dc7 94b9 a8be 2a3d 61af 05b7 5c21 5ebd
00000250: a8da 1cbc f320 45bc d7ce 9b3c e9dc 3ebb
00000260: d160 a73c 8917 fdbc 68c7 e8bd aa8e 8abc
00000270: e8f2 a93c d862 163c 922e 9cbc 3b4d 253c
00000280: 2e20 2c3d b9e0 5dbd c9bb 0abd 7a7e 5a3c
00000290: 665a 0bbb 59a7 483b 67e8 113d b258 813c
000002a0: 3eac 053e ba2d 25bc be0c b6bd b327 3c3d
000002b0: 1f9d 8d3c 0337 713c 90a5 f8bb 220c bf3c
000002c0: a631 2bbc ff22 7fbd 2273 aa3c 3577 1a3d
000002d0: ef3e 2bbb 0ae2 813b 403b 4f3b 42be 4fbc
000002e0: 2027 07bc 244a 503d 3d12 4d3c 6c72 143d
000002f0: 90de 383d 802e 9f3b 757c d43b 7c45 b1bc
00000300: 9e9e 22bc 8913 b53c 0b68 f73c f816 743c
00000310: cc23 ecbd 3443 60bd 9fd2 c5bd ada4 e03b
00000320: 8e0f 9dbd 0f60 e73c 5aa7 d7bc 88eb d83c
00000330: cf3a 2f3d 0590 17bc d9f5 50bc 4ac2 373d
00000340: 1565 483d ccd3 d5bc 03f5 943d b035 8cbc
00000350: c6ce 29bb 0ec5 77bd badc 27bd fbb1 66bd
00000360: bc10 6dbd a9a8 64ba be75 bfbb 7de0 c8bd
00000370: 54c2 babd ce9b b03b a860 49bd 22ba 9bbc
00000380: 4269 0bbd 37ef 20bc a0d9 41bb 3f10 92bd
00000390: 5773 89bb 3608 d63b 9a33 483c 0123 fcbc
000003a0: 6010 19bd 2e98 48bc 12b2 dfba 8220 6d3d
000003b0: 5fb2 53bc 59d4 81bc 5e0a 1bbc f40e 41bc
000003c0: 9d7b bc3b 706e 15bd ac4e 193d 2970 ee3c
000003d0: a393 29bb cd2a 9a3c 9027 78bc d2d5 77bb
000003e0: 792e d03c f106 99bb cf1d 563d 0901 a7bd
000003f0: b7f0 5fbb 80d4 13bd 8de3 883d ec32 48bc
-0.051827215 0.036769662 0.02528462 0.020340636 0.029682979 -0.054693505 -0.039491042 -0.028987331
-0.018031193 0.0012646184 -0.032450628 0.029382838 0.0049034455 -0.020450676 -0.027996508 -0.018366957
-0.015184904 -0.06604929 -0.085180074 0.057543423 -0.0023604312 -0.0091886865 0.0066501605 0.0012360197
0.016766146 0.003202288 0.05364156 0.026276238 0.023584472 0.011524596 -0.01470507 0.00084337016
0.043027572 0.005943289 -0.0752746 0.0041109878 0.024344845 0.03173055 0.054218937 0.022370985
0.020567225 -0.12621924 0.027143322 -0.0057372274 0.018645916 0.063214116 -0.0003260842 0.042503454
-0.0398248 0.010131941 0.037826423 -0.020213895 -0.0018815221 -0.007246859 -0.057407007 0.047186617
0.03439366 -0.10841163 -0.01039114 0.023963228 -0.09296852 0.018655706 -0.008032021 -0.055328995
-0.0039191446 0.020959627 0.032120977 0.01755969 0.016879419 -0.0038671175 -0.016295481 0.0028486254
0.020372752 -0.055817083 0.0062470175 0.0135264285 -0.016423881 -0.020148328 0.002217166 0.0008005492
-0.019580878 -0.018231113 0.039764155 -0.11425687 -0.002345729 -0.037725653 0.051278595 -0.04571012
0.036225427 0.007395197 -0.018623587 -0.055452786 0.063014604 -0.027435366 -0.026093554 0.03651279
0.072415814 -0.038166434 0.011974971 0.05404931 0.03646216 0.009239652 0.018527914 0.025752304
-0.033864178 0.008824998 -0.007359234 -0.011901171 0.007960658 0.12568106 -0.014883904 0.017322717
-0.0056997053 0.04468365 0.07437612 -0.013079672 0.0013119467 -0.02690604 -0.027168958 0.0057147155
0.006909833 -0.009943161 -0.012210743 -0.004970401 -0.0131953815 0.02317467 -0.021039737 -0.013066652
-0.017794237 -0.021064855 0.017086035 0.017295243 0.02180854 -0.02640023 0.022807974 -0.00087855104
-0.049428754 0.026176183 -0.03676154 -0.0038861556 -0.00951767 -0.031493235 -0.015886378 0.0023044185
-0.00028377157 0.04168573 -7.968251e-06 -0.054231033 -0.009573616 -0.0120317815 0.019019527 -0.0029123372
0.020431908 -0.030895011 -0.11366159 -0.01691373 0.02074571 0.00917884 -0.019065175 0.010089214
0.042022876 -0.05416939 -0.033870492 0.013335818 -0.0021263598 0.0030617325 0.035622027 0.015789364
0.13053986 -0.010081703 -0.08889149 0.045936298 0.017286835 0.0147225885 -0.007588096 0.023321215
-0.010448849 -0.062289234 0.020806853 0.03771134 -0.002613004 0.0039637135 0.003162101 -0.012679638
-0.008249074 0.050851956 0.012516555 0.036241934 0.045134127 0.004857838 0.006484563 -0.021639578
-0.009925513 0.022104042 0.030200979 0.014898054 -0.11530265 -0.05475159 -0.096593134 0.0068555684
-0.076689824 0.028244046 -0.026324917 0.026479498 0.042780694 -0.0092506455 -0.012753927 0.044863023
0.048924524 -0.02610197 0.07273295 -0.017115444 -0.00259106 -0.06049066 -0.040981986 -0.05632208
-0.057877287 -0.0008722642 -0.0058428934 -0.09808443 -0.091190964 0.005389667 -0.049164444 -0.019009653
-0.03403593 -0.009822658 -0.0029579177 -0.07132005 -0.004194658 0.0065317405 0.012219334 -0.03077841
-0.037369132 -0.012243314 -0.0017066619 0.05789233 -0.012920945 -0.015848326 -0.009462921 -0.01178335
0.0057520405 -0.036482275 0.037428543 0.029106217 -0.0025875352 0.018819237 -0.015146151 -0.0037816656
0.025412785 -0.004670017 0.05227452 -0.08154494 -0.0034170577 -0.036091328 0.06684027 -0.012219172

action_model._continuous_distribution.mu.bias f4 [2]
00000000: 8538 c0bb 1250 9fbc
-0.0058661127 -0.01944736

exp_avg f4 [128, 8]
00000000: b3b2 9a37 de14 beb8 5a68 3db9 901f 41b7
00000010: 2d9c 3639 a824 f9b8 1510 75b8 c33b 0ab7
00000020: 4c37 053a 0d1c 31b9 20ce f339 19b4 06ba
00000030: 4e22 5739 370e 0bb9 abf4 01b8 f972 11ba
00000040: bea5 0439 e475 fc37 0e0b 3a39 522d 1738
00000050: 984f 4fb9 c5aa 1639 ee79 7a39 d1a4 cd38
00000060: a72c acb8 da33 74b9 71ff 49b9 48ea b3b8
00000070: 57bc 1b39 8c9c 1fb8 d243 8738 c245 d237
00000080: 7beb a0b8 6fd3 94b9 4708 6039 1724 a4b9
00000090: cfee 3039 9d71 6b37 f6e1 a9b8 82be 9db9
000000a0: 4b43 34b9 1482 bfb7 9c8f 9f38 140c bbb8
000000b0: ed42 33b7 7167 0e38 888e 3eb7 f89c 60b8
000000c0: 5490 6138 09c0 8cb9 ec1f 6939 e4d6 53b9
000000d0: e7b2 9539 8a7f 35b7 f5ff 7b37 66a1 ef35
000000e0: 37c5 8138 13d5 d038 d4fb efb9 7512 cd38
000000f0: 73ea ce39 047c 7eb9 274e f9b8 811a 3f39
00000100: 81e7 2c39 4285 f537 f9f0 9339 1a6d 2e39
00000110: 5913 00ba b440 22b9 b571 3db8 24ef 93b9
00000120: 2b51 dab8 4026 bf36 b340 48b8 345c 52b7
00000130: d6a0 8338 f363 7838 3e25 14b9 e37b 5cb8
00000140: a32d 51b8 afe0 1e39 0f29 4c39 f8cd d738
00000150: 8aac 9fb9 a221 3c39 5c8a 8e38 5a28 6d38
00000160: 5f10 2b38 f596 1d38 20c6 73b8 04e6 b438
00000170: c04c d9b8 30dd 0038 af05 02b6 bd4b 15b8
00000180: 417d 46b9 87b5 f138 2184 2538 4bef dd38
00000190: 542f 30b9 0325 5939 1ff3 6638 4837 0a39
000001a0: cd35 fdb7 6a71 7e39 e06b 03b9 957a 2139
000001b0: c12d 08ba 4ab0 4238 c691 ba39 4358 f937
000001c0: 351a 0d3a 0533 17b9 7454 853a 5eb6 36ba
000001d0: b6c8 cb38 16ff 33b9 440a 6d39 3fc5 29ba
000001e0: 9830 a0b8 d7ce b1b8 4ccb 07b8 e175 09b9
000001f0: 6a92 1c39 232e 80b9 8082 dcb8 4e49 2e39
00000200: 5636 f938 3784 96b9 8489 dc39 3c1b b4b9
00000210: d1e6 023a b80c 1737 75ad c239 3b73 a9b8
00000220: 8b2a 0dba 0a06 8636 777f b3b9 f52c 2439
00000230: bfed cab9 e0f6 c138 a8ec b7b9 e0b7 7939
00000240: f331 4ab8 e84a 7e39 806c c1b8 7407 be39
00000250: 5b59 1ab7 125f 9639 3e32 2ab9 e4b5 1539
00000260: df5b e8b8 7576 1138 6d36 2639 30a2 8eb7
00000270: d3f4 90b8 9808 0e38 5288 28b8 ed89 d4b8
00000280: 2652 17b8 d484 b1b8 14ee e138 f5ab 38b8
00000290: 7667 89b8 38cb a838 f535 8238 ef14 e636
000002a0: 279d bf39 2d25 d6b8 6180 1f39 2874 94b9
000002b0: abe1 94b7 206a 9eb8 bb9b a7b8 ec03 91b7
000002c0: 66d9 f138 f05c c8b8 4729 0b3a 421c 85b9
000002d0: 72b9 56b9 764b b5b7 99bb fd38 cf07 f5b8
000002e0: a5de d5b8 f14e 5ab9 e91b 0639 40e6 08b9
000002f0: b1ae 0fb9 c1ce 3c39 f003 4339 5628 08b7
00000300: da36 77b6 8bd9 d6b7 e8fa 8039 2d8a 18b9
00000310: 8224 2939 2b9e 03b9 ac2d 2238 c0d5 80b9
00000320: 268b af39 66d6 e3b7 e270 8a39 ebd9 44b9
00000330: f976 2539 697c 53b9 1997 dab8 02df 10b8
00000340: 59f3 1eb8 be8c 9eb9 ac8a 0ab9 a511 81b9
00000350: 16c3 4c39 6229 d6b8 3c50 3138 970f 2db8
00000360: 2ffd 42ba b88d 8639 d8f2 56ba d329 0e3a
00000370: cf04 b6b9 083f 0639 4572 f8b8 e07c a739
00000380: 67f0 4239 dc26 4fb8 7f47 b138 e46b 9fb8
00000390: 5819 4038 6b25 1bb8 f1a8 8638 a89f 3fb8
000003a0: d277 c4b8 071f 2638 0982 d937 688d f038
000003b0: 9886 2738 2420 2f39 02cf bdb8 b224 1e38
000003c0: b9f4 0d38 a3ca acb8 e364 6ab9 5bef 0538
000003d0: 05c3 8939 a0cf 1138 183d 4c38 df8f 08b9
000003e0: ada3 0b37 f07c 8bb5 0f6c 09b7 358b c8b8
000003f0: 7b9c 71b9 de9b 2138 93a8 6538 1412 6a38
1.8441444e-05 -9.063793e-05 -0.00018063319 -1.1511045e-05 0.00017415053 -0.00011880073 -5.842753e-05 -8.239355e-06
0.0005081787 -0.00016890485 0.00046502147 -0.0005138531 0.00020516777 -0.00013261368 -3.098386e-05 -0.00055484433
0.00012650245 3.0095638e-05 0.0001774246 3.6043413e-05 -0.0001977071 0.00014368731 0.0002388728 9.805861e-05
-8.209916e-05 -0.0002328897 -0.00019264013 -8.5790234e-05 0.00014852114 -3.805435e-05 6.449934e-05 2.5066434e-05
-7.673256e-05 -0.0002838629 0.00021365388 -0.00031307407 0.00016873631 1.4033544e-05 -8.1006365e-05 -0.00030087313
-0.00017191206 -2.2829547e-05 7.60846e-05 -8.9191046e-05 -1.0684814e-05 3.3951776e-05 -1.1358068e-05 -5.355195e-05
5.3778596e-05 -0.00026845958 0.00022232503 -0.00020202581 0.00028552787 -1.0818136e-05 1.50203605e-05 1.7853861e-06
6.1879335e-05 9.957901e-05 -0.0004577326 9.7785996e-05 0.0003946606 -0.00024269527 -0.00011887802 0.00018225053
0.0001648944 2.9268329e-05 0.00028217564 0.00016634577 -0.00048856955 -0.00015473628 -4.516701e-05 -0.000282162
-0.00010410169 5.6966965e-06 -4.774397e-05 -1.2538443e-05 6.276525e-05 5.9220893e-05 -0.00014128254 -5.2567466e-05
-4.9871986e-05 0.00015151755 0.00019470252 0.000102903636 -0.00030455395 0.00017941606 6.796859e-05 5.6542784e-05
4.0784824e-05 3.7572307e-05 -5.8120233e-05 8.6259126e-05 -0.00010361662 3.0723575e-05 -1.9374818e-06 -3.5594905e-05
-0.00018929412 0.000115255876 3.946212e-05 0.00010582673 -0.00016802299 0.0002070852 5.5062697e-05 0.000131813
-3.0185003e-05 0.00024265578 -0.0001253332 0.00015399822 -0.0005194806 4.6417386e-05 0.00035585294 2.9724213e-05
0.00053826283 -0.00014419488 0.0010172264 -0.0006969924 9.71718e-05 -0.00017165797 0.00022605906 -0.00064762303
-7.638446e-05 -8.4785446e-05 -3.2375843e-05 -0.00013109251 0.00014931863 -0.00024448437 -0.00010514725 0.00016621241
0.00011883366 -0.00028708737 0.00042064127 -0.00034352567 0.0004993501 9.003263e-06 0.000371318 -8.080011e-05
-0.00053850625 3.9942142e-06 -0.0003423651 0.00015657007 -0.00038705577 9.248941e-05 -0.00035080803 0.00023814989
-4.820707e-05 0.00024251232 -9.223167e-05 0.00036245177 -9.19992e-06 0.00028681062 -0.0001623118 0.00014277507
-0.000110797344 3.4681016e-05 0.00015851269 -1.7003244e-05 -6.912057e-05 3.386344e-05 -4.018128e-05 -0.000101346384
-3.6077712e-05 -8.464759e-05 0.000107731816 -4.4029166e-05 -6.55194e-05 8.048717e-05 6.208933e-05 6.856971e-06
0.00036547447 -0.0001021124 0.00015211247 -0.00028315303 -1.774806e-05 -7.5537944e-05 -7.9921876e-05 -1.7287173e-05
0.00011532269 -9.554054e-05 0.000530858 -0.0002538879 -0.00020477714 -2.161202e-05 0.00012098923 -0.00011683965
-0.00010198102 -0.00020819508 0.00012789633 -0.00013055746 -0.0001370262 0.00018006099 0.00018598116 -8.115623e-06
-3.6837796e-06 -2.561209e-05 0.00024601002 -0.00014547324 0.00016130696 -0.00012552056 3.8666345e-05 -0.0002457332
0.00033482275 -2.7160346e-05 0.00026405515 -0.00018773197 0.00015779947 -0.00020168874 -0.00010423194 -3.4539968e-05
-3.789677e-05 -0.0003024097 -0.00013212365 -0.00024617944 0.00019527631 -0.00010212023 4.2274813e-05 -4.1260933e-05
-0.000743824 0.0002566406 -0.00081996387 0.00054231024 -0.00034717328 0.00012802717 -0.00011846846 0.0003194576
0.00018590839 -4.9388836e-05 8.453335e-05 -7.601807e-05 4.579997e-05 -3.6989728e-05 6.421086e-05 -4.568664e-05
-9.3683266e-05 3.960638e-05 2.5928968e-05 0.00011470431 3.9941253e-05 0.00016701274 -9.0507805e-05 3.770431e-05
3.3844935e-05 -8.239343e-05 -0.00022353562 3.1932588e-05 0.00026275977 3.476406e-05 4.8694288e-05 -0.00013023567
8.323154e-06 -1.0392669e-06 -8.190996e-06 -9.5626725e-05 -0.00023041845 3.8530554e-05 5.475485e-05 5.5806784e-05

exp_avg_sq f4 [128, 8]
00000000: 2801 e134 7490 f334 0334 0735 42f4 1135
00000010: 057f ef34 d044 5734 7a95 0635 c5d9 c234
00000020: 308e b235 caa6 cc35 3bf5 e235 e0e8 d935
00000030: 06de f135 fb03 3d35 ebfc c635 418d 4d35
00000040: e148 b735 f1a2 bb35 54dd e935 aa1b 1f36
00000050: c120 e435 b98e 1935 f350 3236 a528 3e35
00000060: 5985 1135 f86f 0835 5117 2635 c976 f034
00000070: 32db 3a35 7862 ad34 dc81 5935 aaed 1b35
00000080: 9d8c 2b35 89fc 7235 58de 5e35 3315 4f35
00000090: 0283 9835 d4b0 cc34 3206 8035 0ab6 fa34
000000a0: 1a18 ba34 a61c 5135 96e8 2235 8245 2c35
000000b0: bb8c 5635 5646 9e34 4f2b bf35 fc46 e934
000000c0: e28d 6135 3cfa 9035 d4c4 8935 60f8 3935
000000d0: ad41 d035 71fb 1035 7129 c135 98d1 1b35
000000e0: dd24 dc35 2e94 2436 01a7 1e36 ff45 3936
000000f0: 2bb4 2b36 beef 8935 51b0 0c36 c8e8 be35
00000100: 3793 2036 8369 4136 3588 6436 bd17 3136
00000110: c3eb 7036 1eca b235 bce6 2636 e6c4 2f36
00000120: 2870 e134 e9e3 2035 6e94 2e35 47f5 6e35
00000130: eeec 5535 c191 5834 2c9f d735 f5ea 9f34
00000140: d44e b335 e693 aa35 79fe 0036 1de7 6535
00000150: 6d3d d335 5c74 5635 76e3 a635 638f a735
00000160: 564b 6a34 0210 3f34 0d8d 6934 5dc1 9134
00000170: ff9c 8834 0a7f 9c33 4e4d 3534 753a fa33
00000180: 4874 e734 3592 ff34 b4fb 1735 04c2 f134
00000190: fb04 3135 a01a c034 c0b7 a135 d634 cd34
000001a0: 2eb8 d735 8bff b135 ae1a eb35 2623 db35
000001b0: 9f44 3836 62dd 5035 458e 4d36 f815 9435
000001c0: e581 5736 7d7f 1b36 9a62 5536 69e4 4736
000001d0: 222a 7236 8626 c635 01bd 7836 020b b835
000001e0: a190 9435 ab14 9635 dda1 be35 2f2a 8f35
000001f0: 31bc c335 da1e 2935 319d a135 f648 6535
00000200: 8215 0236 f7fe ca35 37d1 0d36 6f99 3735
00000210: bbe6 2336 4f39 c035 3a23 3136 49dc b035
00000220: e602 6935 e119 8335 6a17 6f35 96ed e634
00000230: c5ad 6d35 2d9c e734 1175 9f35 97c1 0f35
00000240: 08a6 0036 d933 eb35 afbd 0636 2828 a435
00000250: 0a50 f935 88af a235 4ae0 0136 91c1 8235
00000260: f9a3 4235 0c88 9335 0295 7e35 1494 6835
00000270: 7bdc 9235 a687 fb34 bbe0 dd35 4a1e 4235
00000280: f17f 1834 91b0 0c34 7f06 3034 4b06 8034
00000290: dbc7 7334 a249 0634 6d1c f534 c269 1434
000002a0: b69c c835 9f95 bb35 dc8a ec35 cdd4 1336
000002b0: 41a4 0e36 2050 3b35 dd2c 7436 21c7 6035
000002c0: de24 0436 4a8d ff35 e8ad 2736 2263 1736
000002d0: b26b 2936 3746 8d35 49ad 2636 1f2a aa35
000002e0: 0def c634 d051 e334 9a32 2135 8be3 1535
000002f0: 2688 4935 bfc3 f434 2450 a235 a14c 0d35
00000300: ae77 bb34 80b1 1635 7b16 0335 9fb9 f934
00000310: 0f69 3835 aa7b 6c34 9ccc 3d35 381f 0d35
00000320: 9ff3 2435 9b61 3635 e920 3735 fde0 7b35
00000330: c74b 6035 c033 9334 2f59 7e35 d62b b034
00000340: 85e3 8135 734c 9935 56c9 b835 0c35 2935
00000350: 0a01 b535 84e7 3a35 1c31 8935 678d 8235
00000360: bb43 0b36 2f89 0536 7085 0136 8d89 b335
00000370: 02e1 0f36 248d 8135 ea1b 0936 429c aa35
00000380: 7481 5434 98d0 8934 0ff7 9234 977a b034
00000390: 8e40 bf34 ce68 e733 af08 7935 13a4 8134
000003a0: 5f84 a534 4240 e434 bbdc b634 77a3 8034
000003b0: d71e d434 e079 8434 f864 d234 d43c 6b34
000003c0: 7902 cf35 43a7 f135 def1 0736 7e9a 1d36
000003d0: 362c e835 75dd 3335 75e6 1a36 e447 6f35
000003e0: b56d a234 32b1 e734 3086 e834 df47 1f35
000003f0: 4480 2935 9983 3f34 9244 6635 ed09 8b34
4.1910357e-07 4.536738e-07 5.0367106e-07 5.437215e-07 4.4609638e-07 2.0048469e-07 5.0136407e-07 3.6293764e-07
1.3303415e-06 1.5247726e-06 1.6909684e-06 1.6235535e-06 1.8020517e-06 7.041378e-07 1.4825758e-06 7.6574e-07
1.3655773e-06 1.3980008e-06 1.7424268e-06 2.370895e-06 1.6996856e-06 5.720463e-07 2.6571186e-06 7.083966e-07
5.4210756e-07 5.0826884e-07 6.187375e-07 4.478991e-07 6.960937e-07 3.2295407e-07 8.102777e-07 5.8087846e-07
6.3907083e-07 9.051951e-07 8.3025e-07 7.714436e-07 1.1363011e-06 3.812662e-07 9.538546e-07 4.669858e-07
3.4662736e-07 7.7900256e-07 6.068816e-07 6.417614e-07 7.9926e-07 2.948097e-07 1.4243213e-06 4.345128e-07
8.40255e-07 1.0801664e-06 1.026458e-06 6.9279304e-07 1.5516322e-06 5.4010076e-07 1.4391682e-06 5.8047e-07
1.6402006e-06 2.4524156e-06 2.3641044e-06 2.7607891e-06 2.5585857e-06 1.027707e-06 2.0964255e-06 1.4223851e-06
2.3927548e-06 2.8820657e-06 3.405393e-06 2.6388873e-06 3.5900018e-06 1.3320857e-06 2.4870233e-06 2.6191642e-06
4.199112e-07 5.99363e-07 6.5036045e-07 8.9018835e-07 7.969346e-07 2.0169593e-07 1.6065073e-06 2.9787012e-07
1.3359481e-06 1.2709031e-06 1.922161e-06 8.564546e-07 1.5738602e-06 7.989054e-07 1.2434164e-06 1.2484201e-06
2.1820355e-07 1.7794085e-07 2.175113e-07 2.7149045e-07 2.5446204e-07 7.287424e-08 1.6885062e-07 1.16521655e-07
4.311171e-07 4.760383e-07 5.661816e-07 4.5030913e-07 6.5944886e-07 3.578216e-07 1.2048913e-06 3.822267e-07
1.6072352e-06 1.32619e-06 1.7516629e-06 1.6327001e-06 2.745808e-06 7.780819e-07 3.0630192e-06 1.1033253e-06
3.2113105e-06 2.3171008e-06 3.1796867e-06 2.9786263e-06 3.6085335e-06 1.4763361e-06 3.7064895e-06 1.3712272e-06
1.1068952e-06 1.1181886e-06 1.4203212e-06 1.0666607e-06 1.4583403e-06 6.30023e-07 1.2041183e-06 8.541532e-07
1.9384029e-06 1.5124377e-06 2.1132416e-06 6.839609e-07 2.4423196e-06 1.4321794e-06 2.639556e-06 1.3177133e-06
8.680348e-07 9.767792e-07 8.906851e-07 4.3013705e-07 8.854225e-07 4.3140736e-07 1.1880494e-06 5.355336e-07
1.917013e-06 1.7523954e-06 2.0077966e-06 1.2230639e-06 1.857524e-06 1.2121027e-06 1.9353051e-06 9.74209e-07
7.2509243e-07 1.0991948e-06 9.483921e-07 8.6642217e-07 1.0942016e-06 4.685109e-07 1.6531188e-06 7.231471e-07
1.4202648e-07 1.310275e-07 1.639364e-07 2.3846437e-07 2.2703846e-07 1.250651e-07 4.565549e-07 1.3822049e-07
1.494677e-06 1.3976131e-06 1.7623784e-06 2.2028573e-06 2.1255257e-06 6.9779526e-07 3.6384947e-06 8.3736273e-07
1.9690992e-06 1.9040101e-06 2.4986166e-06 2.2558456e-06 2.524565e-06 1.0525754e-06 2.4836793e-06 1.2678246e-06
3.7054306e-07 4.234157e-07 6.005081e-07 5.5837944e-07 7.5076457e-07 4.5590966e-07 1.2093265e-06 5.2638103e-07
3.4918543e-07 5.613765e-07 4.8834016e-07 4.651492e-07 6.869822e-07 2.2024201e-07 7.070573e-07 5.257202e-07
6.1449276e-07 6.794232e-07 6.8220703e-07 9.383219e-07 8.3556773e-07 2.7418537e-07 9.475215e-07 3.281445e-07
9.677466e-07 1.1421638e-06 1.3767665e-06 6.30346e-07 1.3485853e-06 6.96273e-07 1.0221588e-06 9.726908e-07
2.0752038e-06 1.9898396e-06 1.9300169e-06 1.3376572e-06 2.1439632e-06 9.652326e-07 2.043084e-06 1.2711464e-06
1.9791133e-07 2.567001e-07 2.7374378e-07 3.287175e-07 3.5623492e-07 1.07758396e-07 9.2772365e-07 2.4147502e-07
3.0829958e-07 4.2515063e-07 3.4060744e-07 2.3960794e-07 3.9510516e-07 2.4675592e-07 3.9189013e-07 2.190821e-07
1.5423421e-06 1.8004579e-06 2.0257353e-06 2.348475e-06 1.7298214e-06 6.700496e-07 2.3081932e-06 8.913905e-07
3.0254674e-07 4.315603e-07 4.3311002e-07 5.93367e-07 6.3144057e-07 1.7836136e-07 8.578146e-07 2.589799e-07

exp_avg f4 [128]
00000000: 3122 b8b8 1273 d7b9 d9b4 4c39 f047 08b8
00000010: e8f8 54b9 ad83 1437 bda0 c137 87a2 1db9
00000020: c52e 6db8 7ae2 6bb8 6c46 7139 79af 17b7
00000030: f7ea 2d39 dfc8 2939 3036 f4b9 f503 3837
00000040: 03b5 7239 88bf e2b8 99bb 5fb7 fc1d c9b8
00000050: d6ba d438 c746 6b38 0ba1 fd38 fa52 a239
00000060: 6f99 93b9 704e 5fb9 0088 5e37 bb1c dc39
00000070: ed97 88b8 e0b5 08b8 9692 35b9 b7c7 0039
00000080: 07f1 20b8 cb75 e8b8 3560 2eb8 c759 6c38
00000090: 390d af38 d1a7 8139 d455 3bb9 eaae 67b8
000000a0: 1c55 0eba 0aae 5b38 1dda 85b9 0339 4ab9
000000b0: 18d1 57b9 c862 5638 f8f4 ba39 b99d 5db9
000000c0: 050b f5b7 cad9 14b8 6f73 ec38 fb1e af37
000000d0: 5958 a538 d322 be38 ddf9 a538 cf6d 1839
000000e0: a8a9 18b8 ff49 34b9 39a8 0638 8298 2739
000000f0: 605d 8c39 0bea 6239 daa2 95b8 0ec7 9c39
00000100: 7745 d737 31ba 1fb8 4dc7 a039 c454 1439
00000110: f3dc 9d39 1f8a b4b8 f487 9c37 5ae9 4937
00000120: 77d7 14b9 a9ea 81b9 ff30 0a38 c1b8 9c39
00000130: 7b75 4939 6047 be38 9b1b 1939 f594 22b9
00000140: 4e07 5638 dfa3 beb7 1075 4eb9 d6c6 cf39
00000150: cfa2 be39 f8fa f339 8751 8f38 adb8 8739
00000160: 04ca 75b9 ffd7 7239 df12 9238 dbf5 5f38
00000170: 7687 2339 0890 9f38 e764 35b9 ebfd 0238
00000180: 47c1 a7b8 0208 81b9 1d53 fab8 7f8d 8e38
00000190: 8515 d6b7 f0f0 9338 ad20 8a39 0960 4639
000001a0: a3f7 03b9 5d4e 4a39 8530 af35 9105 1339
000001b0: 0d47 4838 44ae 53b7 ee0d 56b9 0037 b3b9
000001c0: 4976 16ba 8230 9535 2583 98b9 e5c9 99b8
000001d0: 6486 9238 4542 ff38 145c 2bb8 e74f de38
000001e0: 345b 8939 16d6 c039 c1be 07b9 5ca2 e938
000001f0: 1a6f 1439 464c 1838 5fa8 69b9 0297 20b9
-8.780172e-05 -0.0004109373 0.00019522327 -3.2491924e-05 -0.0002031062 8.852146e-06 2.3082242e-05 -0.00015033233
-5.654876e-05 -5.623929e-05 0.00023009785 -9.041157e-06 0.00016586097 0.00016191926 -0.0004657968 1.0968176e-05
0.0002314635 -0.00010812195 -1.3335514e-05 -9.590012e-05 0.00010143749 5.6094283e-05 0.00012093977 0.0003096087
-0.00028152342 -0.00021296158 1.3263896e-05 0.00041983076 -6.513284e-05 -3.259431e-05 -0.00017316113 0.00012281431
-3.8371447e-05 -0.00011084563 -4.1574433e-05 5.6350396e-05 8.347113e-05 0.0002472983 -0.00017865683 -5.5237593e-05
-0.00054295524 5.2375755e-05 -0.00025530244 -0.0001928546 -0.00020581891 5.1113573e-05 0.000356592 -0.00021134959
-2.9211407e-05 -3.548878e-05 0.00011274858 2.0876052e-05 7.884269e-05 9.0663925e-05 7.914354e-05 0.00014536756
-3.639763e-05 -0.00017193703 3.210476e-05 0.00015983175 0.0002677245 0.00021640227 -7.135207e-05 0.00029902946
2.5662344e-05 -3.808196e-05 0.0003066607 0.00014145958 0.00030109994 -8.608796e-05 1.8659957e-05 1.2034865e-05
-0.00014194647 -0.00024779633 3.2947395e-05 0.0002989229 0.00019212619 9.0732006e-05 0.00014601501 -0.00015505015
5.102838e-05 -2.2726073e-05 -0.000196893 0.0003963026 0.00036360926 0.00046535558 6.833957e-05 0.000258868
-0.00023440277 0.00023159383 6.9653375e-05 5.3396314e-05 0.00015595354 7.608539e-05 -0.00017299094 3.1230895e-05
-7.999181e-05 -0.00024610764 -0.0001193641 6.797443e-05 -2.5520809e-05 7.054384e-05 0.00026345756 0.00018918527
-0.00012585385 0.00019293414 1.3052637e-06 0.00014021086 4.7749887e-05 -1.2617154e-05 -0.0002041382 -0.0003418252
-0.0005739672 1.1115483e-06 -0.0002908941 -7.333214e-05 6.986855e-05 0.00012171691 -4.085533e-05 0.00010600668
0.00026198628 0.000367806 -0.00012945665 0.000111405476 0.00014155768 3.631066e-05 -0.00022283335 -0.00015315044

exp_avg_sq f4 [128]
00000000: 8988 5835 5d20 3736 c0cc 2e36 2b91 9335
00000010: 9f35 c135 775e 3d35 521c fb35 c59f 8536
00000020: b5a8 ae36 0387 7d35 875a 2e36 7b13 b134
00000030: 1a75 6e35 6f7e 4f36 5634 ce36 3ae6 1136
00000040: 08ab ac36 9bc2 db35 749f 8636 3d76 cf35
00000050: 3e93 3034 6e06 4f36 db33 8a36 9428 5535
00000060: 9290 3a35 d0df 8a35 dfd1 1236 7444 8736
00000070: 4392 b134 9e3f 3535 2182 3236 ee01 2e35
00000080: 9196 a035 0fa9 1435 053f e634 6144 4437
00000090: dde9 9334 ed5c be36 d508 f836 ab27 b135
000000a0: ec30 8f36 c22f de34 3074 1537 3fa2 d336
000000b0: 5ec8 3e36 84e7 7835 25de ad35 11ee 3336
000000c0: 1f83 ae36 3e27 9535 9790 2d35 3f7e 6136
000000d0: 1627 7235 bf04 b135 dce0 ff34 3eb8 5536
000000e0: c35a 0535 0cc7 4836 44fc 1036 f5b5 0636
000000f0: 6cfd 6e36 ca10 8e36 872d 4134 da53 ca35
00000100: bb03 6236 6351 c135 6111 f036 1b78 8a36
00000110: 7baf 8b35 cf70 3234 12ca 6236 4951 e236
00000120: c1dc d235 b342 a136 3c70 6035 6225 af35
00000130: 99ed 4236 8772 6334 b379 4f36 7fb9 c235
00000140: c4db 5335 cb63 e535 a8ad da35 9b6e 8f36
00000150: 6b3f 3d36 ad76 b535 51d9 3035 6ef4 d535
00000160: a717 b335 e675 1836 643d d335 3003 d934
00000170: 1071 0e36 c830 2135 c11f 3036 e612 9335
00000180: 6bcc fd36 4d26 c735 9953 3036 6081 bb35
00000190: f6e9 8a34 451b 3a35 17ab b435 99e6 3d36
000001a0: 8c79 9c34 a882 e034 40b1 c635 aea0 1935
000001b0: 1426 c336 43bc a234 33c6 1c35 069d 2136
000001c0: 471c 7a36 ce10 0c35 ec91 3936 e82b 7536
000001d0: 8699 aa35 d5ed 0135 5225 0a36 5048 8135
000001e0: 1ee0 9e36 07a8 1036 0dde 6136 2d66 0136
000001f0: 45bd 8936 2e4f 8534 cb2a 2037 fe59 3536
8.0664955e-07 2.7287963e-06 2.60472e-06 1.0994603e-06 1.4395226e-06 7.054545e-07 1.87092e-06 3.9823085e-06
5.205244e-06 9.444631e-07 2.5980714e-06 3.2982993e-07 8.8832314e-07 3.0918998e-06 6.145371e-06 2.1740693e-06
5.14591e-06 1.6373409e-06 4.012074e-06 1.5457114e-06 1.6444844e-07 3.0849146e-06 4.1187573e-06 7.940773e-07
6.9500777e-07 1.0346939e-06 2.1877856e-06 4.0312825e-06 3.3075239e-07 6.752033e-07 2.6599812e-06 6.482286e-07
1.196475e-06 5.538031e-07 4.288669e-07 1.1698431e-05 2.7551042e-07 5.6732592e-06 7.392004e-06 1.3199073e-06
4.2674274e-06 4.138547e-07 8.908144e-06 6.307178e-06 2.8428835e-06 9.27241e-07 1.2954157e-06 2.6811651e-06
5.2008686e-06 1.1112786e-06 6.465793e-07 3.3601098e-06 9.02089e-07 1.3188909e-06 4.7661058e-07 3.1846716e-06
4.9678437e-07 2.9918183e-06 2.160451e-06 2.007347e-06 3.5612275e-06 4.2338843e-06 1.7991088e-07 1.5074577e-06
3.3678796e-06 1.4403307e-06 7.1545805e-06 4.1267026e-06 1.0407379e-06 1.6618581e-07 3.3794245e-06 6.7447877e-06
1.5710467e-06 4.8059387e-06 8.3609825e-07 1.3049396e-06 2.9046553e-06 2.1182687e-07 3.0916242e-06 1.4508113e-06
7.8923426e-07 1.7090873e-06 1.6292806e-06 4.2746083e-06 2.8200109e-06 1.352009e-06 6.5881346e-07 1.5940875e-06
1.3343423e-06 2.271839e-06 1.5738592e-06 4.042172e-07 2.122546e-06 6.004816e-07 2.6244527e-06 1.0957854e-06
7.563785e-06 1.4837802e-06 2.6274704e-06 1.3970239e-06 2.5874732e-07 6.933008e-07 1.3460839e-06 2.829742e-06
2.91457e-07 4.1818316e-07 1.4803736e-06 5.723076e-07 5.8158857e-06 3.031183e-07 5.8402946e-07 2.408227e-06
3.7269363e-06 5.217852e-07 2.7652086e-06 3.6533402e-06 1.2710668e-06 4.8402336e-07 2.0585326e-06 9.632295e-07
4.7348576e-06 2.1555477e-06 3.3656863e-06 1.9281972e-06 4.104952e-06 2.483079e-07 9.546707e-06 2.7023484e-06
