results/3dball_test_slow2/3DBall/3DBall-314578.pt (torch, 451210 bytes, 44 tensors)

network_body.observation_encoder.processors.0.normalizer.running_mean f4 [8]
-0.000279067 -9.167758e-06 -0.07012906 3.02134 0.004645159 0.013013039 -0.13464215 0.00361874
00000000: bd4f 92b9 39cf 19b7 d39f 8fbd a25d 4140
00000010: 6b36 983b a434 553c a2df 09be 6228 6d3b

network_body.observation_encoder.processors.0.normalizer.running_variance f4 [8]
152.7139 152.07332 152764.48 6630.644 173890.48 60050.83 73949.555 64260.348
00000000: c2b6 1843 c512 1843 1f2f 1548 2735 cf45
00000010: 9fd0 2948 d492 6a47 c76e 9047 5904 7b47

network_body.processors.0.normalizer.running_mean f4 [8]
-0.000279067 -9.167758e-06 -0.07012906 3.02134 0.004645159 0.013013039 -0.13464215 0.00361874
00000000: bd4f 92b9 39cf 19b7 d39f 8fbd a25d 4140
00000010: 6b36 983b a434 553c a2df 09be 6228 6d3b

network_body.processors.0.normalizer.running_variance f4 [8]
152.7139 152.07332 152764.48 6630.644 173890.48 60050.83 73949.555 64260.348
00000000: c2b6 1843 c512 1843 1f2f 1548 2735 cf45
00000010: 9fd0 2948 d492 6a47 c76e 9047 5904 7b47

network_body._body_endoder.seq_layers.0.weight f4 [128, 8]
-0.86962754 -0.2634875 -0.09786129 -0.58093184 0.020330632 -0.1881618 0.58975726 0.5044109
0.24251306 -0.08906851 -0.10177069 -0.0069641774 -0.37701815 -0.72274077 0.1836409 -0.33606803
0.06342488 0.5013462 0.37994727 0.09896107 0.7961076 0.6358497 0.075931266 -0.2019905
0.19131704 0.8296048 -0.4035362 0.29305568 -0.023161454 0.36835736 0.10765703 0.21003531
-0.10074367 0.4465383 -0.10643364 0.65930414 -0.6148053 -0.8071866 -0.06261011 0.3890686
0.23010558 -0.35907018 0.029732486 -0.4472404 0.2046613 0.81321573 -0.30821773 -0.14661303
-0.339711 0.5782209 0.50876087 -0.29349506 -0.3550092 -0.22933622 0.036976356 -0.027631974
0.5208184 -0.22161673 0.13335067 -0.20648296 -0.43557623 -0.32314005 0.51460505 0.15127642
0.035190497 -0.07225306 0.0886556 0.014176763 0.34407407 0.23726138 0.23453015 -0.28647915
0.55045533 0.18287566 -0.35432786 0.42018074 -0.07045937 0.06289088 -0.0059036817 0.38336322
-0.035188753 0.36163762 -1.3122233 0.042843487 -0.51426166 -0.12426268 -0.13888045 -0.25745866
0.29222006 -0.19084893 0.5484457 -0.8434428 0.54410934 -0.045204144 0.29047993 0.52784425
0.120550506 -0.40787628 -0.08476837 -0.2576092 0.26721328 0.25871924 -0.14004552 -0.23406523
0.650016 0.19182338 0.017399106 -0.4113032 0.004868712 -0.4861445 -0.5647233 0.630633
0.5187802 0.11477058 0.29029045 0.3340237 0.012184717 -0.091297925 0.4203939 -0.009154139
0.97858304 -0.03762486 0.45856565 -0.1678365 -0.2669338 0.13586377 0.5435235 0.2640888
-0.36197937 -0.7351158 -0.21864338 0.08581431 -0.23126158 -0.45773715 0.36691275 0.048157424
-0.15274477 0.18588905 0.0880631 -0.042179536 -0.25454128 0.39828858 0.2807752 -0.0026477792
-0.38114324 0.29626742 0.20020291 0.7315595 0.51091915 0.021816008 0.49606273 0.16661417
-0.47266778 -0.895908 0.22040926 0.2524829 0.17242676 0.25336027 -0.29830375 -0.41175053
-0.29459283 0.7165612 0.17101005 0.30931643 0.48620185 -0.11879886 0.16678277 0.29435238
-0.02951125 -0.2643289 -0.2445263 0.14643905 -0.37950513 0.08997144 0.8873584 -0.485387
-0.36946836 -0.17242785 -0.34113136 -0.07591483 0.24735397 0.13535587 -0.062088255 0.34302208
0.48640093 0.24951322 -0.23637481 -0.30168447 0.45968625 -0.121562235 -0.059283573 0.6042495
0.08380095 -0.2819069 0.20063014 -0.86434764 -0.2495407 0.03821381 -0.52670324 -0.15798129
-0.0063367463 0.14729254 -0.2533336 0.31191146 0.39444804 -0.111798614 -0.43766284 0.104915895
-0.5546156 -0.72823185 -0.29258263 0.15161867 0.37092605 -0.048520688 0.19183537 -0.075863615
0.24296977 -0.21763799 0.006770713 0.040779226 -0.2701584 -0.16381854 -0.2832638 0.650969
-0.21047145 0.14244336 -0.027116196 0.24416023 -0.34174272 -0.26587284 -0.40889788 0.06439435
0.13195579 0.044934083 0.54211706 -0.6528837 -0.30236462 -0.25000167 0.4813562 1.040476
-0.5349471 0.083973855 -0.69904166 0.14771256 0.047274735 0.43922344 -0.2949472 0.46100146
-0.48495573 0.31339934 0.76379144 -0.46014246 0.057371747 -0.3017973 0.27741903 -0.49008638
00000000: e99f 5ebf d5e7 86be 806b c8bd f3b7 14bf
00000010: 6d8c a63c 7dad 40be 55fa 163f 1321 013f
00000020: 5855 783e 8d69 b6bd 276d d0bd c133 e4bb
00000030: 8608 c1be 8a05 39bf 5c0c 3c3e 1c11 acbe
00000040: e7e4 813d 3958 003f 7388 c23e 1aac ca3d
00000050: b5cd 4b3f 0cc7 223f da81 9b3d 99d6 4ebe
00000060: 9de8 433e fb60 543f 4c9c cebe 650b 963e
00000070: 17bd bdbc 5699 bc3e 4a7b dc3d 7f13 573e
00000080: b252 cebd aba0 e43e e1f9 d9bd 28c8 283f
00000090: e163 1dbf c8a3 4ebf bb39 80bd 0034 c73e
000000a0: cca0 6b3e 0cd8 b7be 8b91 f33c b2fc e4be
000000b0: bb92 513e e82e 503f b7ce 9dbe ba21 16be
000000c0: 9aee adbe 4906 143f 273e 023f fc44 96be
000000d0: c4c3 b5be 1dd7 6abe 8574 173d 735c e2bc
000000e0: 5b54 053f 7fef 62be 148d 083e 4570 53be
000000f0: d903 dfbe 9d72 a5be 28bd 033f 35e8 1a3e
00000100: e923 103d 6af9 93bd 1191 b53d a745 683c
00000110: 7a2a b03e a6f4 723e ac28 703e 65ad 92be
00000120: a4ea 0c3f c243 3b3e 766a b5be ee21 d73e
00000130: 014d 90bd efcc 803d ac73 c1bb 2f48 c43e
00000140: 1522 10bd 9128 b93e eff6 a7bf a77c 2f3d
00000150: a7a6 03bf 6f7d febd ad36 0ebe 9fd1 83be
00000160: de9d 953e e76d 43be f066 0c3f deeb 57bf
00000170: c04a 0b3f fb27 39bd c9b9 943e cd20 073f
00000180: 2fe3 f63d 29d5 d0be 0a9b adbd 5ae5 83be
00000190: 2ed0 883e d976 843e 1868 0fbe ccae 6fbe
000001a0: 7367 263f 596d 443e 9288 8e3c 5596 d2be
000001b0: b789 9f3b efe7 f8be b591 10bf 2a71 213f
000001c0: c7ce 043f d60c eb3d f3a0 943e 2805 ab3e
000001d0: 68a2 473c 68fa babd df3d d73e 3efb 15bc
000001e0: 6b84 7a3f 861c 1abd 1ec9 ea3e 55dd 2bbe
000001f0: 8cab 88be df1f 0b3e 5b24 0b3f a636 873e
00000200: 5c55 b9be 8d30 3cbf 0de4 5fbe 6abf af3d
00000210: d6cf 6cbe 865c eabe fddb bb3e b840 453d
00000220: 2069 1cbe b359 3e3e 6d5a b43d 73c4 2cbd
00000230: 3c53 82be 7bec cb3e c4c1 8f3e 5d86 2dbb
00000240: 3525 c3be 5db0 973e fe01 4d3e 7c47 3b3f
00000250: 99cb 023f 7cb7 b23c effb fd3e e89c 2a3e
00000260: 8301 f2be 3a5a 65bf f7b2 613e 7045 813e
00000270: a490 303e 70b8 813e 45bb 98be f7d0 d2be
00000280: dfd4 96be 8e70 373f 421d 2f3e b95e 9e3e
00000290: 73ef f83e d14c f3bd 1ac9 2a3e 5bb5 963e
000002a0: 94c1 f1bc 1e56 87be 1a65 7abe 1ef4 153e
000002b0: 7f4e c2be f242 b83d ec29 633f a584 f8be
000002c0: f52a bdbe ed90 30be c5a8 aebe 3c79 9bbd
000002d0: 5c4a 7d3e bb9a 0a3e 4150 7ebd 97a0 af3e
000002e0: 8b09 f93e 6580 7f3e 3d0c 72be 6376 9abe
000002f0: ff5b eb3e 9ff5 f8bd 55d3 72bd 18b0 1a3f
00000300: d59f ab3d 1a56 90be fd71 4d3e e345 5dbf
00000310: 9987 7fbe 1686 1c3d 06d6 06bf d9c5 21be
00000320: 7ba4 cfbb dbd3 163e f1b4 81be dcb2 9f3e
00000330: 18f5 c93e acf6 e4bd 5815 e0be 25de d63d
00000340: 4afb 0dbf 676d 3abf 64cd 95be ed41 1b3e
00000350: 05ea bd3e a1bd 46bd 7e70 443e 625e 9bbd
00000360: 11cd 783e 7edc 5ebe dbdc dd3b 1e08 273d
00000370: 3452 8abe 0cc0 27be f407 91be e8a5 263f
00000380: d485 57be acdc 113e c922 debc 2405 7a3e
00000390: e7f8 aebe 7c20 88be 105b d1be 2fe1 833d
000003a0: 6b1f 073e cd0c 383d 2fc8 0a3f 6323 27bf
000003b0: 89cf 9abe 3800 80be 5274 f63e 512e 853f
000003c0: 4bf2 08bf 7cfa ab3d 65f4 32bf f641 173e
000003d0: 27a3 413d e5e1 e03e 5203 97be 6208 ec3e
000003e0: 1e4c f8be e175 a03e d687 433f cb97 ebbe
000003f0: a3fe 6a3d 2d85 9abe de09 8e3e 9aec fabe

network_body._body_endoder.seq_layers.0.bias f4 [128]
-0.09586978 -0.057533674 0.014205271 -0.0008089304 -0.019616328 -0.05985628 0.0070799277 -0.029385965
0.016915306 -0.021094618 -0.076998614 -0.13606519 -0.044892907 -0.013363028 0.030108439 -0.053892314
0.0009628894 -0.017273985 0.04468552 -0.015988065 0.039645966 -0.023421714 -0.016868204 0.027054675
-0.054153796 0.02644085 -0.0039640246 -0.06529731 -0.0034599642 0.012456335 -0.027642282 -0.047168143
-0.011764931 -0.0040516644 -0.05252542 -0.050624195 0.0043829293 -0.00879753 -0.057835598 0.0033065705
-0.006718288 0.0028669285 0.015694339 0.008402745 -0.048270855 -0.0062035336 0.007698878 -0.03265017
-0.066872574 -0.008749045 -0.04083423 0.013797537 -0.023633545 -0.038364496 -0.015178241 0.015738612
0.027950322 -0.061205763 -0.041066095 0.0149277495 -0.043221917 -0.053855155 0.047327377 -0.0016723577
-0.010867642 -0.038807504 0.00422179 0.053714324 -0.016583586 -0.0038111475 -0.008501195 -0.044352688
0.017152973 0.019154657 -0.0568922 -0.03634134 -0.014302357 0.017035117 -0.043812785 -0.016643686
-0.018611213 -0.020140676 -0.022729859 -0.03037939 -0.07969669 0.010511695 -0.0070603853 -0.023969295
-0.05276708 0.016404673 -0.0008409364 -0.037008163 -0.007939914 0.05229251 -0.06902928 -0.049137484
0.027072884 -0.021329105 0.018142255 -0.00643705 -0.00071952504 -0.025779495 0.01641196 -0.011359954
0.003476333 -0.050438445 -0.04039955 0.026200144 -0.0109883305 -0.025826797 -0.03124287 -0.023165327
0.0035847228 0.013946245 0.035747934 -0.011759155 -0.030059086 -0.057503965 0.004653239 -0.0016823714
-0.030523714 -0.052038025 -0.0013080381 0.030540787 -0.061236624 -0.042095285 -0.040555984 -0.04900807
00000000: 6057 c4bd 6ea8 6bbd 3abd 683c 660e 54ba
00000010: 6cb2 a0bc dc2b 75bd bdfe e73b d6ba f0bc
00000020: f891 8a3c 9fce acbc 73b1 9dbd ac54 0bbe
00000030: a0e1 37bd 9af0 5abc f9a5 f63c 30be 5cbd
00000040: 6a6a 7c3a 2c82 8dbc 2a08 373d 67f9 82bc
00000050: cf63 223d e5de bfbc 302f 8abc c4a1 dd3c
00000060: 5fd0 5dbd 7b9a d83c a6e4 81bb 99ba 85bd
00000070: 91c0 62bb a815 4c3c 1172 e2bc 6233 41bd
00000080: b2c1 40bc d3c3 84bb e524 57bd 515b 4fbd
00000090: ad9e 8f3b 8423 10bc 05e5 6cbd 0cb3 583b
000000a0: 1625 dcbb 14e3 3b3b 6a91 803c abab 093c
000000b0: a9b7 45bd 0347 cbbb df46 fc3b 2fbc 05bd
000000c0: 7df4 88bd 2858 0fbc cb41 27bd 110f 623c
000000d0: 239b c1bc 1724 1dbd 28ae 78bc 43ee 803c
000000e0: 13f8 e43c e5b2 7abd ec34 28bd 8593 743c
000000f0: 7709 31bd 3997 5cbd 5ada 413d 0333 dbba
00000100: 320e 32bc 9ef4 1ebd f156 8a3b 8d03 5c3d
00000110: 4dda 87bc 72c4 79bb 9948 0bbc 2aab 35bd
00000120: 6484 8c3c 3aea 9c3c cc07 69bd a8da 14bd
00000130: 6f54 6abc 3b8d 8b3c 0975 33bd 5758 88bc
00000140: 8b76 98bc 0ffe a4bc f833 babc 33de f8bc
00000150: 0538 a3bd 3f39 2c3c ce5a e7bb 415b c4bc
00000160: 4b22 58bd 1863 863c 4972 5cba df95 17bd
00000170: 6a16 02bc ac30 563d 395f 8dbd 6344 49bd
00000180: f4c7 dd3c 60ba aebc 119f 943c e4ed d2bb
00000190: 829e 3cba 852f d3bc 6072 863c 1a1f 3abc
000001a0: 31d3 633b 8b98 4ebd 007a 25bd afa1 d63c
000001b0: 6608 34bc b892 d3bc 0cf1 ffbc 36c5 bdbc
000001c0: abed 6a3b cb7e 643c 6d6c 123d 79a9 40bc
000001d0: 793e f6bc 4789 6bbd 337a 983b 0483 dcba
000001e0: de0c fabc d325 55bd 7a72 abba ac30 fa3c
000001f0: 41d3 7abd 1b6c 2cbd 081e 26bd b0bc 48bd

network_body._body_endoder.seq_layers.2.weight f4 [128, 128]
0.038991865 0.08719839 0.18793792 0.058015704 0.096130244 -0.12104811 -0.13111608 -0.04418558
-0.068118684 0.0835381 -0.09664785 0.024073651 -0.018166082 0.1655338 -0.02069304 0.035584174
-0.1200404 -0.03481395 0.07200864 0.13619797 -0.13755983 -0.103995964 0.08890308 -0.07917978
-0.029284952 -0.05564886 0.22401725 0.092040755 0.07978592 -0.04346471 -0.21405686 -0.029966954
-0.06291558 0.09254947 0.1362492 0.29418427 0.043313067 0.02523903 -0.11460693 -0.07066746
-0.016277518 0.11828935 -0.18961996 -0.0862785 -0.053486656 -0.018683238 -0.08112879 -0.16185613
0.06820263 -0.04312102 0.19837385 0.013945427 -0.01617298 -0.06932086 -0.015156517 -0.1156883
0.07339683 -0.013054251 0.11527663 -0.11833725 -0.06583813 -0.0017365293 -0.041475262 0.12653293
0.0018748369 0.030387415 0.01518578 -0.19390231 0.15894923 0.098984145 -0.14026491 -0.035796195
-0.018131262 -0.14344996 -0.1560333 0.23213713 0.0045528645 0.08267518 0.1243475 0.036433436
-0.084726445 -0.14397675 0.031616956 -0.030152144 0.020572925 0.095802605 -0.14076239 0.00087691704
-0.029185174 -0.08913576 0.044725254 -0.058539618 0.17678122 -0.0785334 -0.07596282 -0.102397345
-0.067876555 0.2359408 0.01736991 -0.016156837 -0.018053127 -0.08478653 0.00054336846 -0.061471563
-0.041774217 -0.031080661 -0.0035513418 -0.09294737 -0.0032231365 0.019613849 0.011366021 0.05921073
0.16083503 -0.01928632 -0.14219505 -0.012547447 0.00893992 0.038279805 0.009888056 -0.071841955
-0.14351024 -0.047459625 -0.008372469 0.0828283 -0.011839574 0.003467707 0.0073579648 0.04326335
-0.08486271 -0.07088427 0.039134603 0.034147386 0.0712934 0.08576595 -0.028285204 -0.023319429
0.126127 -0.0125998 -0.055765428 -0.15631495 0.07139476 0.06472052 0.14943534 -0.0045833546
0.08762028 0.02212336 0.056774214 -0.03389966 0.054258 0.24966936 0.09831698 0.051219072
0.07446589 0.009552997 -0.070628665 -0.04122648 -0.15458874 0.06409969 0.11475727 0.067442656
-0.06670054 0.021960625 0.079745345 -0.095616534 -0.11600426 0.08865684 -0.20475154 0.050633226
0.14973933 -0.15070157 -0.093866356 0.14273502 0.06566119 -0.1257207 -0.1125054 -0.009459127
-0.047973678 0.061212316 -0.10320279 -0.115471125 -0.109692164 -0.09489107 -0.069354266 -0.043642886
-0.078193195 0.0364236 -0.024076654 -0.06550235 -0.019080926 0.0413506 -0.043753937 -0.024668438
0.014290088 -0.023931649 0.08163329 0.024528189 0.107161045 0.0032608325 -0.09729353 0.1018022
0.052576218 -0.08876656 -0.06868541 -0.09373548 0.09162835 0.017347375 0.036160614 -0.010562456
-0.050173834 -0.08923072 0.034832 0.12985532 0.025940925 -0.18618527 -0.0014224908 -0.014983183
0.011603925 -0.18726547 -0.09803016 0.015734239 0.09872715 0.023919353 -0.0331561 0.04886794
-0.025803966 -0.099124335 0.0019592452 -0.04374116 0.023310248 0.007759006 -0.11184417 0.092977814
-0.011717048 -0.08892528 -0.16443546 0.24188152 -0.048060905 0.056175053 0.016170489 0.010198204
0.17096439 0.09026539 -0.046921328 0.10226714 0.021154609 0.07587269 -0.024122234 -0.08372683
-0.11645865 -0.041270487 -0.06651215 0.0036262372 0.15039945 -0.10717818 -0.009800409 0.043696415
00000000: efb5 1f3d 1295 b23d cc72 403e e0a1 6d3d
00000010: efdf c43d 12e8 f7bd 4b43 06be f0fb 34bd
00000020: cf81 8bbd 0616 ab3d 4fef c5bd 1b36 c53c
00000030: 09d1 94bc b181 293e 7384 a9bc b6c0 113d
00000040: bed7 f5bd 1399 0ebd 4479 933d 7b77 0b3e
00000050: 7cdc 0cbe d6fb d4bd d112 b63d 0229 a2bd
00000060: ffe6 efbc 0ff0 63bd c764 653e dd7f bc3d
00000070: cd66 a33d 0d08 32bd b931 5bbe 427d f5bc
00000080: e2d9 80bd 948a bd3d e984 0b3e 529f 963e
00000090: 0b69 313d 15c2 ce3c 0ab7 eabd 1aba 90bd
000000a0: 6e58 85bc b041 f23d bc2b 42be c8b2 b0bd
000000b0: d314 5bbd 970d 99bc da26 a6bd 9dbd 25be
000000c0: d2ad 8b3d ab9f 30bd 8422 4b3e 5c7b 643c
000000d0: 337d 84bc 18f8 8dbd 0a53 78bc fded ecbd
000000e0: 1451 963d 7fe1 55bc 2716 ec3d cd5a f2bd
000000f0: 24d6 86bd 419c e3ba f7e1 29bd d991 013e
00000100: 16bd f53a 07ef f83c c7cd 783c 548e 46be
00000110: 96c3 223e 33b8 ca3d 9ba1 0fbe 089f 12bd
00000120: 0388 94bc 8ce4 12be 32c7 1fbe 5bb5 6d3e
00000130: 3230 953b 9b51 a93d e7a9 fe3d 3a3b 153d
00000140: 0f85 adbd a46e 13be c880 013d a101 f7bc
00000150: 8d88 a83c 2834 c43d 0424 10be e8e0 653a
00000160: bf15 efbc cf8c b6bd d431 373d 3dc7 6fbd
00000170: 2306 353e 1fd6 a0bd 6592 9bbd b3b5 d1bd
00000180: dd02 8bbd 779a 713e 574b 8e3c 585b 84bc
00000190: 27e4 93bc 8fa4 adbd d770 0e3a 9bc9 7bbd
000001a0: 711b 2bbd df9c febc a1bd 68bb 315b bebd
000001b0: 423b 53bb 39ad a03c 8c38 3a3c f386 723d
000001c0: f0b1 243e 58fe 9dbc 949b 11be cf93 4dbc
000001d0: be78 123c 49cb 1c3d 8301 223c e021 93bd
000001e0: 59f4 12be 0665 42bd ae2c 09bc e2a1 a93d
000001f0: c6fa 41bc 7842 633b 151b f13b e934 313d
00000200: 80cc adbd c62b 91bd 9b4b 203d 21de 0b3d
00000210: 4602 923d 0fa6 af3d 5fb6 e7bc 6308 bfbc
00000220: 7027 013e 646f 4ebc 4a6a 64bd 0711 20be
00000230: 6a37 923d 318c 843d 9405 193e f72f 96bb
00000240: 4372 b33d 0c3c b53c 148c 683d 5fda 0abd
00000250: a33d 5e3d 53a9 7f3e 6a5a c93d 17cb 513d
00000260: 9381 983d 2c84 1c3c c3a5 90bd 19dd 28bd
00000270: 834c 1ebe b346 833d dc05 eb3d 601f 8a3d
00000280: 4b9a 88bd c5e6 b33c 8751 a33d 9ad2 c3bd
00000290: a493 edbd b891 b53d 63aa 51be c964 4f3d
000002a0: 4455 193e 8351 1abe 013d c0bd 2129 123e
000002b0: 6079 863d edbc 00be 3b69 e6bd 74fa 1abc
000002c0: 0c80 44bd c4b9 7a3d fc5b d3bd 207c ecbd
000002d0: 49a6 e0bd 4056 c2bd 9c09 8ebd e2c2 32bd
000002e0: c123 a0bd ea30 153d 673c c5bc 1926 86bd
000002f0: 9a4f 9cbc 3f5f 293d 5437 33bd 7715 cabc
00000300: f920 6a3c 4e0c c4bc 5b2f a73d 57ef c83c
00000310: 4077 db3d b1b3 553b d541 c7bd ac7d d03d
00000320: 295a 573d 3ecb b5bd f0aa 8cbd 63f8 bfbd
00000330: a5a7 bb3d 151c 8e3c 271d 143d 270e 2dbc
00000340: 1483 4dbd 99be b6bd 00ac 0e3d cbf8 043e
00000350: 1082 d43c 5aa7 3ebe df72 baba 067c 75bc
00000360: 641e 3e3c 85c2 3fbe 09c4 c8bd 17e5 803c
00000370: 7631 ca3d 85f2 c33c b1ce 07bd c029 483d
00000380: d762 d3bc b301 cbbd ae66 003b ee29 33bd
00000390: 22f5 be3c 433f fe3b 8e0e e5bd 276b be3d
000003a0: dcf8 3fbc 751e b6bd c561 28be caaf 773e
000003b0: 83db 44bd d017 663d f977 843c 5e16 273c
000003c0: 4a11 2f3e 10dd b83d 9430 40bd 6f71 d13d
000003d0: 6e4c ad3c 2463 9b3d fe9b c5bc f978 abbd
000003e0: df81 eebd 3e0b 29bd 8637 88bd 2aa6 6d3b
000003f0: 5002 1a3e 3c80 dbbd e591 20bc 03fb 323d

network_body._body_endoder.seq_layers.2.bias f4 [128]
-0.033427384 0.036480255 -0.027325183 -0.051694307 0.0036281561 0.012657379 0.014744398 -0.034163695
-0.031323414 0.0526334 -0.039734885 -0.002876132 -0.009049392 0.022385966 -0.033241663 0.01834564
0.01634573 0.038210846 0.0022425002 -0.0043547465 -0.026292706 0.015498214 0.0053839963 0.044506833
-0.05260487 0.007845912 0.034392033 -0.0050919615 -0.010594375 0.007589202 -0.009583473 0.02962813
0.021097181 0.029744126 0.008202957 0.007870718 -0.024149194 -0.023505574 0.016491873 -0.007419181
0.009026483 0.01884658 0.01655572 0.016154964 -0.025023293 0.01346459 -0.019854654 -0.019117277
0.000945718 0.014647846 0.03089062 0.027265556 0.04698075 0.031168927 0.04801724 -0.011203462
-0.01958032 -0.0123939505 -0.002353376 -0.04522432 0.024231018 -0.0038263511 0.008328281 0.015817827
0.02223916 -0.029526714 0.0034943717 -0.05104145 -0.0071061784 -0.0047939047 -0.024679756 -0.022586737
0.019081341 0.042493057 -0.019961925 0.01354127 0.0046168086 0.055643424 0.0103425905 -0.0064462307
-0.013649602 0.036870424 0.011897574 -0.00046376447 0.06141614 0.013783156 0.0014366716 -0.0137746455
0.027405186 0.057662003 0.03999373 -0.011147343 -0.027071392 0.003401083 0.003920358 0.0046869987
-0.00918628 0.06988093 0.029949643 -0.022631088 -0.01063522 -0.013955522 0.03518098 -0.0066789263
0.040704668 0.020004347 -0.012292628 -0.045401417 -0.024993366 0.032386176 0.019251736 -0.027865572
-0.035685994 -0.008544942 -0.01122939 -0.03714787 -0.02714865 0.0344003 0.021633169 -0.047500066
-0.043320235 0.00082241115 -0.0112895705 0.012470032 0.029088043 -0.03968274 -0.002176335 -0.04065022
00000000: 27eb 08bd 526c 153d 10d9 dfbc 69bd 53bd
00000010: 5cc6 6d3b e560 4f3c 7d92 713c 3bef 0bbd
00000020: fb4c 00bd 1f96 573d 0cc1 22bd 7d7d 3cbb
00000030: e743 14bc c662 b73c 6928 08bd 9849 963c
00000040: 7be7 853c fa82 1c3d e9f6 123b 43b2 8ebb
00000050: cd63 d7bc 39ec 7d3c 3c6c b03b cc4c 363d
00000060: 3478 57bd 248c 003c a9de 0c3d 78da a6bb
00000070: 0894 2dbc d7ae f83b 0004 1dbc b1b6 f23c
00000080: ffd3 ac3c f4a9 f33c b265 063c 2ff4 003c
00000090: 88d4 c5bc c38e c0bc f719 873c 9a1c f3bb
000000a0: d0e3 133c 2564 9a3c dc9f 873c 6a57 843c
000000b0: a6fd ccbc 959a 5c3c 3aa6 a2bc d69b 9cbc
000000c0: 10ea 773a 85fd 6f3c 530e fd3c 045c df3c
000000d0: e36e 403d fa55 ff3c baad 443d ba8e 37bc
000000e0: e866 a0bc ff0f 4bbc 193b 1abb 233d 39bd
000000f0: 2180 c63c 85c3 7abb 5873 083c 6394 813c
00000100: e62e b63c 02e2 f1bc d401 653b d710 51bd
00000110: f2da e8bb 3016 9dbb 332d cabc d207 b9bc
00000120: 7950 9c3c 330d 2e3d 3187 a3bc 34dc 5d3c
00000130: 9948 973b 5cea 633d f873 293c e73a d3bb
00000140: 95a2 5fbc 7105 173d 0bee 423c 6a25 f3b9
00000150: 7e8f 7b3d bfd2 613c b34e bc3a 0daf 61bc
00000160: d780 e03c fe2e 6c3d 77d0 233d 58a3 36bc
00000170: d3c4 ddbc b4e4 5e3b 5976 803b 6595 993b
00000180: 0d82 16bc bc1d 8f3d f458 f53c d564 b9bc
00000190: 593f 2ebc b4a5 64bc ee19 103d e5da dabb
000001a0: f0b9 263d 28e0 a33c 0567 49bc d6f6 39bd
000001b0: e3be ccbc 5ea7 043d d1b5 9d3c 5746 e4bc
000001c0: 7a2b 12bd 1600 0cbc 7afb 37bc 5d28 18bd
000001d0: d866 debc 54e7 0c3d 0b38 b13c 6e8f 42bd
000001e0: 8f70 31bd 1497 573a e4f7 38bc 1b4f 4c3c
000001f0: 0c4a ee3c 5e8a 22bd d8a0 0ebb d880 26bd

action_model._continuous_distribution.log_sigma f4 [1, 2]
-0.068350226 -0.04256816
00000000: 34fb 8bbd f35b 2ebd

action_model._continuous_distribution.mu.weight f4 [2, 128]
-0.009348455 0.0007963795 -0.023035964 -0.002667213 0.019289004 0.03197204 0.03149094 -0.005371811
-0.002687978 -0.10846033 0.0059482623 0.020607358 -0.031460993 -0.07250775 -0.021226669 -0.018981028
0.044546258 0.034625363 -0.010658603 0.029803835 -0.017185444 -0.07582841 0.013946014 0.043060955
0.0012240366 0.009169687 -0.0847969 -0.01710848 0.008245143 0.013539474 0.01565997 0.016852466
-0.06561051 0.016592896 -0.05792969 0.019134048 -0.013821715 -0.027339961 -0.089642845 -0.062037744
-0.08063918 0.029247629 -0.04527961 -0.043034 8.045933e-05 0.042650342 0.019153694 0.012501534
-0.03157591 -0.0006666804 -0.04672361 0.016010733 0.09836351 -0.042470973 -0.058871493 0.00505314
-0.01985678 -0.02337661 0.016603729 0.0031090544 0.008030556 -0.008538947 -0.04906101 -0.05276573
-0.020295568 -0.013482437 0.0013038953 0.018789578 0.014896399 -0.009028184 0.010439308 0.009495975
0.034615267 0.09597088 0.002103576 -0.0016022174 -0.071847595 -0.16634473 0.022166984 0.0126562035
0.0015917212 0.06126654 -0.023674596 0.008332335 0.041754223 -0.024155319 -0.007612691 0.029044477
0.026292197 0.01562817 0.05357358 -0.008996971 -0.0021203144 -0.015013816 -0.02805075 -0.066965476
-0.0033209512 0.028514093 0.09945737 -0.029132174 0.0024757097 -0.03730812 0.06439747 0.012173229
-0.0383751 0.023909563 -0.03842491 0.0026313972 -0.002955046 -0.026241308 0.039371405 0.01602237
0.004410133 -0.02223296 -0.026367614 0.007817873 -0.025290402 0.06411611 0.02821223 -0.0018867747
-0.003931671 -0.072148085 -0.0020299917 0.060195956 -0.09339802 0.0056624636 0.015558497 0.0020737785
0.018685272 -0.0005033348 0.03433493 0.016054975 -0.002749147 -0.008413993 0.008041352 0.0051425374
-0.007675259 0.12243767 0.008208765 -0.017086891 0.022667764 -0.0661193 0.009233954 0.04691794
-0.014156159 -0.04956205 -0.036094453 0.03262604 -0.0060803215 0.04754407 0.061090227 -0.030364158
0.0033691556 -0.022712113 0.08019721 -0.007866405 -0.0014289451 -0.0125612775 0.06053869 0.08559764
-0.05282805 0.08074938 -0.015935076 -4.5894707e-05 0.032181907 0.006725179 -0.010708499 0.05836939
-0.0003765454 0.05609854 -0.021473223 -0.04305448 0.015021823 0.06965956 -0.008579832 -0.0021123292
-0.024743868 -0.0052734306 -0.036847696 -0.036008503 -0.014649402 -0.06078976 0.12238448 -0.0022745375
0.031875335 -0.0067803636 0.021871865 0.020416528 0.097048365 0.054823756 0.042628124 -0.047271542
-0.04282131 0.010598271 -0.01351192 0.0070987823 0.051215038 0.05360964 0.028838934 0.020395959
-0.027619712 -0.005624207 0.039616957 0.09469094 -0.002512263 0.03356746 0.03777534 0.035211988
0.046529036 0.028210191 -0.028600179 0.0018681744 -0.028459348 -0.034434475 0.0072004483 0.005632699
0.073865056 -0.09230613 -0.047990583 0.021437127 0.028215578 -0.008063652 -0.038721807 0.023164365
-0.012944003 -0.12519738 0.05143268 0.0029777088 -0.004776196 0.0015881569 -0.040963177 -0.02681846
-0.04230792 -0.044786684 0.051465623 0.0025910363 0.010642663 -0.05448929 0.035047725 -0.0085589085
0.008445944 -0.01087782 -0.023105295 0.0012469356 0.02003101 0.0031666583 -0.015796693 0.020911347
0.006242397 0.011247858 -0.0011742146 0.05296353 0.02217435 0.00669612 -0.0116117215 -0.010617214
00000000: 432a 19bc 20c4 503a ebb5 bcbc 69cc 2ebb
00000010: f903 9e3c 1df5 023d a5fc 003d 0406 b0bb
00000020: ca28 30bb 7320 debd a4e9 c23b c3d0 a83c
00000030: 3edd 00bd f17e 94bd 8de3 adbc 1a7e 9bbc
00000040: 2376 363d 53d3 0d3d 6ca1 2ebc 2c27 f43c
00000050: 7dc8 8cbc ed4b 9bbd d37d 643c af60 303d
00000060: da6f a03a 743c 163c ffa9 adbd 1527 8cbc
00000070: a316 073c acd4 5d3c 5649 803c 2f0e 8a3c
00000080: ce5e 86bd d3ed 873c af47 6dbd 02bf 9c3c
00000090: 7974 62bc 0ef8 dfbc ab96 b7bd 4a1b 7ebd
000000a0: 2826 a5bd b998 ef3c 1d77 39bd 6b44 30bd
000000b0: 46bc a838 20b2 2e3d 35e8 9c3c 3cd3 4c3c
000000c0: be55 01bd 2ac4 2eba 4261 3fbd f128 833c
000000d0: cf72 c93d 0bf6 2dbd 3c23 71bd d094 a53b
000000e0: b0aa a2bc 4e80 bfbc 8b04 883c 47c1 4b3b
000000f0: 9892 033c f1e6 0bbc 33f4 48bd e120 58bd
00000100: e442 a6bc 70e5 5cbc 77e7 aa3a 9aec 993c
00000110: 0710 743c f3ea 13bc a209 2b3c 0295 1b3c
00000120: bdc8 0d3d 618c c43d 26dc 093b 7f01 d2ba
00000130: d524 93bd 4656 2abe 8997 b53c f75b 4f3c
00000140: 4da1 d03a a0f2 7a3d 3af1 c1bc 5984 083c
00000150: 7a06 2b3d 60e1 c5bc e173 f9bb afee ed3c
00000160: bc62 d73c a606 803c f86f 5b3d 0868 13bc
00000170: f9f4 0abb 82fc 75bc b0ca e5bc 3225 89bd
00000180: 51a4 59bb 6396 e93c 4eb0 cb3d 99a6 eebc
00000190: 843f 223b 66d0 18bd d2e2 833d 3972 473c
000001a0: 352f 1dbd fddd c33c 7063 1dbd 8573 2c3b
000001b0: 72a9 41bb 03f8 d6bc e943 213d 5841 833c
000001c0: e182 903b e621 b6bc e500 d8bc 8916 003c
000001d0: d12d cfbc 4f4f 833d 561d e73c a74d f7ba
000001e0: 3fd5 80bb 60c2 93bd 9c09 05bb 0990 763d
000001f0: 7647 bfbd 308c b93b 11e9 7e3c 3be8 073b
00000200: db11 993c 3af2 03ba c9a2 0c3d b985 833c
00000210: 082b 34bb d8da 09bc e0bf 033c bb82 a83b
00000220: bd80 fbbb 9ac0 fa3d 0e7e 063c cff9 8bbc
00000230: bfb1 b93c 8e69 87bd 034a 173c 072d 403d
00000240: 3cef 67bc 9301 4bbd c7d7 13bd e2a2 053d
00000250: 6f3d c7bb 92bd 423d bf39 7a3d 41be f8bc
00000260: 0dcd 5c3b c10e babc 6f3e a43d 18e2 00bc
00000270: 714b bbba d1cd 4dbc 6bf7 773d d14d af3d
00000280: 3a62 58bd ee5f a53d 478a 82bc 117f 40b8
00000290: 2dd1 033d e45e dc3b b372 2fbc be14 6f3d
000002a0: 116b c5b9 95c7 653d 9de8 afbc e559 30bd
000002b0: 181e 763c aca9 8e3d 6c92 0cbc 016f 0abb
000002c0: a7b3 cabc becc acbb 9ced 16bd a77d 13bd
000002d0: 0c04 70bc affe 78bd b7a4 fa3d 6810 15bb
000002e0: b68f 023d d02d debb a02c b33c 9040 a73c
000002f0: 4bc1 c63d e08e 603d d49a 2e3d ce9f 41bd
00000300: 6665 2fbd 5fa4 2d3c 1a61 5dbc e79c e83b
00000310: dcc6 513d c895 5b3d a13f ec3c 6d15 a73c
00000320: bc42 e2bc 454b b8bb 6445 223d 53ed c13d
00000330: c7a4 24bb 087e 093d 51ba 1a3d 723a 103d
00000340: 3b95 3e3d 0f19 e73c ec4a eabc 88dd f43a
00000350: 9423 e9bc 2a0b 0dbd bdf1 eb3b 8192 b83b
00000360: 9046 973d ff0a bdbd c691 44bd ea9c af3c
00000370: 5b24 e73c 681d 04bc c29a 1ebd 32c3 bd3c
00000380: 1513 54bc be33 00be 13ab 523d aa25 433b
00000390: a381 9cbb b429 d03a 01c9 27bd 63b2 dbbc
000003a0: 124b 2dbd 3e72 37bd 9ecd 523d 60ce 293b
000003b0: 905e 2e3c 2930 5fbd 348e 0f3d aa3a 0cbc
000003c0: db60 0a3c e238 32bc 5147 bdbc 3770 a33a
000003d0: 1318 a43c b687 4f3b 1168 81bc 464e ab3c
000003e0: 058d cc3b f048 383c 1be8 99ba 49f0 583d
000003f0: fca6 b53c 206b db3b 173f 3ebc d3f3 2dbc

action_model._continuous_distribution.mu.bias f4 [2]
0.022372235 -0.014145518
00000000: fa45 b73c 9ac2 67bc

exp_avg f4 [128, 8]
2.6175043e-05 -1.666802e-05 -6.972414e-06 -0.00010963496 7.6182056e-05 5.3070977e-05 1.9597814e-05 -6.5213935e-05
0.0002862421 -0.00012288358 0.00026444133 -7.2343224e-05 0.0003036901 7.6650955e-05 -5.600272e-05 -5.7142668e-05
0.00046651476 0.0002565947 -0.0005734815 -0.0011662944 -0.000302536 0.0001510283 0.00036999525 0.00033288964
0.0004676336 -8.605711e-05 3.6075788e-05 -0.00086549483 -0.00034704176 6.0364755e-06 0.00028377926 -7.501265e-05
0.0006612123 0.00067686837 0.0005321245 -0.0009707651 -0.0010102316 -0.0006388291 0.00035948367 -0.00016848714
-5.3316213e-05 7.853147e-05 -0.00010687908 -7.009231e-05 -0.00014116813 -5.3317326e-05 7.7879165e-05 3.910903e-05
-0.00023446091 -6.721689e-05 -0.0002211525 0.00010274893 -0.00012113327 -9.804419e-06 -1.7837172e-05 2.9443974e-05
2.6283788e-05 0.00024780002 0.00047501794 0.00013400399 -0.0003903978 -0.00037244486 2.1912205e-05 -0.00012808004
9.751387e-05 0.00012285568 -0.00015589914 -0.00021126674 -0.00014875756 -8.524209e-05 9.235296e-05 0.00012388559
0.00058660615 0.00016755571 0.00059195573 -0.00075607817 -0.00038201196 -0.00021995326 0.00012712607 -0.00017802708
-4.8604903e-05 7.870613e-06 2.7174554e-05 8.3407775e-07 -9.408201e-05 -7.873754e-05 2.8834758e-05 -3.94645e-05
-0.0001883932 -2.491539e-05 -0.0003409172 -2.4215886e-05 3.9989027e-05 5.1170715e-05 -4.480152e-05 6.659931e-06
-3.8899692e-05 -4.106257e-05 4.9523736e-05 0.00022586285 -4.6302837e-05 -0.000124597 -5.206922e-05 8.163251e-05
6.289408e-05 2.9585579e-05 0.00032019356 0.00011761046 -3.2215015e-05 -9.668546e-05 -0.00018507671 -0.0001819866
0.00013397798 0.00045171502 0.00071496214 -0.00012150146 -0.00050160906 -0.00057332544 0.00013503262 -0.00036214053
-6.187558e-05 0.00017701552 2.1304091e-05 -7.197847e-05 -0.00022311237 -0.00023348417 5.4668304e-05 8.177409e-05
-0.0012828732 -0.0010137251 0.00010839519 0.002485048 0.0013842462 0.0001822393 -0.00079758535 0.00018987617
-7.155989e-05 -0.0002765942 -0.00059732585 2.0860118e-05 0.00059498183 0.0004476053 -0.00010789912 0.000325578
-0.00015364322 2.2446735e-05 -0.000316562 -5.7632453e-05 -8.213126e-05 9.250777e-05 3.661268e-05 7.557501e-05
-0.0011494671 -0.00021688454 -0.0003304338 0.0014702885 0.00044214248 1.0470837e-06 -0.00026140417 9.7652315e-05
0.0017604905 0.0009790271 -0.00029814942 -0.0031446049 -0.0014986689 1.9937619e-05 0.00089176995 -0.00015454143
0.00019841951 -0.00047687485 -6.934863e-05 0.00012212148 0.0009065488 0.0005051246 -0.00017128217 0.00024704327
-0.0002065544 -3.6897916e-05 -0.000110571 0.00019175811 6.0600585e-05 -1.4152919e-05 1.5463122e-05 6.9175817e-06
-0.00029093982 -8.289278e-05 8.429299e-05 0.00040423864 0.00020673632 7.842369e-05 -0.00020116646 -0.000118645876
0.00012115677 -0.000121135796 0.00020022251 1.781241e-05 7.4325006e-05 0.00011145349 -4.416751e-05 -0.00020297828
0.00032550082 1.3528356e-05 9.325927e-05 -0.0004883299 -0.00016229549 4.7998186e-05 0.00010778871 -9.831435e-05
-0.0016713466 -0.00060765725 -0.00013616441 0.0028097727 0.0008608317 -0.0002455229 -0.00077057834 0.00014858667
-4.4643002e-05 7.232071e-05 0.00011356298 -9.475359e-05 -0.00017005784 -0.00019727294 1.3300508e-05 -3.9123133e-05
-0.00086743943 -0.00013846853 6.007139e-06 0.0011545583 0.0003499226 -0.0001466323 -0.00031797154 -5.3327454e-05
-0.00028395717 0.00017457324 3.2717697e-05 0.00011715234 -0.00048053684 -0.00034204393 1.5384803e-05 -0.00018700787
-9.560592e-05 0.00018158954 -0.0001876336 -1.700671e-05 -4.0555253e-05 2.0896352e-05 9.201208e-05 -8.252082e-06
-0.00026879908 -0.00012211782 -0.0003628412 -2.1771319e-05 1.8025117e-05 8.915422e-05 -2.2829408e-05 0.00011156108
00000000: 7a92 db37 4dd2 8bb7 95f4 e9b6 d2eb e5b8
00000010: eec3 9f38 8798 5e38 fc65 a437 77c3 88b8
00000020: c412 9639 4fda 00b9 b7a4 8a39 f9b6 97b8
00000030: 9838 9f39 abbf a038 76e4 6ab8 79ac 6fb8
00000040: 8d96 f439 8f87 8639 b155 16ba 59de 98ba
00000050: b29d 9eb9 5a5d 1e39 ecfb c139 b187 ae39
00000060: b82c f539 8f79 b4b8 1550 1738 60e2 62ba
00000070: 28f3 b5b9 ee8c ca36 35c8 9439 1c50 9db8
00000080: 3555 2d3a de6f 313a 457e 0b3a f17a 7eba
00000090: bf69 84ba 1877 27ba 1579 bc39 ecab 30b9
000000a0: d99f 5fb8 43b1 a438 4524 e0b8 86fe 92b8
000000b0: 8806 14b9 0ba1 5fb8 0f53 a338 0009 2438
000000c0: 9fd9 75b9 cbf6 8cb8 2ce5 67b9 e97a d738
000000d0: ee08 feb8 a97d 24b7 09a1 95b7 74fe f637
000000e0: 017c dc37 28eb 8139 d40b f939 6c83 0c39
000000f0: 4eae ccb9 b444 c3b9 1ad0 b737 394d 06b9
00000100: 5c80 cc38 d2d2 0039 db78 23b9 7c87 5db9
00000110: cefb 1bb9 00c4 b2b8 9ead c138 49e7 0139
00000120: 79c6 193a e5b1 2f39 7a2d 1b3a 8c33 46ba
00000130: c748 c8b9 41a3 66b9 254d 0539 c8ac 3ab9
00000140: 1edd 4bb8 070c 0437 e9f4 e337 63e5 5f35
00000150: e54d c5b8 e51f a5b8 2ce2 f137 af86 25b8
00000160: 6a8b 45b9 6501 d1b7 22bd b2b9 3823 cbb7
00000170: e4b9 2738 23a0 5638 44e9 3bb8 5f78 df36
00000180: 3a28 23b8 993a 2cb8 b5b7 4f38 99d5 6c39
00000190: 4b35 42b8 41a6 02b9 e664 5ab8 1f32 ab38
000001a0: 01e6 8338 8c2e f837 a7df a739 a3a5 f638
000001b0: 9c1e 07b8 9cc3 cab8 2711 42b9 a8d3 3eb9
000001c0: 717c 0c39 2ad4 ec39 4c6c 3b3a 9ace feb8
000001d0: 6a7e 03ba 384b 16ba 8b97 0d39 aedd bdb9
000001e0: 33c3 81b8 3e9d 3939 30b6 b237 26f3 96b8
000001f0: 45f3 69b9 6ed3 74b9 a54b 6538 217e ab38
00000200: 1526 a8ba f8de 84ba 3952 e338 30dc 223b
00000210: 986f b53a 7d17 3f39 0c15 51ba 7f19 4739
00000220: 6c12 96b8 d803 91b9 dc95 1cba c3fc ae37
00000230: 8ef8 1b3a 91ac ea39 e647 e2b8 57b2 aa39
00000240: 4a1b 21b9 ff4b bc37 3bf8 a5b9 60ba 71b8
00000250: e23d acb8 bb00 c238 9190 1938 067e 9e38
00000260: b7a9 96ba 806b 63b9 133e adb9 b2b6 c03a
00000270: 5ccf e739 8689 8c35 130d 89b9 b0ca cc38
00000280: 42c0 e63a b352 803a f050 9cb9 b715 4ebb
00000290: fc6e c4ba b63f a737 abc5 693a 660c 22b9
000002a0: d50e 5039 0f05 fab9 436f 91b8 bc0d 0039
000002b0: 76a5 6d3a 576a 043a 359a 33b9 9685 8139
000002c0: 8696 58b9 d6c2 1ab8 5be2 e7b8 ad12 4939
000002d0: 622d 7e38 5372 6db7 cdb6 8137 931d e836
000002e0: 4889 98b9 b9d6 adb8 74c6 b038 feef d339
000002f0: 5cc7 5839 6677 a438 36f0 52b9 85d1 f8b8
00000300: 8c15 fe38 490a feb8 d2f2 5139 dc6b 9537
00000310: efde 9b38 23bc e938 8140 39b8 91d6 54b9
00000320: fba7 aa39 d9f7 6237 3094 c338 4403 00ba
00000330: dd2d 2ab9 a951 4938 9f0c e238 1d2e ceb8
00000340: 1611 dbba 304b 1fba 5bc7 0eb9 2a24 383b
00000350: 70a9 613a 87b9 80b9 a300 4aba eecd 1b39
00000360: 0f3f 3bb8 e3aa 9738 a928 ee38 72b6 c6b8
00000370: 8e51 32b9 0ddb 4eb9 3f25 5f37 2518 24b8
00000380: e064 63ba dd31 11b9 ee90 c936 8c54 973a
00000390: d175 b739 4fc1 19b9 6bb5 a6b9 ebab 5fb8
000003a0: 16e0 94b9 a60d 3739 5c3a 0938 afaf f538
000003b0: 90f0 fbb9 5c54 b3b9 9d0e 8137 8b17 44b9
000003c0: 0a80 c8b8 1269 3e39 83bf 44b9 a2a9 8eb7
000003d0: df19 2ab8 934a af37 9cf6 c038 6c72 0ab7
000003e0: 9aed 8cb9 c10c 00b9 b93b beb9 8da1 b6b7
000003f0: a534 9737 4ff8 ba38 c881 bfb7 e6f5 e938

exp_avg_sq f4 [128, 8]
1.5951757e-06 1.0329164e-06 9.161464e-07 2.0074995e-07 1.2946774e-06 9.514739e-07 8.7137316e-08 3.354511e-07
2.4412545e-06 1.2869095e-06 3.3281203e-06 1.1075502e-06 5.877298e-06 1.9973104e-06 8.933011e-07 1.8824627e-06
1.3655723e-05 1.1535872e-05 2.396524e-05 8.145396e-06 1.578279e-05 6.507436e-06 3.1791997e-06 1.0526249e-05
4.427425e-06 1.3081014e-06 3.193862e-06 7.643106e-06 5.549659e-06 2.4260767e-06 2.1096407e-06 1.0853383e-06
4.0391787e-06 3.1752998e-06 5.3091308e-06 7.674033e-06 1.4016465e-05 2.8927634e-06 2.7567808e-06 2.1939036e-06
1.7900928e-06 1.2019722e-06 2.992121e-06 1.094406e-06 3.8113853e-06 6.393718e-07 1.1773476e-06 1.1614928e-06
1.7688018e-06 9.3415565e-07 2.2702638e-06 1.2906253e-06 5.3788362e-06 1.94575e-06 1.2448086e-06 1.4029836e-06
1.2362311e-06 1.473978e-06 4.194736e-06 7.771443e-07 5.305901e-06 2.2336635e-06 1.9027011e-07 1.216438e-06
3.6072418e-06 4.0368327e-06 6.047114e-06 1.2007358e-06 5.2446208e-06 2.9991804e-06 5.6900757e-07 1.5092097e-06
6.939501e-06 4.0636405e-06 7.6166684e-06 1.21645735e-05 1.0561474e-05 2.4434614e-06 6.7011106e-06 3.1725963e-06
5.999479e-07 2.4125652e-07 2.1244867e-07 8.268279e-07 6.5452434e-07 1.9491871e-07 1.4408397e-06 1.0859234e-07
1.4338286e-06 1.9255929e-06 3.5952655e-06 4.0942774e-07 1.8933034e-06 1.0172676e-06 5.5646046e-07 1.4677008e-06
3.559831e-06 3.2864975e-06 5.511309e-06 2.7599642e-06 6.821753e-06 1.8684198e-06 3.7388947e-06 1.8587789e-06
4.5006327e-06 3.047423e-06 6.6054404e-06 4.5282695e-06 5.93663e-06 1.5093398e-06 1.3052533e-05 2.6698335e-06
1.4327668e-05 7.390271e-06 2.2160046e-05 1.31753095e-05 2.2502329e-05 5.60445e-06 3.3314473e-06 1.003991e-05
1.1600499e-06 8.9787784e-07 2.6064465e-06 5.8730785e-07 2.441233e-06 1.1805977e-06 2.8519852e-07 9.88545e-07
1.8209463e-05 1.28507645e-05 1.04446335e-05 3.0102077e-05 2.2158994e-05 6.3757343e-06 5.4200555e-06 3.8059916e-06
6.1729606e-06 4.3831074e-06 1.0521822e-05 2.620684e-06 1.8826477e-05 6.9200255e-06 5.933352e-07 4.9289e-06
2.7673834e-06 2.2395357e-06 4.7851977e-06 4.4945255e-06 4.9325618e-06 1.2286828e-06 1.2394685e-06 1.8299605e-06
1.3491457e-05 6.7504916e-06 1.3489605e-05 2.8291397e-05 1.8250745e-05 2.4486246e-06 1.7442262e-05 3.623036e-06
3.8153514e-05 1.8007731e-05 2.7178585e-05 7.413232e-05 2.8401222e-05 9.323684e-06 3.8361693e-05 7.028694e-06
6.787258e-06 4.535964e-06 1.0631019e-05 3.4024742e-06 2.3689276e-05 7.517671e-06 5.317831e-07 5.5436212e-06
4.618884e-06 2.8351867e-06 2.724275e-06 2.0061616e-06 5.3657395e-06 2.3704933e-06 2.8281756e-06 1.5289401e-06
3.8003732e-06 3.4143652e-06 7.189366e-06 3.7835832e-06 1.0618114e-05 2.287769e-06 4.469795e-06 2.7583278e-06
3.1510272e-06 3.0798942e-06 6.260005e-06 5.2408126e-07 5.657912e-06 4.2661563e-06 8.479525e-07 2.499178e-06
2.2210825e-06 1.575158e-06 1.2906116e-06 5.7138236e-06 1.8822337e-06 3.1344373e-07 4.0166983e-06 4.51941e-07
3.3751723e-05 2.1160002e-05 1.9315388e-05 6.2915205e-05 2.4361823e-05 7.2034927e-06 3.46191e-05 4.284586e-06
1.5245283e-06 1.2198841e-06 2.2467227e-06 2.9716705e-06 2.945178e-06 8.3061786e-07 4.7941585e-06 6.6989776e-07
4.271353e-06 1.148139e-06 1.7388138e-06 8.609033e-06 3.2661098e-06 6.2873556e-07 4.9098926e-06 5.264343e-07
4.6677687e-06 3.9949277e-06 1.3447194e-05 1.9470117e-06 2.4249312e-05 8.400999e-06 8.7595816e-07 3.940186e-06
3.7724308e-06 2.1479784e-06 1.2567376e-06 5.8742426e-06 2.6440018e-06 7.1420703e-07 8.539648e-06 4.296076e-07
2.021232e-06 1.4471478e-06 3.9732004e-06 5.692297e-07 2.637533e-06 1.200397e-06 6.066435e-07 1.932014e-06
00000000: d219 d635 bda2 8a35 1aed 7535 ba8d 5734
00000010: c7c4 ad35 ca68 7f35 3f20 bb33 0c18 b434
00000020: 6fd4 2336 e0b9 ac35 ac58 5f36 23a7 9435
00000030: 9b35 c536 8809 0636 2fcb 6f35 eda8 fc35
00000040: e21a 6537 318a 4137 f608 c937 36a8 0837
00000050: 4965 8437 735a da36 3c5a 5536 e599 3037
00000060: 4b8f 9436 0692 af35 2256 5636 e43a 0037
00000070: 3537 ba36 aecf 2236 5a93 0d36 f1ab 9135
00000080: 4888 8736 3c17 5536 1625 b236 b9bf 0037
00000090: 4228 6b37 4c21 4236 2201 3936 fa3a 1336
000000a0: 1f43 f035 7353 a135 3fcc 4836 81e3 9235
000000b0: 1ac7 7f36 4ca1 2b35 5b05 9e35 97e4 9b35
000000c0: 9167 ed35 b0c2 7a35 d65a 1836 8c39 ad35
000000d0: da7b b436 bb93 0236 4c13 a735 264e bc35
000000e0: 94ec a535 80d5 c535 82c0 8c36 f39c 5035
000000f0: 5809 b236 0ce6 1536 0d4d 4c34 7e44 a335
00000100: f113 7236 2174 8736 50e8 ca36 f828 a135
00000110: f3fa af36 8745 4936 e7bd 1835 0d90 ca35
00000120: dcd9 e836 685a 8836 af92 ff36 7216 4c37
00000130: 2f31 3137 59fa 2336 1ada e036 cae8 5436
00000140: 1b0c 2135 0b86 8134 721d 6434 2ef3 5d35
00000150: 92b2 2f35 d94a 5134 e062 c135 4533 e933
00000160: fa71 c035 6f39 0136 3146 7136 52cf db34
00000170: 691d fe35 0c89 8835 ac5f 1535 d1fd c435
00000180: 6ee5 6e36 998d 5c36 c9ed b836 d337 3936
00000190: 69e6 e436 6ac6 fa35 b9e9 7a36 287b f935
000001a0: 2404 9736 5482 4c36 4da4 dd36 8af1 9736
000001b0: 4333 c736 8594 ca35 34fc 5a37 642b 3336
000001c0: de60 7037 f2f9 f736 56e4 b937 860b 5d37
000001d0: 62c3 bc37 dc0d bc36 d491 5f36 1671 2837
000001e0: 03b3 9b35 b205 7135 69ea 2e36 7da7 1d35
000001f0: 10d4 2336 0775 9e35 631d 9934 26ae 8435
00000200: 86c0 9837 9d99 5737 5c3b 2f37 b883 fc37
00000210: 14e2 b937 24ef d536 ecdd b536 706a 7f36
00000220: 5421 cf36 9b12 9336 e286 3037 02df 2f36
00000230: 8ded 9d37 9132 e836 af45 1f35 ee62 a536
00000240: 49b7 3936 ee4a 1636 8990 a036 aecf 9636
00000250: 6282 a536 38e9 a435 d05b a635 f79c f535
00000260: 5e59 6237 4882 e236 6a51 6237 5053 ed37
00000270: 2d19 9937 0d53 2436 f950 9237 4923 7336
00000280: 0607 2038 4f0f 9737 91fd e337 7c77 9b38
00000290: 293f ee37 eb6c 1c37 8ee6 2038 06d8 eb36
000002a0: 1abe e336 a233 9836 e15b 3237 1056 6436
000002b0: 55b8 c637 4d40 fc36 dbbf 0e35 5803 ba36
000002c0: e9fb 9a36 2344 3e36 b0d2 3636 98a1 0636
000002d0: 5a0b b436 c414 1f36 b0cb 3d36 fb35 cd35
000002e0: ea09 7f36 5922 6536 2f3c f136 77e9 7d36
000002f0: 7424 3237 9287 1936 3ffb 9536 b61b 3936
00000300: 3c76 5336 2eb0 4e36 090d d236 97ae 0c35
00000310: 18d9 bd36 0126 8f36 da9e 6335 8db7 2736
00000320: e80d 1536 046a d335 1439 ad35 5fb9 bf36
00000330: 0fa1 fc35 6147 a834 2dc7 8636 4ca2 f234
00000340: a390 0d38 c280 b137 7b07 a237 58f1 8338
00000350: 9e5c cc37 88b5 f136 fa33 1138 50c4 8f36
00000360: 659e cc35 e6ba a335 67c6 1636 e96c 4736
00000370: c6a5 4536 a0f7 5e35 82dd a036 06d3 3335
00000380: a552 8f36 c119 9a35 3061 e935 846f 1037
00000390: 572f 5b36 61c6 2835 a8bf a436 4a50 0d35
000003a0: d49f 9c36 2b0c 8636 429b 6137 68a9 0236
000003b0: 006b cb37 04f2 0c37 6323 6b35 f135 8436
000003c0: de29 7d36 fd25 1036 2dad a835 5c1b c536
000003d0: 9b6f 3136 efb7 3f35 8245 0f37 d2a4 e634
000003e0: 80a4 0736 9f3b c235 8851 8536 2bcd 1835
000003f0: 7900 3136 541d a135 39d8 2235 bfa7 0136

exp_avg f4 [128]
-2.0376207e-05 3.6787198e-05 -0.00054418994 -0.00014317212 0.00012969272 9.984327e-05 5.629294e-06 0.0002641652
-0.00012331993 -3.1828935e-05 6.618687e-05 -0.00013909477 0.000101180805 9.5618896e-05 0.000376571 4.1340303e-05
0.00028482516 -0.00033396442 -0.00010424037 0.00036966318 -0.00058950385 -0.00019448464 0.00018504652 -0.00014363104
0.0001766009 -5.1545343e-05 0.00046049108 6.205673e-05 0.00032333838 -2.7572185e-05 8.626581e-05 -0.00014175175
0.00013555949 -0.00019145229 -0.00024659233 3.834425e-05 2.1751566e-05 0.00035995367 0.0001803305 0.000118973636
0.00011963771 -0.00014857734 0.00014494677 -0.00024534288 -0.00029486854 0.00034700762 -5.4499047e-05 5.511165e-05
-4.3436838e-05 -0.00040881988 8.311167e-06 -5.8955262e-05 -1.8171982e-05 -8.50034e-06 0.00013985457 -0.00028718307
-0.000111983 1.3075733e-05 -9.360343e-06 -1.7029555e-05 3.1990487e-05 0.0001592593 -4.6498753e-05 0.00043199686
6.171746e-05 -1.9664056e-05 5.9978087e-05 -0.00010683203 0.00024312388 8.289225e-06 -5.8977654e-05 -4.6130783e-05
-5.441532e-05 -0.00016381753 -0.00017234022 3.2873344e-05 0.00012637822 0.00036649717 -0.00013900055 -1.8455392e-05
-0.00014794816 7.7333425e-05 0.0003399878 0.00010375908 -0.00017642844 0.00038246316 -9.792259e-05 -0.00010792388
-0.00021290933 -0.00035100878 -0.00018463396 -8.9025634e-05 0.00015708075 -0.0004016392 -2.8332455e-05 0.0001661758
-4.6046025e-05 0.00022489448 -0.00022264845 0.00022592944 -0.00017535279 -0.00057747576 -0.00039814797 0.00025128713
3.1966767e-05 0.0001078873 3.8220853e-05 -0.00060397247 0.00042195586 -0.00017550647 -0.00034978995 -0.000374503
-0.00016538866 -0.00023521144 -9.638248e-05 -0.000461132 -0.0002466867 7.452178e-05 0.00018912186 -8.092005e-05
0.00023727791 -8.0193124e-05 -4.6634785e-05 0.00034707235 8.6901186e-05 -0.0002300873 0.00028352474 -0.00033939493
00000000: 92ed aab7 f44b 1a38 f8a7 0eba 7920 16b9
00000010: 20fe 0739 f362 d138 44e3 bc36 a77f 8a39
00000020: 714f 01b9 0f80 05b8 cecd 8a38 f8d9 11b9
00000030: 0831 d438 0187 c838 816e c539 d064 2d38
00000040: 9654 9539 f217 afb9 9f9b dab8 5acf c139
00000050: ef88 1aba 93ee 4bb9 0c09 4239 aa9b 16b9
00000060: f12d 3939 6432 58b8 116e f139 7424 8238
00000070: be85 a939 d14a e7b7 9be9 b438 32a3 14b9
00000080: f924 0e39 95c0 48b9 1049 81b9 d3d3 2038
00000090: 2277 b637 2ab8 bc39 1a17 3d39 7c81 f938
000000a0: 02e6 fa38 6dcb 1bb9 dafc 1739 5da1 80b9
000000b0: 9698 9ab9 93ee b539 e895 64b8 af27 6738
000000c0: f32f 36b8 e056 d6b9 3170 0b37 bb46 77b8
000000d0: 0970 98b7 af9c 0eb7 eda5 1239 0f91 96b9
000000e0: 6ad8 eab8 d85f 5b37 5e0a 1db7 b1da 8eb7
000000f0: 862d 0638 d8fe 2639 a807 43b8 a37d e239
00000100: 4f6e 8138 3df4 a4b7 fb90 7b38 020b e0b8
00000110: 12ef 7e39 f311 0b37 c65e 77b8 8d7c 41b8
00000120: 013c 64b8 6fc6 2bb9 3ab6 34b9 7ce1 0938
00000130: 6584 0439 6b26 c039 adc0 11b9 a7d0 9ab7
00000140: 8822 1bb9 112e a238 6440 b239 3b99 d938
00000150: a6ff 38b9 5685 c839 ca5b cdb8 3155 e2b8
00000160: 6a40 5fb9 9a07 b8b9 4d9a 41b9 46b3 bab8
00000170: 0bb6 2439 1a93 d2b9 7cab edb7 7a3f 2e39
00000180: 8b21 41b8 a7d1 6b39 bd76 69b9 79e7 6c39
00000190: e8de 37b9 be61 17ba 84be d0b9 30bf 8339
000001a0: 0e14 0638 8e41 e238 544f 2038 e853 1eba
000001b0: f539 dd39 2908 38b9 0364 b7b9 f158 c4b9
000001c0: 2e6c 2db9 17a3 76b9 f320 cab8 17c4 f1b9
000001d0: ba55 81b9 9348 9c38 034f 4639 9fb3 a9b8
000001e0: cecd 7839 5b2d a8b8 b899 43b8 43f7 b539
000001f0: b83e b638 9743 71b9 0ca6 9439 d1f0 b1b9

exp_avg_sq f4 [128]
6.6954385e-07 1.6802355e-06 8.155779e-06 1.5200608e-06 2.7678204e-06 8.9977084e-07 1.4135968e-06 1.4835331e-06
2.4159863e-06 3.2001399e-06 1.8767741e-07 1.3842749e-06 2.028641e-06 2.2768654e-06 7.089127e-06 8.485813e-07
7.2498724e-06 4.6583527e-06 1.7610607e-06 4.5057636e-06 1.2335618e-05 5.258316e-06 2.1064636e-06 2.6995722e-06
2.4591054e-06 6.469955e-07 1.0328096e-05 1.0150239e-06 9.865552e-07 5.78656e-06 1.0200602e-06 1.429656e-06
4.1590124e-06 3.947284e-06 1.908091e-06 3.6172298e-07 2.132791e-06 3.847346e-06 1.0355791e-06 1.4649021e-06
2.1487986e-06 3.6334216e-06 3.3500844e-06 2.7976828e-06 7.3140905e-06 3.977099e-06 1.1582131e-06 4.790288e-07
3.8629486e-07 1.0384035e-05 9.126187e-07 2.8146626e-06 2.597773e-06 1.9912507e-06 8.2434497e-07 5.0484546e-06
3.5615167e-06 4.4046072e-07 1.0040175e-06 5.671918e-06 1.0097228e-06 9.793878e-07 1.2764444e-06 6.209171e-06
1.3330119e-06 2.3018194e-06 4.334321e-07 5.6449694e-06 1.3013309e-06 1.0438691e-06 4.587603e-06 3.162321e-06
6.697873e-06 5.2505266e-06 1.4481225e-06 5.807661e-07 1.062129e-06 9.76536e-06 3.4037155e-06 5.113246e-07
1.999885e-06 7.023641e-07 3.708376e-06 1.7065266e-06 1.9101901e-06 8.26154e-06 9.606165e-07 4.970002e-06
2.2575298e-06 7.957226e-06 2.1051208e-06 3.8768297e-07 1.5147605e-06 7.820869e-06 1.4300261e-06 1.007238e-06
1.5582953e-06 2.980021e-06 6.973957e-06 4.424502e-06 3.858085e-06 7.7981e-06 6.0341686e-06 2.8682553e-06
2.4329224e-06 6.827343e-07 1.1162904e-06 9.319438e-06 3.8517446e-06 3.075782e-06 2.9445769e-06 9.240796e-06
6.6624654e-07 4.8209777e-06 3.2063851e-06 5.8308483e-06 5.373185e-06 8.9300124e-07 6.8038185e-06 1.5612735e-06
3.3598008e-06 5.5467615e-07 1.0687069e-05 2.3230434e-06 5.8870916e-07 1.469329e-06 1.9995603e-06 4.606666e-06
00000000: b4ba 3335 7484 e135 ced4 0837 e404 cc35
00000010: cbbe 3936 c887 7135 d1ba bd35 cf1d c735
00000020: 5422 2236 fcc1 5636 6084 4934 53cb b935
00000030: c923 0836 40cc 1836 23df ed36 10ca 6335
00000040: ee43 f336 f24e 9c36 965d ec35 3730 9736
00000050: 13f5 4e37 9770 b036 c55c 0d36 4c2a 3536
00000060: 1c07 2536 31ad 2d35 d646 2d37 f53b 8835
00000070: c769 8435 2c2a c236 00e9 8835 9be2 bf35
00000080: a58d 8b36 e972 8436 c10c 0036 d432 c234
00000090: 1221 0f36 7318 8136 3afe 8a35 a79d c435
000000a0: 1434 1036 b5d5 7336 03d2 6036 d3bf 3b36
000000b0: 8f6b f536 0573 8536 e673 9b35 9c96 0035
000000c0: f663 cf34 1737 2e37 aefa 7435 89e3 3c36
000000d0: 6655 2e36 6da1 0536 8e48 5d35 e565 a936
000000e0: 6402 6f36 7678 ec34 c7c1 8635 6851 be36
000000f0: d085 8735 8273 8335 4c52 ab35 5f58 d036
00000100: f1e9 b235 f578 1a36 74b2 e834 eb69 bd36
00000110: 64a9 ae35 121b 8c35 36ef 9936 4338 5436
00000120: 4abe e036 ae2d b036 1c5d c235 f1e5 1b35
00000130: 798e 8e35 e7d5 2337 636b 6436 f541 0935
00000140: c335 0636 188a 3c35 6add 7836 cf0b e535
00000150: d130 0036 0b9b 0a37 88ee 8035 fec3 a636
00000160: 1180 1736 0780 0537 b345 0d36 be22 d034
00000170: c64e cb35 6036 0337 53ef bf35 6f30 8735
00000180: 9e26 d135 5ffc 4736 d601 ea36 2f76 9436
00000190: b374 8136 96d4 0237 1d79 ca36 407c 4036
000001a0: 4a45 2336 2545 3735 72d3 9535 ae5a 1c37
000001b0: 3c3e 8136 8869 4e36 729b 4536 eb08 1b37
000001c0: 1dd8 3235 e2c3 a136 472d 5736 9ba6 c336
000001d0: 4f4b b436 94b6 6f35 5b4c e436 f38c d135
000001e0: f078 6136 0ee5 1435 9d4c 3337 95e5 1b36
000001f0: c907 1e35 c335 c535 2f30 0636 f692 9a36
