results/3dball_test_6/3DBall/checkpoint.pt (torch, 450997 bytes, 44 tensors)

network_body.observation_encoder.processors.0.normalizer.running_mean f4 [8]
-0.0055816695 0.0026760553 0.062263787 3.068001 0.044547237 0.07427884 -0.9379436 0.04395938
00000000: 70e6 b6bb c260 2f3b 5008 7f3d 215a 4440
00000010: 2a77 363d 811f 983d 121d 70bf c00e 343d

network_body.observation_encoder.processors.0.normalizer.running_variance f4 [8]
256.31732 263.6508 57078.85 6850.4697 57961.242 47065.605 44579.875 46113.047
00000000: 9e28 8043 4dd3 8343 daf6 5e47 c213 d645
00000010: 3e69 6247 9bd9 3747 e023 2e47 0c21 3447

network_body.processors.0.normalizer.running_mean f4 [8]
-0.0055816695 0.0026760553 0.062263787 3.068001 0.044547237 0.07427884 -0.9379436 0.04395938
00000000: 70e6 b6bb c260 2f3b 5008 7f3d 215a 4440
00000010: 2a77 363d 811f 983d 121d 70bf c00e 343d

network_body.processors.0.normalizer.running_variance f4 [8]
256.31732 263.6508 57078.85 6850.4697 57961.242 47065.605 44579.875 46113.047
00000000: 9e28 8043 4dd3 8343 daf6 5e47 c213 d645
00000010: 3e69 6247 9bd9 3747 e023 2e47 0c21 3447

network_body._body_endoder.seq_layers.0.weight f4 [128, 8]
0.16556598 -0.026198735 -0.23554209 0.28353032 0.057247493 -0.08037369 -0.17083405 -0.080189094
0.10304418 -0.36550355 0.6347837 0.49333134 0.38126743 -0.29143947 -0.60854405 -0.039775006
0.8373836 0.17888482 -0.50544125 0.22598974 -0.6451364 0.5218564 0.39266768 0.09990437
-0.35277352 -0.06455398 -0.0585885 -0.16943003 0.12511894 0.40422234 -0.3155677 0.39328885
0.28698918 0.24927978 -0.05906081 -0.40480235 0.58659565 -0.14402263 0.097422495 0.049039844
0.35371816 0.5720935 0.08103378 -0.14963265 0.021324068 0.033228524 -0.52179056 0.0889583
0.46841598 -0.021071337 0.5180476 -0.1456551 0.037982143 0.019999387 0.5245404 0.5420468
-0.72442555 -0.661394 -0.24526058 -0.7336878 0.09599395 -0.09898347 -0.20768559 0.4863845
-0.020302627 -0.19206634 0.0763826 0.87386304 -0.18221699 -0.6457532 0.958132 0.34016338
-0.08830315 -0.56865954 0.3797495 0.097951956 -0.092525505 -0.4727929 -0.09706379 0.6843693
-0.14272001 -0.25514963 0.041242626 0.18529369 0.0018227962 -0.41798803 -0.44202852 -0.6357167
0.20112312 0.63666296 -0.25223538 0.008651076 0.058372628 0.561865 -0.6355657 -0.6762187
-0.019684175 -0.60656875 0.38871723 -0.2624344 -0.0048603173 0.048584886 0.39510697 -0.18513855
0.26760298 -0.42419565 -0.808613 0.04702852 -0.028120877 0.16646244 0.26370594 -0.43646026
-1.0650055 -0.17488956 -1.0566021 -0.59292406 -0.1842886 0.083849296 -0.014311102 0.042837597
0.05308553 -0.49668002 -0.31437147 -0.004862644 -0.12326512 -0.39227566 -0.2500219 0.18616934
-0.31255162 -0.26650915 -0.24979287 0.11530069 0.29400274 0.1171461 0.19005692 0.00048436722
-0.66779 -0.23230597 0.06543272 -0.42610523 0.0073310593 -0.31948093 -0.39661986 -0.009321046
0.5861734 0.5103317 -0.15572329 -0.66909635 0.05247736 -0.14897351 0.5103429 -0.393307
-0.56403226 -0.07336133 -0.026390502 -0.3373239 0.12832229 -0.65259445 0.31273374 -0.19608386
0.004162449 -0.20885801 0.69499904 0.16809434 -0.43641654 -0.43361908 -0.33909366 0.15471388
0.51298636 -0.06801833 0.21930525 0.11409213 -0.16312039 -0.23427558 -0.20585713 -0.029482925
-0.5588827 -0.4497658 0.10771872 0.38402867 0.27082658 0.08087176 0.38977456 -0.4840691
0.26731429 0.38935527 -0.554361 -0.05229418 0.6208937 0.18781173 -0.4635289 -0.41816548
-0.12880382 -0.3945529 -1.0131046 -0.044434555 -0.10013106 0.10902286 -0.13401113 0.014525626
-0.5721728 0.15980162 -0.22060913 -0.26647142 -0.22773857 0.00094529835 -0.39862934 0.47217333
-0.75027454 -0.38032702 -0.27252853 0.30828544 -0.27317804 0.53310037 0.25329527 -0.037404366
-0.32663372 -0.55057985 0.14120862 0.123938404 -0.07846151 0.019742133 0.5090947 0.20464872
0.31733942 0.6384563 0.4126219 0.22690676 0.031200917 0.3454269 0.04858341 -0.03414026
0.65714616 -0.14340766 -0.23134385 0.092823915 -0.2818168 0.2167673 -0.39683187 0.27738234
-0.5377641 -0.23031469 0.09958884 -0.20480824 0.36653662 0.13427384 0.12361009 0.082564406
-0.6018127 -0.36103833 -0.033835124 -0.043974403 0.43909147 -0.41893798 -0.12087515 0.6807904
00000000: 218a 293e bb9e d6bc f231 71be e32a 913e
00000010: 597c 6a3d f69a a4bd 1fef 2ebe 2e3a a4bd
00000020: d408 d33d 4823 bbbe 2f81 223f ed95 fc3e
00000030: 7c35 c33e 8e37 95be 8bc9 1bbf 1eeb 22bd
00000040: c65e 563f 952d 373e 9964 01bf db69 673e
00000050: a927 25bf 6298 053f bd0b c93e aa9a cc3d
00000060: bb9e b4be e134 84bd 7ffa 6fbd 117f 2dbe
00000070: 2e1f 003e 3bf6 ce3e 1792 a1be 285d c93e
00000080: 3ff0 923e 3343 7f3e bfe9 71bd 4142 cfbe
00000090: 222b 163f ab7a 13be 7285 c73d 01de 483d
000000a0: 8c1a b53e b874 123f 0af5 a53d 4d39 19be
000000b0: d0af ae3c a21a 083d 1194 05bf c52f b63d
000000c0: 38d4 ef3e cc9d acbc c49e 043f 9c26 15be
000000d0: 2a93 1b3d c1d5 a33c 4848 063f 94c3 0a3f
000000e0: f473 39bf 1e51 29bf 9725 7bbe f7d2 3bbf
000000f0: 7a98 c43d d8b7 cabd 88ab 54be 6407 f93e
00000100: b251 a6bc 0aad 44be 7b6e 9c3d 7db5 5f3f
00000110: 1797 3abe 1550 25bf 2448 753f e529 ae3e
00000120: 48d8 b4bd ac93 11bf 876e c23e 099b c83d
00000130: 037e bdbd e911 f2be 61c9 c6bd d432 2f3f
00000140: 3225 12be f9a2 82be 07ee 283d a1bd 3d3e
00000150: e4ea ee3a 8702 d6be 9051 e2be 54be 22bf
00000160: 38f3 4d3e 58fc 223f ff24 81be 3ebd 0d3c
00000170: 2318 6f3d 62d6 0f3f 6fb4 22bf ab1c 2dbf
00000180: b540 a1bc 1748 1bbf f205 c73e cd5d 86be
00000190: 4c43 9fbb f200 473d 764b ca3e f694 3dbe
000001a0: 4203 893e 2c30 d9be 4301 4fbf faa0 403d
000001b0: c15d e6bc 2175 2a3e 7704 873e b877 dfbe
000001c0: 1a52 88bf 4016 33be bd3e 87bf dfc9 17bf
000001d0: 27b6 3cbe 2eb9 ab3d 1d79 6abc 7a76 2f3d
000001e0: 3670 593d d84c febe 4cf5 a0be d056 9fbb
000001f0: 6c72 fcbd 5bd8 c8be df02 80be 2da3 3e3e
00000200: c406 a0be e373 88be b4c9 7fbe c522 ec3d
00000210: 8787 963e 4bea ef3d 489e 423e abf2 fd39
00000220: 49f4 2abf 9ee1 6dbe 9701 863d 772a dabe
00000230: 6239 f03b 0193 a3be c211 cbbe 4db7 18bc
00000240: 760f 163f 19a5 023f ed75 1fbe e649 2bbf
00000250: 80f2 563d 838c 18be d5a5 023f 895f c9be
00000260: 6b64 10bf 773e 96bd e530 d8bc b8b5 acbe
00000270: eb66 033e 6e10 27bf a31e a03e 35ca 48be
00000280: 2765 883b e0de 55be 75eb 313f ec20 2c3e
00000290: fd71 dfbe 5203 debe af9d adbe 516d 1e3e
000002a0: 1353 033f 324d 8bbd 8e91 603e 22a9 e93d
000002b0: 0809 27be f0e5 6fbe 36cc 52be 2d86 f1bc
000002c0: f012 0fbf b447 e6be a29b dc3d 689f c43e
000002d0: c8a9 8a3e 18a0 a53d 8890 c73e e8d7 f7be
000002e0: 6bdd 883e 9359 c73e 9aea 0dbf 6c32 56bd
000002f0: e4f2 1e3f b851 403e a953 edbe c919 d6be
00000300: 26e5 03be d602 cabe 69ad 81bf 0201 36bd
00000310: 8311 cdbd 6147 df3d 373a 09be e4fc 6d3c
00000320: eb79 12bf 09a3 233e 5ce7 61be f16e 88be
00000330: 4d34 69be e6cd 773a 2519 ccbe b4c0 f13e
00000340: fe11 40bf 39ba c2be dc88 8bbe 97d7 9d3e
00000350: fedd 8bbe 4479 083f ebaf 813e 5235 19bd
00000360: 893c a7be cdf2 0cbf fe98 103e 6bd3 fd3d
00000370: 6eb0 a0bd 41ba a13c 0854 023f 6f8f 513e
00000380: 507a a23e df71 233f 2d43 d33e 3f5a 683e
00000390: 1199 ff3c cbdb b03e 66ff 463d a8d6 0bbd
000003a0: bb3a 283f 75d9 12be 67e5 6cbe 771a be3d
000003b0: 4b4a 90be 3ff8 5d3e 8c2d cbbe 0f05 8e3e
000003c0: e8aa 09bf 9dd7 6bbe 3cf5 cb3d 40b9 51be
000003d0: b0aa bb3e 157f 093e 4927 fd3d 8717 a93d
000003e0: 6610 1abf 04da b8be b396 0abd 811e 34bd
000003f0: 99d0 e03e 0a7f d6be 648d f7bd 4848 2e3f

network_body._body_endoder.seq_layers.0.bias f4 [128]
-0.0072601386 0.0109107485 0.0013399534 0.013059704 0.013144764 -0.04472965 0.02255888 0.00032231442
0.0044185235 0.0024488298 -0.023028668 -0.024955036 0.010923357 -0.02546046 0.0101232445 -0.0075408486
0.03944961 -0.014870745 0.0058565205 -0.036943406 0.004823734 -0.004859056 0.021644183 -0.013022451
-0.016197972 -0.018656254 0.037381243 0.011142951 0.016470045 -0.010880372 0.018100696 -0.0065746955
0.026519297 -0.004488188 0.02517895 -0.025602553 0.021577172 -0.019543696 -0.000868645 -0.010979764
0.010601405 -0.01814742 0.015157041 0.014618738 0.044686187 -0.0019980378 0.0012222345 -0.008229366
-0.039406788 0.03313171 0.0067919237 0.007343767 0.025710097 0.02860503 0.03140945 -0.008059212
0.016087241 0.032449752 -0.01579379 0.0037731875 -0.02245076 0.025583493 0.021556182 -0.0030235962
0.027835416 -0.0051067653 -0.01570884 -0.032517962 -0.0060610003 0.01698388 -0.007912297 0.0027536403
0.013099243 0.00042784872 0.0071869562 -0.012188667 -0.009315863 0.0023992832 0.027757127 0.0013359999
0.015477847 -0.011414741 -0.0273965 -0.042908967 0.01726214 0.016991103 -0.026320668 0.0025338922
0.004489482 0.0054977024 0.024616776 0.01751997 0.02988978 -0.023026707 -0.045730624 -0.003349018
0.010894438 -0.008680913 -0.03779603 -0.02046416 -0.0044491556 0.008501554 0.016032122 -0.007831278
-0.00765268 -0.024854627 0.0357908 -0.006900659 -0.0041383146 -0.0021120778 -0.009856482 0.004534178
0.011359875 0.0007421614 -0.0069688675 -0.0090305675 -0.0031683114 0.026211217 0.0037744066 -0.0038481653
-0.023813633 -0.009626071 -0.016071085 -0.013674686 0.00069238996 0.030845448 0.019312777 0.033546984
00000000: 75e6 edbb ffc2 323c 60a1 af3a 5ef8 553c
00000010: 235d 573c 7036 37bd 66cd b83c 4ffc a839
00000020: 43c9 903b 8c7c 203b 9ea6 bcbc 816e ccbc
00000030: e1f7 323c 7492 d0bc f7db 253c 3919 f7bb
00000040: ea95 213d 6da4 73bc 0ee8 bf3b f851 17bd
00000050: 6a10 9e3b b738 9fbb 244f b13c 1e5c 55bc
00000060: 9cb1 84bc 00d5 98bc 131d 193d ed90 363c
00000070: 30ec 863c 9643 32bc e947 943c 8b70 d7bb
00000080: ff3e d93c a611 93bb 1644 ce3c 72bc d1bc
00000090: 9cc2 b03c 1a1a a0bc c7b5 63ba 78e4 33bc
000000a0: 84b1 2d3c e6a9 94bc 3d55 783c 6e83 6f3c
000000b0: dd08 373d 83f1 02bb 6233 a03a 76d4 06bc
000000c0: 0369 21bd 1eb5 073d c98e de3b fca3 f03b
000000d0: fb9d d23c 1955 ea3c 32a7 003d c90a 04bc
000000e0: 64c9 833c 08ea 043d fa61 81bc 9547 773b
000000f0: a8ea b7bc 7994 d13c 9796 b03c 8727 46bb
00000100: 1907 e43c a756 a7bb d3af 80bc 8e31 05bd
00000110: 5b9b c6bb c721 8b3c 94a2 01bc 6b76 343b
00000120: 359e 563c e250 e039 8f80 eb3b fab2 47bc
00000130: 90a1 18bc 4b3d 1d3b ea62 e33c b81c af3a
00000140: cc96 7d3c e504 3bbc a06e e0bc 50c1 2fbd
00000150: 5569 8d3c ed30 8b3c 719e d7bc a80f 263b
00000160: 811c 933b 1226 b43b 1fa9 c93c 0a86 8f3c
00000170: 69db f43c 81a2 bcbc 0950 3bbd 337b 5bbb
00000180: 967e 323c 633a 0ebc 03d0 1abd 74a4 a7bc
00000190: 39ca 91bb 1a4a 0b3c cc55 833c c34e 00bc
000001a0: 55c3 fabb ee9b cbbc 6099 123d ec1e e2bb
000001b0: b39a 87bb c96a 0abb 157d 21bc 7193 943b
000001c0: c51e 3a3c 9c8d 423a 195b e4bb f2f4 13bc
000001d0: 72a3 4fbb e8b8 d63c 095c 773b 8031 7cbb
000001e0: cf14 c3bc abb6 1dbc 82a7 83bc ca0b 60bc
000001f0: 8181 353a 98af fc3c d435 9e3c 9068 093d

network_body._body_endoder.seq_layers.2.weight f4 [128, 128]
0.16358769 -0.07806512 -0.08583167 -0.06903612 0.047532104 -0.059137277 -0.03139806 -0.02296566
-0.11185488 0.024669696 0.0012362164 -0.041836824 -0.1424534 0.05697769 -0.042800963 0.051414557
-0.060755823 -0.16283195 0.06406775 0.005455331 0.14995378 0.05697309 0.1750379 -0.03103926
-0.05914936 0.20364231 -0.04467966 -0.10760991 0.006804739 -0.06521667 -0.047709752 -0.11628229
0.2477297 -0.04345493 0.1059827 -0.0050277016 -0.011269019 -0.075004965 0.14911425 -0.01217709
0.06768914 -0.16554633 0.1029806 0.0629195 0.049627833 -0.03725915 -0.0388119 0.0515026
-0.08729454 -0.03958829 -0.0077317036 0.29262277 -0.020679874 -0.04104616 0.09467819 0.019946294
-0.031134866 0.0076488056 -0.08656762 0.01274658 -0.15401718 0.053701792 -0.11147777 -0.082721785
-0.05076555 -0.058871135 0.12303349 0.005544544 0.098081835 0.011316312 0.00718149 -0.005208751
0.0341326 -0.1612092 0.1330773 0.10889192 -0.033115197 0.098847136 0.05749012 0.07967765
0.03676569 0.09246423 0.11458324 0.13181727 -0.0643851 0.06713772 -0.009437293 -0.07847672
0.01501592 0.0926281 0.008740609 0.09155456 0.029741025 0.042235162 -0.062349997 -0.051009733
-0.0128514785 -0.15712707 -0.010471456 -0.051569194 0.13683121 0.0020453369 0.100774035 0.058108315
0.008777662 -0.04368097 0.050573062 0.07890209 -0.0039267163 0.039251663 0.041608736 0.05055878
-0.16559462 0.07020612 0.19565763 -0.04603481 -0.01581678 -0.04213495 -0.14932817 -0.03233647
0.13345107 -0.02747804 -0.07766359 0.01368443 -0.0596299 -0.13663581 0.107671484 0.01667888
0.07412744 -0.07207785 0.0054427506 0.103267 0.10405421 -0.13379759 -0.12776774 0.15823571
-0.030479668 0.026151882 0.09961589 0.08384399 0.004660704 0.04091643 -0.046827424 0.10695046
-0.09694859 0.05583821 -0.03290734 -0.041360717 0.06639318 -0.017292634 -0.01942928 -0.0036750424
-0.03940048 0.03494771 -0.18575248 -0.17152694 -0.024767749 -0.09287584 -0.008239018 -0.23208772
0.055416003 -0.10399348 0.027511533 0.12571849 0.07121668 0.0801844 0.025082152 -0.10800814
-0.09210575 -0.08807139 0.07506105 -0.06832909 0.04347474 0.014784253 -0.12187022 0.14488049
-0.049210038 -0.059375558 -0.0065049687 -0.09991216 -0.00087437447 -0.007302779 -0.03585254 0.17386708
-0.031839 -0.023253068 0.03416808 0.007014573 -0.08472444 -0.19622459 -0.10228743 0.110010244
-0.12641343 -0.08395683 -0.0058937226 -0.064772666 -0.05073147 -0.030218279 0.010656327 0.039039608
-0.008781956 -0.100033894 0.021329083 -0.097602695 0.02326708 -0.1744744 0.10319058 -0.012598187
0.06464155 0.056294035 0.08813075 -0.06273643 -0.038904667 0.026393939 0.0100391125 -0.08564916
0.02847386 0.016214462 -0.07214098 0.1646584 -0.11169687 0.03644722 0.027881023 -0.12860492
-0.19613937 -0.028834067 -0.032133944 0.039571244 0.027377823 0.11172272 -0.13619848 -0.08411386
0.18726948 -0.054591466 0.09129192 -0.0483842 0.16620632 0.16506034 0.081533976 -0.06317261
0.09971755 0.12000203 0.025730507 -0.10159008 0.07275069 0.1294757 0.04943849 -0.108340465
-0.05004996 -0.056491703 -0.13091443 0.025365511 -0.035855863 0.17236854 -0.08426923 0.08520804
00000000: 8883 273e 9be0 9fbd 84c8 afbd cf62 8dbd
00000010: 06b1 423d ee39 72bd 419b 00bd 7b22 bcbc
00000020: 2c14 e5bd 1a18 ca3c 8a08 a23a 175d 2bbd
00000030: 4edf 11be 7061 693d 1050 2fbd 1298 523d
00000040: 19db 78bd 6bbd 26be f435 833d a2c2 b23b
00000050: 7c8d 193e 9d5c 693d 233d 333e 0c46 febc
00000060: 9946 72bd 9c87 503e 0502 37bd 9662 dcbd
00000070: 4afa de3b 5190 85bd 4d6b 43bd 6925 eebd
00000080: dbac 7d3e ccfd 31bd 750d d93d 6bbf a4bb
00000090: b1a1 38bc 349c 99bd 68b1 183e 6b82 47bc
000000a0: 9ba0 8a3d fa84 29be 7ee7 d23d f0db 803d
000000b0: 8e46 4b3d 0d9d 18bd 3af9 1ebd 64f4 523d
000000c0: 7bc7 b2bd 5527 22bd 3b5a fdbb a7d2 953e
000000d0: d768 a9bc 0520 28bd a4e6 c13d 6966 a33c
000000e0: 8c0e ffbc d5a2 fa3b 5d4a b1bd 08d7 503c
000000f0: aeb6 1dbe 69f6 5b3d 754e e4bd 0a6a a9bd
00000100: 8aef 4fbd dc22 71bd fbf8 fb3d 02af b53b
00000110: 21df c83d 0d68 393c b452 eb3b 2cae aabb
00000120: a0ce 0b3d 0614 25be 6a45 083e ba02 df3d
00000130: cda3 07bd 5e70 ca3d c37a 6b3d 092e a33d
00000140: 9f97 163d e35d bd3d 9eaa ea3d 1bfb 063e
00000150: 56dc 83bd 807f 893d e09e 1abc 67b8 a0bd
00000160: 5505 763c cdb3 bd3d c534 0f3c f580 bb3d
00000170: 73a3 f33c c7fe 2c3d b662 7fbd 95ef 50bd
00000180: 028f 52bc ebe5 20be 7890 2bbc 383a 53bd
00000190: 7b1d 0c3e 0f0b 063b 9e62 ce3d fc02 6e3d
000001a0: 2fd0 0f3c d1ea 32bd b325 4f3d 6b97 a13d
000001b0: afab 80bb 5ac6 203d ec6d 2a3d b916 4f3d
000001c0: a391 29be 3ac8 8f3d 795a 483e ff8e 3cbd
000001d0: 3192 81bc b395 2cbd 7ce9 18be 3f73 04bd
000001e0: 66a7 083e a019 e1bc 170e 9fbd a934 603c
000001f0: 7b3e 74bd 42ea 0bbe de82 dc3d 26a2 883c
00000200: 21d0 973d 8d9d 93bd 1a59 b23b a67d d33d
00000210: 601a d53d 3c02 09be 8cd5 02be 8b08 223e
00000220: 7fb0 f9bc 793c d63c 6a03 cc3d 66b6 ab3d
00000230: d2b8 983b fd97 273d 1dce 3fbd d808 db3d
00000240: fb8c c6bd 9bb6 643d d9c9 06bd db69 29bd
00000250: 26f9 873d 48a9 8dbc 272a 9fbc fbd8 70bb
00000260: 6662 21bd 5425 0f3d e635 3ebe c2a4 2fbe
00000270: bce5 cabc b035 bebd f2fc 06bc 67a8 6dbe
00000280: e4fb 623d 89fa d4bd de5f e13c 59bc 003e
00000290: 0dda 913d b837 a43d 1679 cd3c 5f33 ddbd
000002a0: f1a1 bcbd c65e b4bd 9cb9 993d 1ff0 8bbd
000002b0: 9212 323d a739 723c 1897 f9bd 8d5b 143e
000002c0: 7790 49bd c933 73bd a227 d5bb bf9e ccbd
000002d0: 4736 65ba 264c efbb 1dda 12bd 360a 323e
000002e0: 9c69 02bd 387d bebc d4f3 0b3d 81da e53b
000002f0: 0284 adbd 19ef 48be 127c d1bd 0d4d e13d
00000300: 8672 01be 8ff1 abbd 2120 c1bb 88a7 84bd
00000310: cdcb 4fbd 538c f7bc e097 2e3c ffe7 1f3d
00000320: 31e2 0fbc 92de ccbd 54ba ae3c ece3 c7bd
00000330: 9a9a be3c 6ba9 32be 9555 d33d a068 4ebc
00000340: ca62 843d 9394 663d e57d b43d f57b 80bd
00000350: 805a 1fbd 1a38 d83c 177b 243c d468 afbd
00000360: 0342 e93c 31d4 843c a6be 93bd 369c 283e
00000370: 54c1 e4bd ae49 153d be66 e43c 02b1 03be
00000380: c2d8 48be 6c35 ecbc e29e 03bd 7515 223d
00000390: 7547 e03c e2ce e43d 9d77 0bbe e343 acbd
000003a0: 92c3 3f3e 4d9b 5fbd 42f7 ba3d 832e 46bd
000003b0: fd31 2a3e 9405 293e 49fb a63d a460 81bd
000003c0: b738 cc3d a0c3 f53d c9c8 d23c 760e d0bd
000003d0: 50fe 943d 4795 043e 0480 4a3d 9be1 ddbd
000003e0: 3001 4dbd d863 67bd 6f0e 06be 55cb cf3c
000003f0: 99dd 12bd 6181 303e 5995 acbd 8e81 ae3d

network_body._body_endoder.seq_layers.2.bias f4 [128]
-0.0025976098 -0.01695101 -0.020551395 -0.011403511 -0.009015233 0.014517896 0.0063782893 0.006887014
-0.01806864 -0.019084414 0.02544054 0.03081955 -0.014080813 0.021393983 0.060243722 -0.00604373
0.00242813 -0.010096179 0.0011090968 -0.008066224 -0.006089429 -0.02254514 0.018488387 0.0054226853
0.009469145 -0.004859297 0.019397596 -0.013462673 -0.0057631405 0.009503838 0.048784874 0.0063013723
-0.021601267 0.0021158203 0.009483553 -0.009991326 -0.021078505 0.007324063 -0.009540188 -0.015791206
-0.020430366 0.0074971057 0.056505736 0.0109262485 -0.013310267 0.0096470555 0.008175586 0.0132498145
-0.0060662027 -0.007389135 0.008878636 0.028321352 -0.004729709 0.0026166358 -0.021449793 0.005441221
-0.014055433 0.034956973 0.006641184 -0.01949977 -0.022047482 -0.009246167 0.04762867 0.00596575
-0.011179754 0.0021961299 -0.01885282 0.0030002808 0.015629893 0.0025926395 -0.016411332 -0.013408159
-0.019998882 0.0023528785 0.0029826963 0.010721219 0.01870224 -0.021377884 0.016376238 0.025774943
0.027376402 -0.0014488503 0.029707491 0.011520651 -0.00018086041 -0.016682923 -0.016440686 0.0018476536
0.002588126 -0.016350206 0.0061375475 -0.026969489 -0.0019094638 -0.0005165432 0.017047284 -0.007084377
-0.010915681 -0.02211753 0.002447928 0.034376975 0.03095779 0.010442735 -0.018207937 -0.021844938
0.02054962 0.016193096 0.0121324565 0.032076497 -0.009786852 0.007918312 -0.0009128732 0.01134033
-0.0050647897 0.029588167 -0.0077957204 0.010271655 0.008581492 0.0062066545 0.01253053 -0.010716674
0.009480842 -0.002841442 0.015489893 -0.012834397 0.020805627 -0.02668024 -0.017474212 -0.017351853
00000000: a93c 2abb d8dc 8abc 665b a8bc cbd5 3abc
00000010: a1b4 13bc 78dc 6d3c f800 d13b 76ac e13b
00000020: af04 94bc eb56 9cbc ae68 d03c 4879 fc3c
00000030: 36b3 66bc 6f42 af3c 1fc2 763d 7b0a c6bb
00000040: 4321 1f3b 726a 25bc 1d5f 913a 3228 04bc
00000050: d589 c7bb 96b0 b8bc f574 973c c8b0 b13b
00000060: 7924 1b3c bd3a 9fbb b5e7 9e3c 8b92 5cbc
00000070: bad8 bcbb fcb5 1b3c a6d2 473d be7b ce3b
00000080: 24f5 b0bc 93a9 0a3b e760 1b3c a9b2 23bc
00000090: d4ac acbc b2fe ef3b 734e 1cbc 8f5c 81bc
000000a0: 955d a7bc 48aa f53b 8f72 673d 0204 333c
000000b0: 4e13 5abc af0e 1e3c e5f2 053c c015 593c
000000c0: ffc6 c6bb 8f20 f2bb b377 113c 2e02 e83c
000000d0: adfb 9abb dd7b 2b3b 7ab7 afbc 454c b23b
000000e0: c248 66bc 0b2f 0f3d 4a9e d93b fbbd 9fbc
000000f0: ec9c b4bc 3c7d 17bc 4816 433d 577c c33b
00000100: 492b 37bc f2ec 0f3b 3b71 9abc 5ca0 443b
00000110: 430a 803c 46e9 293b 0f71 86bc e5ad 5bbc
00000120: b2d4 a3bc c032 1a3b 5779 433b 0da8 2f3c
00000130: 7135 993c ac20 afbc 7627 863c f925 d33c
00000140: 7a44 e03c 59e7 bdba 205d f33c 1dc1 3c3c
00000150: 59a5 3db9 a0aa 88bc 9eae 86bc f82c f23a
00000160: 8d9d 293b def0 85bc 7b1d c93b 1eef dcbc
00000170: f946 faba a168 07ba bfa6 8b3c 1024 e8bb
00000180: afd7 32bc d32f b5bc 6b6d 203b dfce 0c3d
00000190: 319b fd3c 0118 2b3c d028 95bc 28f4 b2bc
000001a0: ad57 a83c 62a7 843c 36c7 463c a562 033d
000001b0: 0859 20bc cfbb 013c e24d 6fba cbcc 393c
000001c0: 89f6 a5bb e262 f23c 3e73 ffbb 724a 283c
000001d0: 6399 0c3c 3161 cb3b da4c 4d3c fd94 2fbc
000001e0: 8955 1b3c 7c37 3abb 52c9 7d3c 5d47 52bc
000001f0: 9070 aa3c 8590 dabc 1426 8fbc 7925 8ebc

action_model._continuous_distribution.log_sigma f4 [1, 2]
-0.018268483 -0.05464766
00000000: c9a7 95bc 3ad6 5fbd

action_model._continuous_distribution.mu.weight f4 [2, 128]
0.012423938 -0.002648243 -0.018789861 -0.060104802 -0.016122602 -0.07883284 0.05299551 -0.042293705
-0.01998744 -0.012719976 0.03429849 0.006355196 -0.031009037 0.013541223 0.008737015 0.0076335613
0.029573068 -0.029406978 -0.012837082 -0.00020236988 -0.06499234 0.00022507063 0.0047903005 0.043757103
0.01663971 -0.0024644495 0.012684681 -0.0051217675 -0.013939531 0.035988152 0.06362862 0.02205539
-0.02570413 0.025600232 0.028543668 -0.011732559 -0.019209042 0.030612117 0.011326715 -0.016530229
0.0059085563 0.042655677 0.08266785 0.008666572 0.0066144047 0.010475211 -0.0103859035 0.04659417
0.00412782 -0.030675206 0.009102741 -0.023271231 -0.04064785 0.023462223 -0.026376253 0.029835802
-0.010222036 0.0068868473 0.023752537 -0.015073845 -0.01048302 -0.0051282886 0.059931204 0.026065934
-0.022796784 0.019826595 -0.008936616 0.017044181 0.028300308 -0.0034566787 -0.042884186 -0.002979295
-0.028762043 -0.0177806 0.022795098 0.009755308 0.00818303 -0.009108162 0.015590384 0.04504622
0.067672044 -0.004293844 0.030971028 0.026574194 -0.016610896 -0.024062082 -0.042305347 -0.013882437
-0.002270116 -0.026222935 0.032772623 -0.009369767 -0.011518215 -0.022894438 -0.01698008 -0.004805337
-0.024875997 -0.013561594 0.003922751 0.039154895 0.030279467 0.029137267 -0.02571494 0.0003413524
0.044122186 0.0073540667 0.012782727 0.009233335 0.0076777684 -0.02306757 -0.02973542 0.024768608
0.00759752 0.031814966 -0.05070377 0.03245997 0.027072992 0.022884192 0.032509465 -0.004533529
-0.026897592 -0.05052489 0.022166766 -0.009904088 0.026794579 -0.015834928 -0.022642286 -0.014111708
0.01902654 0.044066515 0.039074253 0.0305467 -0.003944679 -0.031563368 0.008248214 -0.0077222306
0.017172154 0.013838111 0.011235346 -0.056037527 0.01096238 -0.0073706596 -0.07490687 0.0070700515
0.015827827 0.061641958 0.022618597 0.0004817952 -0.0014274827 0.0044283443 -0.02178509 0.037388373
0.08210815 0.032263312 -0.028744074 0.02508108 -0.01222554 0.038498726 -0.00857822 -0.004641737
0.008670112 0.037485104 -0.0041353297 -0.0017707541 0.031585388 0.029374063 0.027950324 -0.0024862438
0.026194718 0.021372639 -0.018542882 -0.007843923 0.01604196 0.00030704605 -0.020455193 0.07585958
-0.0012779195 -0.0036998505 -0.01966257 -0.05610885 0.04304645 0.02840818 0.019624015 0.02087448
0.034098145 -0.049791064 0.0039793886 0.0030871301 0.00448388 -0.007308675 -0.0219392 0.03207758
0.055718474 0.008640537 0.028744558 0.010789777 -0.021893358 -0.009509497 0.014623455 -0.0017425058
0.018895183 -0.024747472 0.032324996 -0.02911659 -0.038467098 -0.0012244696 -0.01733923 -0.029470546
-0.0119779045 -0.009338631 -0.040313702 0.021983787 -0.0120023955 0.007977072 -0.0013556959 -0.016531257
-0.012544894 0.010773928 0.04082123 0.0146996705 -0.012386794 -0.016895412 -0.051369723 -0.0065188874
0.038179055 0.011875467 -0.0043517677 -0.019564407 -0.023146236 0.0019200121 0.0056861555 0.0019215286
0.01213121 -0.027841302 -0.0108036185 -0.07110378 -0.0006557121 -0.025078416 -0.022368249 -0.014943877
0.011523581 -0.009640357 -0.011836131 -0.007600959 -0.0024150265 0.013825036 0.013360998 -0.0019373232
0.08281092 -0.0020662153 0.058199722 -0.0013944845 -0.017507162 0.017955415 0.041655317 0.002255862
00000000: c68d 4b3c 258e 2dbb 32ed 99bc 7430 76bd
00000010: 8c13 84bc 1d73 a1bd d211 593d 2a3c 2dbd
00000020: b3bc a3bc 7267 50bc 937c 0c3d 3f3f d03b
00000030: aa06 febc 01dc 5d3c b225 0f3c f422 fa3b
00000040: 3843 f23c e7e6 f0bc a052 52bc 4033 54b9
00000050: b41a 85bd f000 6c39 f4f7 9c3b a63a 333d
00000060: 0050 883c 9a82 21bb 69d3 4f3c 80d4 a7bb
00000070: a162 64bc 5068 133d b94f 823d 81ad b43c
00000080: 7891 d2bc 94b7 d13c 69d4 e93c eb39 40bc
00000090: 485c 9dbc 43c6 fa3c b093 393c 676a 87bc
000000a0: 909c c13b b8b7 2e3d c34d a93d 3dfe 0d3c
000000b0: a6bd d83b 38a0 2b3c a329 2abc 87d9 3e3d
000000c0: aa42 873b 924a fbbc aa23 153c 4fa3 bebc
000000d0: 5c7e 26bd d933 c03c 0313 d8bc 366a f43c
000000e0: 547a 27bc 10ab e13b ae94 c23c 4af8 76bc
000000f0: f9c0 2bbc 340b a8bb 6c7a 753d 3a88 d53c
00000100: 52c0 babc 626b a23c e26a 12bc 3da0 8b3c
00000110: 0cd6 e73c 7289 62bb 54a7 2fbd 4740 43bb
00000120: 609e ebbc 9fa8 91bc c9bc ba3c bad4 1f3c
00000130: 1e12 063c 663a 15bc cf6e 7f3c 6382 383d
00000140: a497 8a3d 60b3 8cbb f4b6 fd3c 20b2 d93c
00000150: 9313 88bc d81d c5bc 5f48 2dbd 2973 63bc
00000160: 3ac6 14bb 7bd1 d6bc 963c 063d a783 19bc
00000170: e5b6 3cbc 1e8d bbbc cf19 8bbc 1776 9dbb
00000180: bfc8 cbbc 7331 5ebc 6c8a 803b e260 203d
00000190: a50c f83c 47b1 ee3c 23a8 d2bc 8bf7 b239
000001a0: 77b9 343d 62fa f03b a56e 513c 6a47 173c
000001b0: ca95 fb3b 33f8 bcbc b297 f3bc 89e7 ca3c
000001c0: 9ef4 f83b 6950 023d c2ae 4fbd bff4 043d
000001d0: 2ec8 dd3c a177 bb3c a528 053d ff8d 94bb
000001e0: 5758 dcbc 30f3 4ebd 1497 b53c c244 22bc
000001f0: 4e80 db3c 40b8 81bc 517c b9bc cb34 67bc
00000200: 8cdd 9b3c 177f 343d 530c 203d 133d fa3c
00000210: 5e42 81bb 9748 01bd 8423 073c c40a fdbb
00000220: 9eac 8c3c 3fb9 623c 7514 383c 9b87 65bd
00000230: 8e9b 333c 9385 f1bb c668 99bd e4ab e73b
00000240: 5ca9 813c 477c 7c3d a34a b93c 7599 fc39
00000250: 5f1a bbba a51b 913b a576 b2bc 8d24 193d
00000260: 5128 a83d 8926 043d b178 ebbc d676 cd3c
00000270: a24d 48bc d7b0 1d3d aa8b 0cbc b619 98bb
00000280: 160d 0e3c fb89 193d a981 87bb a618 e8ba
00000290: ae5f 013d e0a1 f03c 14f8 e43c 40f0 22bb
000002a0: 4e96 d63c ac15 af3c 3ee7 97bc cc83 00bc
000002b0: 6e6a 833c 06fb a039 a691 a7bc 445c 9b3d
000002c0: dd7f a7ba 3179 72bb 6613 a1bc 65d2 65bd
000002d0: 7951 303d 46b8 e83c 8bc2 a03c f500 ab3c
000002e0: 7faa 0b3d b7f1 4bbd 8865 823b 7351 4a3b
000002f0: 83ed 923b 9c7d efbb d6b9 b3bc c863 033d
00000300: 0e39 643d 0a91 0d3c b579 eb3c 9bc7 303c
00000310: b359 b3bc b9cd 1bbc 3797 6f3c cb64 e4ba
00000320: 12ca 9a3c 36bb cabc 3767 043d ea85 eebc
00000330: ad8f 1dbd 627e a0ba 000b 8ebc 376c f1bc
00000340: f93e 44bc 0f01 19bc fb1f 25bd 5817 b43c
00000350: b2a5 44bc 44b2 023c 9bb1 b1ba 8f6c 87bc
00000360: 1989 4dbc 2185 303c 2934 273d e3d6 703c
00000370: fbf1 4abc 3f68 8abc 0f69 52bd 649c d5bb
00000380: a461 1c3d 5291 423c 4699 8ebb 8945 a0bc
00000390: 2d9d bdbc eaa8 fb3a ee52 ba3b cddb fb3a
000003a0: fcc1 463c 7113 e4bc a901 31bc dc9e 91bd
000003b0: 18e4 2bba 4071 cdbc 9e3d b7bc 2ad7 74bc
000003c0: 67cd 3c3c 97f2 1dbc 55ec 41bc 7711 f9bb
000003d0: 6c45 1ebb 6782 623c 16e8 5a3c c8ed fdba
000003e0: c698 a93d 5769 07bb d562 6e3d 23c7 b6ba
000003f0: 2e6b 8fbc 3c17 933c c49e 2a3d 16d7 133b

action_model._continuous_distribution.mu.bias f4 [2]
0.011984791 -0.014458151
00000000: db5b 443c e1e1 6cbc

exp_avg f4 [128, 8]
-8.401852e-06 -3.8388083e-05 -0.0003543039 0.00014217988 -0.00013730825 -0.00018276784 -0.000106472646 -4.9002436e-05
0.00012258654 -0.0001178482 8.005679e-05 -1.956757e-05 6.6349756e-05 3.7271308e-05 8.727332e-05 1.4573431e-05
6.123449e-05 -3.2363656e-05 -0.00011793056 0.00014799282 -9.020553e-05 -0.0001529846 -6.859818e-05 -2.6216076e-05
0.00014200712 7.2734556e-06 0.00014542317 -0.00012310172 3.0383344e-05 6.868243e-05 9.8162076e-05 -6.745512e-05
3.1949075e-05 7.6453194e-05 0.0002075489 9.609978e-05 4.9935334e-05 -4.111035e-05 0.00026775606 0.00014561499
-7.1324015e-05 0.00013835228 -5.451596e-05 -3.0610885e-05 -0.00019112449 -3.1239197e-05 6.67127e-05 1.4307935e-05
0.0002938218 -0.000253683 0.00035165023 0.0002663594 0.00037355037 3.203855e-05 0.0001871987 7.4786934e-05
-0.00012245006 1.03009215e-05 9.0575486e-05 4.8877915e-05 -5.9841394e-05 2.6243739e-05 -6.277285e-06 8.97612e-05
8.847499e-05 -0.00017738024 -0.0004364453 0.00017508374 -0.00034111043 -0.00022469214 -0.000114451206 -0.00028901274
7.039364e-05 1.6851242e-05 4.467105e-05 -7.279649e-05 -3.6936293e-05 2.2928905e-05 -0.00022168238 -8.669861e-05
1.1084821e-05 2.2367656e-05 0.000105523926 -7.9305355e-05 -9.0845904e-05 2.0762955e-05 0.00015543093 7.410965e-05
-0.00010192784 0.00019269543 -0.000100416415 8.155459e-05 -0.00022190629 -0.00023925326 2.6317899e-05 0.00019251087
-2.9082288e-05 9.2625254e-05 -2.6301772e-05 1.0288979e-05 -4.4945304e-05 0.00016051633 -9.050341e-05 -2.287313e-05
-0.00018448425 -0.00027247806 -0.00032379618 0.00011025134 5.4790828e-08 -0.00018867913 -6.49371e-05 -5.7548365e-05
1.458925e-05 0.00030148754 0.0002536345 -8.461289e-05 -0.00014592706 0.000114468494 6.839707e-07 0.00010574278
-0.00018753034 -8.652486e-05 -0.00035706258 -8.032297e-06 -0.00015347666 -4.007347e-05 -0.00018804752 -0.00014487556
6.0473485e-05 5.904886e-05 0.00013295125 0.00012767673 1.0211838e-05 3.4181914e-05 7.303583e-05 3.611723e-05
8.633355e-06 8.332686e-05 0.00012286076 -5.7068937e-05 9.252562e-05 8.492956e-05 -3.5890967e-05 6.1471175e-05
0.00024643767 0.00011976576 9.9314835e-05 -1.0104392e-06 -0.00021824759 -0.00019411062 0.00014990073 -9.53697e-06
-7.280959e-05 -1.2080848e-05 -7.077517e-05 -3.5453962e-05 -0.00011971113 -8.113201e-06 -5.3183478e-05 -8.1255115e-05
-2.0498645e-05 -7.673102e-05 0.00027865084 -0.00020984189 0.00014171182 0.00029138755 -0.00012692441 -9.001311e-05
-3.4691548e-05 -2.4557237e-05 -8.422731e-05 1.3003929e-05 -2.0385278e-05 -2.0725109e-05 -8.521172e-05 -3.591868e-05
0.00015478353 0.0004039376 1.8576955e-05 -0.00024344533 -0.00015314078 0.000250512 -5.3929492e-05 -0.00010781201
-8.402307e-05 -5.5078828e-05 -0.00023358053 0.00013135633 -0.00014753109 -0.00016450368 -1.6791928e-05 -1.8218621e-05
2.480785e-05 -0.00012644938 -0.00023009806 7.570041e-05 0.00011899768 1.0438658e-05 -9.0355614e-05 -4.605369e-05
0.00011877874 6.4355554e-05 0.00015885095 -0.00021850917 0.00019758589 1.05544295e-05 8.1208105e-05 -1.5349946e-05
0.0004673064 0.000392099 0.00042492547 -0.00025701427 0.00018293214 0.0003471439 0.00019724286 3.84962e-05
0.000109185814 0.00015167483 0.00020809672 2.7889006e-05 6.66134e-05 0.000120126955 3.7945038e-06 0.000100291414
0.0002471193 -7.926051e-05 0.00025813424 0.00019182487 0.0002758776 6.6099026e-05 0.00019153715 1.5313231e-05
-3.6515128e-05 0.00014235644 -0.0003952137 0.00020365696 -0.00036692817 -0.00046233943 1.2112538e-05 -5.3528387e-05
0.00014280659 9.464779e-05 0.00041251574 5.6821602e-05 0.00024720962 0.0002082851 -5.6105073e-05 0.00015929817
3.7993577e-05 0.00010063482 0.00016806167 -0.00012750208 3.8225942e-05 5.68163e-05 6.4825246e-05 7.070592e-05
00000000: aef5 0cb7 e402 21b8 ddc1 b9b9 1f16 1539
00000010: 67fa 0fb9 5ea5 3fb9 114a dfb8 f787 4db8
00000020: 938a 0039 4525 f7b8 29e4 a738 0925 a4b7
00000030: 4125 8b38 c353 1c38 8206 b738 6980 7437
00000040: 046b 8038 36be 07b8 7d51 f7b8 852e 1b39
00000050: ba2c bdb8 7e6a 20b9 5edc 8fb8 98ea dbb7
00000060: bfe7 1439 820e f436 bc7c 1839 de14 01b9
00000070: bcdf fe37 9909 9038 5ddc cd38 b176 8db8
00000080: 0f01 0638 7f55 a038 7ca1 5939 2d89 c938
00000090: a871 5138 e76d 2cb8 9c61 8c39 3ab0 1839
000000a0: ca93 95b8 a812 1139 11a8 64b8 3064 00b8
000000b0: 9768 48b9 d506 03b8 1ce8 8b38 1d0c 7037
000000c0: 180c 9a39 c200 85b9 b25d b839 27a6 8b39
000000d0: 15d9 c339 2261 0638 c54a 4439 eed6 9c38
000000e0: f065 00b9 1fd2 2c37 58f3 bd38 4302 4d38
000000f0: 35fe 7ab8 0026 dc37 78a1 d2b6 2d3e bc38
00000100: a68b b938 25ff 39b9 b2d2 e4b9 af96 3739
00000110: 11d7 b2b9 569b 6bb9 8605 f0b8 a286 97b9
00000120: 4ca0 9338 c45b 8d37 2d5d 3b38 51aa 98b8
00000130: 0bec 1ab8 7357 c037 6973 68b9 f6d1 b5b8
00000140: f2f8 3937 2da2 bb37 ba4c dd38 bd50 a6b8
00000150: 8684 beb8 1b2c ae37 2cfb 2239 516b 9b38
00000160: 18c2 d5b8 490e 4a39 a796 d2b8 4a08 ab38
00000170: 84af 68b9 0fe0 7ab9 42c5 dc37 bedc 4939
00000180: bdf5 f3b7 ce3f c238 a0a2 dcb7 d49e 2c37
00000190: a783 3cb8 4650 2839 a6cc bdb8 acdf bfb7
000001a0: 1d72 41b9 63db 8eb9 30c3 a9b9 bd36 e738
000001b0: 2753 6b33 2bd8 45b9 d72e 88b8 1660 71b8
000001c0: 5ac4 7437 f910 9e39 3ffa 8439 3372 b1b8
000001d0: ff03 19b9 ce0e f038 1c9a 3735 39c2 dd38
000001e0: cba3 44b9 ae74 b5b8 2134 bbb9 74c2 06b7
000001f0: 94ee 20b9 9014 28b8 9f2e 45b9 bde9 17b9
00000200: e9a4 7d38 3bab 7738 d468 0b39 f6e0 0539
00000210: 8353 2b37 8d5e 0f38 d02a 9938 957c 1738
00000220: fad7 1037 c4bf ae38 2fd4 0039 4e5d 6fb8
00000230: 500a c238 361c b238 a289 16b8 16ea 8038
00000240: 4e34 8139 c12a fb38 3f47 d038 6d9e 87b5
00000250: 64d9 64b9 2c8a 4bb9 ac2e 1d39 f900 20b7
00000260: 5ab1 98b8 d9ae 4ab7 216d 94b8 67b4 14b8
00000270: 6c0d fbb8 ef1d 08b7 5311 5fb8 8267 aab8
00000280: 81f4 abb7 a7ea a0b8 e217 9239 0109 5cb9
00000290: 7a98 1439 60c5 9839 0317 05b9 6cc5 bcb8
000002a0: c481 11b8 4400 ceb7 31a3 b0b8 732b 5a37
000002b0: 0d01 abb7 d5da adb7 b2b3 b2b8 64a7 16b8
000002c0: 634d 2239 96c7 d339 b5d5 9b37 5c45 7fb9
000002d0: 6a94 20b9 2757 8339 5a32 62b8 2219 e2b8
000002e0: 8b35 b0b8 7104 67b8 4ced 74b9 b2bc 0939
000002f0: 93b2 1ab9 9f7e 2cb9 64dc 8cb7 31d4 98b7
00000300: 741a d037 7f97 04b9 7a46 71b9 59c1 9e38
00000310: 658e f938 b221 2f37 4d7d bdb8 c629 41b8
00000320: da18 f938 a0f6 8638 3a91 2639 9c1f 65b9
00000330: 0f2f 4f39 ee12 3137 454e aa38 c2c3 80b7
00000340: ce00 f539 a392 cd39 88c8 de39 dfbf 86b9
00000350: 79d1 3f39 de00 b639 fad2 4e39 fb76 2138
00000360: b0fa e438 e70a 1f39 8a34 5a39 2ff3 e937
00000370: ccb2 8b38 abec fb38 14a5 7e36 8b53 d238
00000380: ca8f 8139 aa38 a6b8 3156 8739 9924 4939
00000390: aaa3 9039 a59e 8a38 5dd7 4839 ea74 8037
000003a0: d227 19b8 8445 1539 af34 cfb9 c08c 5539
000003b0: 4460 c0b9 2666 f2b9 f436 4b37 ab83 60b8
000003c0: 5abe 1539 a57d c638 ed46 d839 bb53 6e38
000003d0: ea9b 8139 1b67 5a39 5d52 6bb8 4709 2739
000003e0: 4b5b 1f38 e80b d338 b639 3039 14b2 05b9
000003f0: cb54 2038 0a4e 6e38 caf2 8738 f447 9438

exp_avg_sq f4 [128, 8]
3.1384548e-07 2.2275806e-07 2.7701338e-07 6.2274086e-07 3.089018e-07 1.5335532e-07 7.245504e-07 1.3535087e-07
3.145791e-07 3.163034e-07 4.4614558e-07 7.729141e-07 6.197307e-07 1.6608523e-07 1.9585034e-06 2.0141472e-07
2.760431e-07 2.075772e-07 2.5054817e-07 3.8823222e-07 3.106825e-07 1.4592277e-07 4.0911553e-07 1.5795042e-07
9.527799e-08 1.00414e-07 1.2781706e-07 1.8456514e-07 1.6042233e-07 7.2626236e-08 5.662649e-07 9.684312e-08
2.2647005e-07 2.817052e-07 2.3823118e-07 2.3838507e-07 3.8569448e-07 1.8728514e-07 3.2540999e-07 3.007177e-07
1.2517704e-07 1.698688e-07 1.6129167e-07 2.9950388e-07 1.9847528e-07 9.298826e-08 4.1902138e-07 1.3231654e-07
4.066255e-07 4.1999735e-07 6.158298e-07 3.7872954e-07 6.6913356e-07 3.2895792e-07 4.8866036e-07 2.9115202e-07
1.4417192e-07 1.7109524e-07 1.4873883e-07 1.007906e-07 1.7908611e-07 1.207797e-07 3.0165387e-07 1.2341214e-07
7.9846524e-07 8.500635e-07 8.7681633e-07 1.5504104e-06 1.0413069e-06 5.88113e-07 9.689683e-07 5.3069465e-07
1.4720938e-07 2.2024656e-07 2.2628592e-07 3.5776102e-07 2.950759e-07 1.0305007e-07 6.358597e-07 1.2029197e-07
2.0405568e-07 2.1522534e-07 2.5009246e-07 2.9912695e-07 2.9214561e-07 1.7943887e-07 1.0195918e-06 1.7813365e-07
3.0011176e-07 2.6632702e-07 3.2543267e-07 6.4238355e-07 4.680528e-07 1.4795266e-07 1.5792788e-06 1.8731e-07
1.230859e-07 1.3437396e-07 1.4066309e-07 8.346847e-08 1.7608805e-07 1.1953806e-07 1.793836e-07 1.1794257e-07
3.4867773e-07 4.0720312e-07 4.044291e-07 7.333514e-07 4.483108e-07 1.8394071e-07 5.433003e-07 2.9809001e-07
3.6025827e-07 3.2877583e-07 5.358663e-07 3.2459155e-07 4.842089e-07 2.8887334e-07 7.282759e-07 3.2452436e-07
3.8168102e-07 3.8529825e-07 4.5430087e-07 8.5367805e-07 5.6811734e-07 2.2618491e-07 1.9245742e-06 2.3444167e-07
9.624994e-08 9.132331e-08 8.958132e-08 1.2296422e-07 1.2375527e-07 5.930757e-08 1.3827552e-07 7.8985934e-08
5.268685e-08 6.1449335e-08 8.178093e-08 8.461515e-08 1.07848436e-07 6.013182e-08 1.9685342e-07 6.1184714e-08
3.0025913e-07 2.4355515e-07 2.8686418e-07 1.5604994e-07 4.2165905e-07 2.7502028e-07 3.378567e-07 2.5090677e-07
4.3932204e-08 6.063124e-08 5.3679983e-08 7.653102e-08 8.6684494e-08 4.126627e-08 9.820447e-08 5.4499186e-08
6.822356e-07 7.1108434e-07 8.8424054e-07 1.7881591e-06 9.834279e-07 3.7789175e-07 2.5532584e-06 3.5378778e-07
6.075246e-08 4.967753e-08 6.093281e-08 1.16049854e-07 7.697405e-08 4.0896847e-08 1.5206801e-07 4.0689294e-08
1.3141434e-06 1.551661e-06 1.3762921e-06 3.0461033e-06 1.7388381e-06 7.723713e-07 1.7086271e-06 7.208974e-07
1.126655e-07 1.0521784e-07 1.3017728e-07 1.9427893e-07 1.562233e-07 6.849663e-08 3.148749e-07 9.848064e-08
3.0335096e-07 2.7231053e-07 4.1363256e-07 6.1306173e-07 4.2363186e-07 2.1728614e-07 5.6662077e-07 1.9029706e-07
2.856723e-07 3.223777e-07 3.3683168e-07 4.838647e-07 4.097444e-07 1.9814526e-07 1.2558401e-06 2.702824e-07
9.809872e-07 1.2173373e-06 1.2149214e-06 1.8684539e-06 1.4273662e-06 5.9949303e-07 1.7974812e-06 7.8632047e-07
3.3996827e-07 4.118031e-07 3.8607274e-07 5.3583824e-07 4.6038e-07 2.2596547e-07 4.3289535e-07 2.5994342e-07
6.1766673e-07 4.7127128e-07 6.5035897e-07 1.0370771e-06 7.4608624e-07 3.1487957e-07 7.9416793e-07 4.0999115e-07
9.626303e-07 7.6135825e-07 8.8631293e-07 1.6476374e-06 1.0647275e-06 3.920929e-07 3.07029e-06 4.388979e-07
2.7022097e-07 3.865414e-07 3.8290997e-07 3.9333437e-07 4.7960486e-07 2.6680442e-07 4.3568426e-07 3.1211496e-07
1.5142498e-07 1.9225585e-07 1.656405e-07 2.0429823e-07 3.583635e-07 1.3453798e-07 3.0317383e-07 2.354214e-07
00000000: 987e a834 452f 6f34 6eb8 9434 6d2a 2735
00000010: 24d7 a534 fda9 2434 b97e 4235 f754 1134
00000020: 6ce3 a834 69d0 a934 c885 ef34 417a 4f35
00000030: 925b 2635 2955 3234 d56e 0336 7544 5834
00000040: 1333 9434 63e2 5e34 1483 8634 3b6e d034
00000050: e1cb a634 f2ae 1c34 69a4 db34 1599 2934
00000060: a19b cc33 2ea3 d733 163e 0934 e12c 4634
00000070: 8e40 2c34 b2f6 9b33 6d01 1835 11f8 cf33
00000080: 9d2b 7334 453d 9734 7dcc 7f34 caf6 7f34
00000090: 7211 cf34 8c18 4934 02b4 ae34 5372 a134
000000a0: 6768 0634 2e65 3634 842f 2d34 80cb a034
000000b0: 781c 5534 d6b0 c733 dcf5 e034 e512 0e34
000000c0: 2f4e da34 ff7b e134 804f 2535 3154 cb34
000000d0: 829e 3335 a29b b034 7c2c 0335 a14f 9c34
000000e0: adcd 1a34 4db6 3734 05b5 1f34 3872 d833
000000f0: d14a 4034 acaf 0134 fef2 a134 4583 0434
00000100: 1d56 5635 eb2f 6435 5c5e 6b35 b217 d035
00000110: 08c3 8b35 d1de 1d35 7f0d 8235 0f75 0e35
00000120: 9b10 1e34 ea7c 6c34 00f9 7234 4d12 c034
00000130: ec6a 9e34 604c dd33 f2af 2a35 9b29 0134
00000140: 661a 5b34 b118 6734 7244 8634 b297 a034
00000150: 30d8 9c34 c8ab 4034 e8d8 8835 0145 3f34
00000160: 0c1f a134 b5fb 8e34 20b7 ae34 4370 2c35
00000170: b048 fb34 ebdc 1e34 9bf7 d335 611f 4934
00000180: 9829 0434 6f48 1034 2d09 1734 473f b333
00000190: b712 3d34 5f5a 0034 979c 4034 9d47 fd33
000001a0: e731 bb34 929d da34 5020 d934 86db 4435
000001b0: 5eaf f034 3d81 4534 50d7 1135 2e09 a034
000001c0: 8569 c134 9b82 b034 74d8 0f35 8643 ae34
000001d0: 95fa 0135 7316 9b34 bd7e 4335 4a3a ae34
000001e0: d7e9 cc34 fdda ce34 a3e6 f334 4f28 6535
000001f0: ba80 1835 3cdd 7234 ef27 0136 d6ba 7b34
00000200: f7b1 ce33 851d c433 da5f c033 2608 0434
00000210: 97e1 0434 5db9 7e33 e378 1434 fa9e a933
00000220: ce49 6233 21f6 8333 8b9f af33 acb5 b533
00000230: 4e9a e733 d121 8133 a85e 5334 a764 8333
00000240: 4d33 a134 f7c1 8234 5002 9a34 ae8e 2734
00000250: 6160 e234 80a6 9334 ac62 b534 5db4 8634
00000260: f8af 3c33 6034 8233 c48d 6633 6059 a433
00000270: 4e27 ba33 be3c 3133 7ae4 d233 7d12 6a33
00000280: e022 3735 58e1 3e35 8c5c 6d35 ae00 f035
00000290: 53fe 8335 0ce1 ca34 a558 2b36 39f0 bd34
000002a0: 0577 8233 065d 5533 2bda 8233 1537 f933
000002b0: ee4c a533 8fa6 2f33 2348 2334 5ac2 2e33
000002c0: a061 b035 aa42 d035 09b9 b835 a86b 4c36
000002d0: 0662 e935 f454 4f35 fb53 e535 b183 4135
000002e0: 83f2 f133 1ff4 e133 dcc6 0b34 fc9a 5034
000002f0: 55be 2734 6c18 9333 140c a934 4e7c d333
00000300: 3ddc a234 1332 9234 3a11 de34 4891 2435
00000310: 856f e334 294f 6934 e219 1835 7554 4c34
00000320: 805e 9934 4113 ad34 cbd5 b434 eee2 0135
00000330: d7fa db34 c1c1 5434 568e a835 551b 9134
00000340: 77aa 8335 6463 a335 6210 a335 96c7 fa35
00000350: ee93 bf35 d9ec 2035 fc40 f135 8813 5335
00000360: e284 b634 c915 dd34 6f45 cf34 86d6 0f35
00000370: 252a f734 eaa0 7234 af68 e834 5a8e 8b34
00000380: bccd 2535 0803 fd34 5494 2e35 b331 8b35
00000390: a846 4835 b80c a934 ce2e 5535 c11c dc34
000003a0: ba33 8135 2460 4c35 f6ea 6d35 6424 dd35
000003b0: c2e7 8e35 d680 d234 2e0b 4e36 aba1 eb34
000003c0: e312 9134 d885 cf34 bf92 cd34 772b d334
000003d0: 32be 0035 523d 8f34 fde7 e934 c190 a734
000003e0: 6297 2234 e36e 4e34 eada 3134 125d 5b34
000003f0: 1b65 c034 8575 1034 e5c3 a234 24c8 7c34

exp_avg f4 [128]
0.000117672134 6.187096e-07 0.00011172887 -9.800115e-05 0.00017836904 -6.56836e-05 0.00046737381 0.000121914396
0.00029339234 -6.81577e-05 -0.00011363636 -2.1869195e-05 -0.00014385658 1.15869025e-05 -0.00017070514 -2.1697135e-05
6.753107e-05 -5.077326e-05 0.00016629521 -1.8397868e-05 -0.00027012086 -6.58845e-06 -0.00024609672 2.9645444e-05
4.8463346e-05 -5.6953344e-05 -0.00031963288 -4.2606785e-05 0.00041112164 6.789687e-05 8.142727e-05 -3.43069e-05
3.877529e-05 -0.000110190966 2.1534912e-05 -7.508521e-05 4.276057e-05 -0.00024250457 -6.304394e-05 4.3463828e-05
1.1386057e-05 2.929056e-06 -0.00047528234 0.000123114 -0.00025227404 0.00018520298 0.00012434146 3.8499442e-05
-2.4715603e-06 0.00015607708 -0.0001297499 0.00028359552 0.00015728892 4.2649877e-05 0.00042281573 -3.4940542e-06
-5.8694914e-05 -4.8200396e-05 4.7717345e-05 -0.0002437929 -0.00010668792 0.0007453996 0.0002590591 0.00016286343
9.17918e-05 0.0002625728 5.2001527e-05 -0.000119780896 -5.061244e-07 0.00011593851 0.0002095359 -0.0004555013
0.00039091363 0.00023676905 -0.00012701552 -0.00015020312 -8.897535e-05 -0.00029321157 0.00015741325 0.00042883243
-7.895718e-05 -0.00017809596 -0.00017967046 -0.00016869852 0.00029322077 0.00016641604 -7.007687e-05 -4.0822135e-05
-0.00036984336 -9.727742e-05 0.00018623855 -2.9525847e-05 0.0007693741 -0.000106870124 2.5961466e-05 5.5776996e-05
-0.00017091916 -0.00028681738 -6.0128514e-05 0.00015254073 0.00033259054 -5.1910396e-05 -0.0010285653 0.00016124282
7.177927e-05 8.521501e-05 0.0004935761 0.00010823139 0.0002885484 -0.0005008005 0.00011447851 -8.4864034e-05
3.2061384e-05 -4.468126e-06 4.9928385e-05 1.6717233e-05 -0.00015538537 8.225742e-05 -4.1971132e-05 1.44001515e-05
-7.455886e-05 -3.994112e-05 4.8294278e-05 -6.725113e-05 0.00016998824 2.224962e-05 4.3637752e-05 -3.3841268e-06
00000000: bfc6 f638 6615 2635 fb4f ea38 f785 cdb8
00000010: 9308 3b39 9dbf 89b8 da09 f539 4bac ff38
00000020: 74d2 9939 e3ef 8eb8 0e50 eeb8 bd73 b7b7
00000030: 35d8 16b9 5e65 4237 50ff 32b9 3e02 b6b7
00000040: 789f 8d38 5ff5 54b8 885f 2e39 1f55 9ab7
00000050: 029f 8db9 5b12 ddb6 8b06 81b9 1baf f837
00000060: 1f45 4b38 30e1 6eb8 6694 a7b9 b0b4 32b8
00000070: d08b d739 db63 8e38 efc3 aa38 c1e4 0fb8
00000080: a7a2 2238 5316 e7b8 dfa5 b437 1177 9db8
00000090: d059 3338 d348 7eb9 7536 84b8 ee4c 3638
000000a0: be06 3f37 cd90 4436 512f f9b9 2a18 0139
000000b0: a643 84b9 0c33 4239 a861 0239 767a 2138
000000c0: 15dd 25b6 9fa8 2339 790d 08b9 8caf 9439
000000d0: eced 2439 f5e2 3238 5ead dd39 657b 6ab6
000000e0: 2f2f 76b8 c82a 4ab8 1c24 4838 a9a2 7fb9
000000f0: a4bd dfb8 ec66 433a 53d2 8739 52c6 2a39
00000100: 5980 c038 eda9 8939 371c 5a38 e132 fbb8
00000110: 9bdc 07b5 0324 f338 ddb6 5b39 59d0 eeb9
00000120: 8af3 cc39 3545 7839 782f 05b9 d87f 1db9
00000130: 4798 bab8 31ba 99b9 4c0f 2539 ead4 e039
00000140: d095 a5b8 45bf 3ab9 ec65 3cb9 aae4 30b9
00000150: 6dbb 9939 f77f 2e39 3cf6 92b8 6f38 2bb8
00000160: 89e7 c1b9 6b01 ccb8 0849 4339 46ae f7b7
00000170: d2af 493a 761f e0b8 d3c7 d937 18f2 6938
00000180: c338 33b9 fa5f 96b9 8032 7cb8 57f3 1f39
00000190: 8c5f ae39 5dba 59b8 edd0 86ba 4a13 2939
000001a0: 3488 9638 76b5 b238 5563 013a 49fa e238
000001b0: 5048 9739 2748 03ba 2f14 f038 08f9 b1b8
000001c0: a679 0638 e9ec 95b6 326a 5138 fc3b 8c37
000001d0: f1ee 22b9 9e81 ac38 290a 30b8 2e98 7137
000001e0: 7c5c 9cb8 7386 27b8 968f 4a38 2d09 8db8
000001f0: df3e 3239 b2a4 ba37 ae07 3738 db1a 63b6

exp_avg_sq f4 [128]
5.2477765e-07 6.4066444e-07 4.4829568e-07 1.6374263e-07 3.5537192e-07 1.6911267e-07 8.814086e-07 2.225311e-07
1.7054244e-06 3.1435727e-07 3.4104684e-07 5.7907135e-07 3.0786254e-07 7.331805e-07 6.7937333e-07 8.236256e-07
1.9006256e-07 8.6341984e-08 5.526565e-07 7.7740154e-08 1.4894831e-06 9.9947584e-08 2.9238233e-06 2.1068702e-07
6.0545284e-07 3.5840455e-07 2.5431466e-06 7.7655454e-07 9.2275764e-07 1.638858e-06 5.789558e-07 2.2330389e-07
4.7867275e-07 5.853754e-07 5.350779e-07 2.2865056e-07 1.2912449e-07 2.8175305e-07 4.969698e-07 1.2723957e-07
2.5228795e-07 2.0707928e-07 2.1911028e-06 4.8810045e-07 1.6599172e-06 2.0257693e-07 2.3149714e-07 1.184118e-07
1.5289176e-07 4.8924204e-07 6.687237e-07 5.080141e-07 5.1676466e-07 8.4270334e-07 1.6836062e-06 2.5741812e-07
1.7414452e-06 9.555295e-07 1.6210588e-07 1.7435354e-06 5.275449e-07 3.162133e-06 5.6284887e-07 7.615488e-07
9.405756e-07 4.4330486e-07 2.1451034e-07 1.240253e-07 2.3972683e-07 6.634784e-07 2.0478742e-06 2.1177407e-06
9.621973e-07 1.5752452e-06 5.293145e-07 7.465339e-07 1.3333256e-07 6.7887856e-07 4.461113e-07 5.1228058e-06
5.6318464e-07 3.117398e-07 1.2071897e-06 2.7294126e-07 1.6809203e-06 8.2806224e-07 1.8311368e-07 2.724313e-07
3.3180556e-06 7.159155e-07 4.817926e-07 2.0501163e-07 4.324247e-06 8.3438556e-07 2.1506116e-07 1.2820066e-06
1.1449464e-06 1.6504624e-06 1.02551745e-07 2.0236037e-07 1.7940384e-06 2.3068169e-07 6.3736725e-06 6.115024e-07
3.5665857e-07 4.7888113e-07 2.004502e-06 1.5958058e-07 8.620154e-07 2.0761172e-06 9.8861925e-08 1.0243623e-06
4.1389671e-07 2.1426389e-07 3.1864688e-06 4.462341e-08 1.1632815e-06 3.7765562e-07 2.921784e-07 4.4834294e-07
1.2152984e-07 6.0638236e-08 1.7095252e-07 5.4803326e-07 2.3760646e-07 3.3207843e-07 2.1385324e-06 1.2925732e-07
00000000: 72de 0c35 20fa 2b35 4aad f034 3bd1 2f34
00000010: f2c9 be34 5695 3534 f099 6c35 e2f0 6e34
00000020: f0e5 e435 efc4 a834 1f19 b734 7b71 1b35
00000030: 4e48 a534 c8cf 4435 2e5e 3635 1f17 5d35
00000040: 0014 4c34 026b b933 445a 1435 1af2 a633
00000050: 40ea c735 c4a2 d633 e736 4436 3539 6234
00000060: 6786 2235 bf6a c034 edaa 2a36 6c74 5035
00000070: 6cb3 7735 bbf6 db35 8a69 1b35 4ec5 6f34
00000080: 247e 0035 b122 1d35 46a2 0f35 fd82 7534
00000090: 78a5 0a34 d843 9734 8167 0535 599f 0834
000000a0: 3172 8734 8559 5e34 dc0a 1336 0206 0335
000000b0: 52ca de35 ec83 5934 7391 7834 9349 fe33
000000c0: 912a 2434 7554 0335 5882 3335 775e 0835
000000d0: ccb7 0a35 2236 6235 45f8 e135 4733 8a34
000000e0: 9abb e935 be3f 8035 530f 2e34 6c03 ea35
000000f0: 9c9c 0d35 0835 5436 ae16 1735 3c6d 4c35
00000100: dd7b 7c35 5bff ed34 2754 6634 d12b 0534
00000110: ceb3 8034 e319 3235 366e 0936 821e 0e36
00000120: d924 8135 036d d335 3716 0e35 6b65 4835
00000130: 2d2a 0f34 2e3c 3635 1281 ef34 91e4 ab36
00000140: c12d 1735 315d a734 b906 a235 c388 9234
00000150: fb9b e135 0148 5e35 e89d 4434 ac42 9234
00000160: c3ab 5e36 572d 4035 8954 0135 2b21 5c34
00000170: 0019 9136 8afa 5f35 90eb 6634 6911 ac35
00000180: 0fac 9935 7585 dd35 6b3a dc33 6548 5934
00000190: b1ca f035 4db1 7734 6edd d536 2026 2435
000001a0: c87a bf34 768c 0035 1585 0636 2d59 2b34
000001b0: 3f65 6735 6c53 0b36 eb4d d433 d27c 8935
000001c0: 8835 de34 6910 6634 1ed7 5536 f5a7 3f33
000001d0: 0c22 9c35 98c0 ca34 b2dc 9c34 c9b3 f034
000001e0: de7d 0234 3938 8233 128f 3734 8f1c 1335
000001f0: c420 7f34 8348 b234 b583 0f36 fbc9 0a34
