results/3dball_test_3/3DBall/checkpoint.pt (torch, 450997 bytes, 44 tensors)

network_body.observation_encoder.processors.0.normalizer.running_mean f4 [8]
000000 99 fa 8a ba d0 61 66 3a 3d 18 d0 bc 57 4d 45 40
       -0.0010603248 0.0008788379 -0.025402183 3.0828454
000010 ed e7 4b bb a5 da 9b 3c 81 24 5f bf f0 d8 ec 3c
       -0.003111358 0.019025156 -0.87165076 0.028912038

network_body.observation_encoder.processors.0.normalizer.running_variance f4 [8]
000000 65 1b d3 43 f9 cd d0 43 12 9c aa 47 45 a4 2c 46
       422.21402 417.60916 87352.14 11049.067
000010 51 df ac 47 82 84 84 47 8a e2 99 47 e7 02 83 47
       88510.63 67849.016 78789.08 67077.805

network_body.processors.0.normalizer.running_mean f4 [8]
000000 99 fa 8a ba d0 61 66 3a 3d 18 d0 bc 57 4d 45 40
       -0.0010603248 0.0008788379 -0.025402183 3.0828454
000010 ed e7 4b bb a5 da 9b 3c 81 24 5f bf f0 d8 ec 3c
       -0.003111358 0.019025156 -0.87165076 0.028912038

network_body.processors.0.normalizer.running_variance f4 [8]
000000 65 1b d3 43 f9 cd d0 43 12 9c aa 47 45 a4 2c 46
       422.21402 417.60916 87352.14 11049.067
000010 51 df ac 47 82 84 84 47 8a e2 99 47 e7 02 83 47
       88510.63 67849.016 78789.08 67077.805

network_body._body_endoder.seq_layers.0.weight f4 [128, 8]
000000 d4 3f e0 3d 53 bd 2e bb f6 f8 13 3f eb 3e be 3d
       0.10949674 -0.002666314 0.5780176 0.092893444
000010 2f f5 85 3e c0 47 f2 3c b6 f2 2c bf 3a 86 10 be
       0.26163623 0.029575229 -0.6755785 -0.14113703
000020 83 e4 4d 3e 59 64 ea 3e 30 b8 1d be 9e 2c 0a 3f
       0.20106702 0.45779684 -0.15402293 0.5397433
000030 69 6b 7d 3d a7 27 b4 3e a7 40 0b bf ff b7 d5 3c
       0.061870012 0.35186502 -0.54395527 0.026088713
000040 01 df b4 bd f4 e3 89 3e 83 64 f9 be c3 0d c8 bd
       -0.08831597 0.26931727 -0.48709497 -0.0976825
000050 62 43 2a bf 06 ad ea bc eb e2 3f be 07 c6 03 bf
       -0.6650907 -0.028646957 -0.18738906 -0.5147404
000060 f7 b2 25 bc 26 1d bc be 63 e7 e3 be 90 20 d5 be
       -0.010113469 -0.36740988 -0.44512472 -0.41626406
000070 36 aa b4 be 38 9b c9 bd 44 0a 2f 3e 32 87 ce 3d
       -0.3528611 -0.09844059 0.1709376 0.1008438
000080 dc ea 45 3d db 36 1d be 95 08 83 be 91 53 86 3e
       0.048319682 -0.15352957 -0.25592485 0.2623563
000090 9e 0c 92 bc e7 88 1b 3e 94 09 d7 bc dd 09 07 3e
       -0.017828282 0.15188943 -0.026249684 0.13187356
0000a0 58 c4 82 3e 39 64 40 be 1f e4 fb be be c5 b2 3d
       0.25540423 -0.18788232 -0.4919748 0.087291226
0000b0 1e db 87 3e 33 f9 b8 3e 57 4a 1f be 19 6e 1e 3d
       0.2653436 0.36127624 -0.15555702 0.038679216
0000c0 54 7a e0 bd 49 4d 5d 3e 2c c4 26 bd 49 10 20 3f
       -0.10960832 0.21611513 -0.040714428 0.6252485
0000d0 b4 cf a0 3d 83 c1 bd be a3 3b 32 bd ff dc 37 3e
       0.07852116 -0.370617 -0.043513905 0.17955397
0000e0 5d 91 72 bf a0 af 95 be a5 0e 78 bd d4 9b 3b 3f
       -0.94753057 -0.29235554 -0.06056084 0.7328465
0000f0 07 ff 29 3f ab b9 15 3f cd 43 97 3d 9b 26 34 be
       0.66404766 0.5848643 0.07385979 -0.17592852
000100 61 e2 04 bf 7f 22 5c 3e 7c f1 9d bd f8 70 ab 3b
       -0.51907927 0.21497534 -0.07712075 0.005231973
000110 3c 24 cb bc ac f8 44 3e e8 e1 b4 bc 27 18 ff be
       -0.024797551 0.19235486 -0.022080377 -0.49823114
000120 89 78 c0 3b 43 ce 1a 3e 38 13 68 be 26 53 6d be
       0.005873744 0.15117745 -0.22663581 -0.2317625
000130 d9 e8 e9 bd 0a 2a 89 be 12 c5 72 be 26 83 2d bf
       -0.11421365 -0.26789886 -0.23707989 -0.6777824
000140 79 b2 34 bf e1 a2 8b be 54 ae 46 3e 23 1c 82 3e
       -0.7058483 -0.27272704 0.19402438 0.25412092
000150 8a ed 97 be 07 7b 5c 3c a3 a0 ef 3b e6 66 80 be
       -0.29673415 0.013457066 0.0073128506 -0.25078505
000160 8f 31 de 3e 6b 43 72 bc 99 93 73 bf 56 75 25 3e
       0.43397185 -0.0147865815 -0.9514709 0.16158041
000170 85 2c 6f 3e c1 cc 3d 3e e8 fd c1 be bb f6 ca 3d
       0.23356827 0.18535139 -0.37889028 0.09910341
000180 04 38 f4 3e 10 e3 64 be b8 8b 7d be c2 4d 3f be
       0.47698987 -0.22352242 -0.2476033 -0.18682006
000190 86 f0 a1 be bb 46 f8 bd 6c 9f f1 bd a6 f3 8e bf
       -0.31628817 -0.12122866 -0.117979854 -1.1168106
0001a0 50 aa 0a bf ed 4a a8 3d c1 fe 69 3e 3d 5c 38 be
       -0.54166126 0.08217416 0.22851087 -0.18003936
0001b0 67 4f bc be 26 0e e4 bd 72 e9 a9 3d 22 f2 bc 3e
       -0.3677933 -0.11135511 0.08296479 0.36903483
0001c0 a2 de 20 3d 92 04 b2 3e 97 89 75 be f0 e1 2f be
       0.03927482 0.34769112 -0.23978268 -0.17176032
0001d0 a8 e9 39 bf ee 09 a2 be 16 64 ec 3c 4d 85 67 3d
       -0.72622156 -0.316482 0.028856318 0.05652361
0001e0 7d f3 08 bf ac ab 92 be 77 b7 99 be 7a d7 9e 3c
       -0.53496534 -0.286466 -0.30022785 0.019389857
0001f0 8f 20 c4 be 85 53 c8 3d f4 8a 0a be bb dc 2f 3e
       -0.3830609 0.09781555 -0.13529569 0.17174046
000200 dc 6d 07 be 5e c2 23 3f bd cd 15 3f 9d 30 f8 bd
       -0.13225502 0.63968456 0.58517057 -0.12118647
000210 2c 9a 0a 3e ca b5 81 3f 21 e3 28 3e 8a 3b 6f bf
       0.13535374 1.0133603 0.16492893 -0.93450224
000220 60 55 8d be 08 f5 e3 be 31 2a 24 be 4b 75 ea 3d
       -0.27604198 -0.44522882 -0.1603172 0.11448153
000230 f8 e6 0d bd 09 c6 30 3f 6d 4c 75 be a6 5d 80 be
       -0.034644097 0.6905218 -0.23954935 -0.25071448
000240 cb c8 6b be 28 15 4d bf d3 31 cc 3c 3d 3b a6 3e
       -0.23025815 -0.80110407 0.024926102 0.3246707
000250 94 ad c1 be 8b a6 44 be dd f1 d3 be 9a 56 8b 3e
       -0.37827742 -0.19204156 -0.41395465 0.2721451
000260 72 01 17 3e 93 7d bd be 01 eb 8a be 4f d9 93 3e
       0.14746645 -0.37009868 -0.2713242 0.2887673
000270 9d 7b a6 be 09 29 94 be f1 83 05 bd ba 49 74 bc
       -0.32516184 -0.28937557 -0.032596532 -0.014910156
000280 b4 95 1e 3e ec 10 b7 bd c0 d6 22 3f 77 8a 88 be
       0.15486795 -0.089387745 0.6360893 -0.2666814
000290 d0 e8 41 3e 84 96 e5 3e b8 fb 64 be 25 c1 95 3e
       0.18936467 0.44841397 -0.22361648 0.2924892
0002a0 9e dd 16 3f 66 81 e4 be 63 b6 8f 3b 0c a8 9f 3e
       0.5893191 -0.44629973 0.004385756 0.31182897
0002b0 02 13 15 bc e4 c4 c3 be 2a 42 92 be 8e 78 e4 bd
       -0.00909877 -0.38236153 -0.28566104 -0.111558065
0002c0 2d ef 8e be 5c a2 9e bb b3 9d 84 3d a9 97 97 be
       -0.27916852 -0.004841132 0.06475391 -0.29607895
0002d0 fc 2d f2 3c 01 53 5c be 31 fa e8 3e 73 e8 9b 3d
       0.029562943 -0.21516038 0.4550338 0.076126955
0002e0 0a 53 d1 3e 53 de fb bd e2 09 b9 be 3f 97 da be
       0.40883666 -0.12298264 -0.36140352 -0.42693517
0002f0 67 77 57 bf 68 c7 88 be 59 63 9b be 42 f2 bf 3c
       -0.8416657 -0.26714635 -0.30349234 0.023430947
000300 a7 58 ed bd 37 55 a3 3d 5e 83 b8 3e 86 f8 fc 3d
       -0.11589175 0.07975238 0.36037725 0.123520896
000310 9a 8e f6 bc e3 64 36 3e 38 c9 c6 3c a4 d0 ca be
       -0.030097295 0.17811923 0.02426587 -0.39612305
000320 81 57 5c 3e 55 72 76 be 35 0c f4 be 9e 25 ab 3e
       0.21517755 -0.24067052 -0.47665563 0.33427137
000330 fe 63 63 3e e6 35 b6 3e b5 a9 6b be 67 86 8d 3e
       0.22206113 0.35587996 -0.23013957 0.27641603
000340 41 2c f3 bd ad e2 37 3c a8 de d3 3e f7 7c 05 3d
       -0.11873675 0.011223477 0.4138081 0.03258988
000350 52 2e 06 3e c6 7f 06 3f dc 47 fd 3e 53 58 1f bf
       0.13103607 0.52538717 0.49468887 -0.6224415
000360 b2 de 85 3e 4f 66 06 3c bd 63 84 3e 81 51 da 3e
       0.26146466 0.008203103 0.25857344 0.42640308
000370 77 dc a7 3d 4a 72 06 bf 46 34 4d be f7 e9 f6 be
       0.08196347 -0.5251814 -0.20039472 -0.48225376
000380 01 93 42 bf 32 14 2c bf 1f 43 2e bf 3d 0d f2 3e
       -0.7600556 -0.67218316 -0.6807117 0.47275725
000390 bb 64 2a bf 95 6b 25 3e 46 c6 e9 bd 84 06 b4 3e
       -0.6655995 0.1615432 -0.11414771 0.3516122
0003a0 e4 b3 b1 bd 1c 7f 87 3e 4b a4 22 3f ed 3f ad 3e
       -0.086768895 0.26464164 0.6353194 0.33837834
0003b0 de 13 8e be 52 d2 31 bf d3 bb 80 bd 6a 21 4c 3f
       -0.27749532 -0.6946155 -0.062858246 0.79738486
0003c0 3c 81 68 be fc 31 43 bd 87 11 ce bd fa c8 1c 3f
       -0.22705549 -0.04765509 -0.10061937 0.61244166
0003d0 38 a6 f3 3e 74 39 10 3d df 71 8e 3d ce 0b 0f 3e
       0.47587752 0.03521104 0.06955313 0.13969347
0003e0 83 8e 9a 3e 11 dc 9e 3e e4 e0 87 be d4 cd 53 bf
       0.30186853 0.31027272 -0.26538765 -0.82735944
0003f0 69 bb 08 3f 9d 38 4a be 18 6d d4 3e 43 d0 f8 3e
       0.53410965 -0.19748159 0.41489482 0.4859639

network_body._body_endoder.seq_layers.0.bias f4 [128]
000000 e2 85 d9 3c 5a 5e 9a 3c f2 97 2f bd 4a 48 0c bb
       0.026553098 0.018843818 -0.042869516 -0.0021405392
000010 97 ce 29 3d ec f0 f5 3c 0b 6e 13 3d cb 32 87 3b
       0.041456785 0.030022107 0.035993617 0.004125928
000020 d6 6d 43 bb f6 be 5b bd d5 ca 58 3c 03 82 53 bc
       -0.0029820106 -0.05364891 0.013231953 -0.012909415
000030 24 c8 33 3d 38 06 82 3c 90 c0 e8 3a d5 76 01 3d
       0.04389204 0.015872106 0.0017757583 0.031607468
000040 97 1e f8 3c 03 24 f1 3b 25 4d 25 3a 38 67 89 bc
       0.030288024 0.0073590293 0.0006305746 -0.016772851
000050 fb e0 96 bc 2d 9c 02 b9 a9 7e b5 3c 4f 5d a7 3b
       -0.018417826 -0.00012455946 0.022155123 0.005107559
000060 8f 63 3f bc 99 ff 8c bb c9 9f 16 3c 59 1e 97 bc
       -0.011681451 -0.0043029306 0.009193369 -0.018447088
000070 c9 c6 9e 3c fa f1 74 3b d4 9e a4 3c e6 83 60 bd
       0.019381898 0.0037375675 0.020095266 -0.05481329
000080 62 8c 1f bc ad ff 52 3c b9 10 43 3d 41 b4 82 3b
       -0.00973806 0.012878341 0.04762337 0.003988773
000090 7a 77 e0 bb 1d 52 99 3b 0a 76 72 ba b1 cb 8f 3d
       -0.00685018 0.004678978 -0.00092491566 0.07021273
0000a0 ef 68 9d 3c 46 68 e9 3b a9 95 07 bc 9a 79 f0 3b
       0.019215075 0.007123026 -0.008275428 0.007338715
0000b0 e6 d3 df ba 0f a6 5c bb af 73 98 bc 9b 62 ca 3c
       -0.00170767 -0.0033668315 -0.01860985 0.024705222
0000c0 87 18 5e bd 09 81 75 bc 90 a4 e0 3c bd d4 c0 bc
       -0.05422261 -0.014984378 0.02742222 -0.023538942
0000d0 f5 d2 4c bd 0c 67 15 bd 00 fc b2 bc 2e ec 9a bc
       -0.05000587 -0.036475226 -0.021848679 -0.018911447
0000e0 ac 70 d1 3c 80 49 18 3d b9 59 3c bd 65 b6 29 3c
       0.025566421 0.03717947 -0.045984004 0.010358428
0000f0 8c 6b 09 3d 43 58 8a bd c1 4e 41 3b 6a 48 fc ba
       0.03354983 -0.06755116 0.0029496404 -0.0019247655
000100 ce c1 3f 3c 7f f2 c4 bc 80 9d f8 bc b4 87 50 bc
       0.0117039215 -0.024041412 -0.03034854 -0.012727667
000110 3f 37 59 bc 7d ac 32 bc 95 a4 ba bb 2b 9f e3 bc
       -0.013257801 -0.010905382 -0.0056958892 -0.027785858
000120 81 36 b2 3c 5f ef 20 bd 05 66 dd bc bb fc 7d bc
       0.021754505 -0.039290782 -0.027026186 -0.01550215
000130 f8 24 a0 bc c5 32 25 bd ae b8 f6 bc c1 80 0b 3b
       -0.019548878 -0.04033162 -0.030117359 0.002128646
000140 26 d7 4c bd a8 4b 01 3d 2b 84 f0 39 e4 f7 d2 bc
       -0.05000987 0.031566292 0.0004587484 -0.02575297
000150 8d eb f1 3c a8 c2 0e 3b 2e c5 2b bd b2 ef df bc
       0.029531265 0.0021783505 -0.041936092 -0.027335975
000160 95 c2 7b bd 36 89 25 3c 37 46 e5 bc 56 f7 ff 3a
       -0.061464865 0.010103514 -0.027987583 0.0019528668
000170 72 50 b9 3c d7 20 98 3b 34 e6 1e bd 53 20 b9 bc
       0.022621367 0.0046425867 -0.038793758 -0.022598421
000180 ed 19 60 3c f5 9a db b9 e9 d6 2b bd 71 df 7e 3b
       0.013678056 -0.00041886387 -0.041953 0.0038890506
000190 f8 25 00 3d 8f 63 8f bb 4f 1c 6d bc c5 3b 4c bc
       0.03128621 -0.004375882 -0.014472081 -0.012465422
0001a0 2a 69 05 bd 26 cb 95 bd 1d ca cb ba b1 af c5 bc
       -0.032570995 -0.07314138 -0.0015547905 -0.024131628
0001b0 fd 49 8a bc b2 a0 19 bd 47 ad 3b bd 6d 7b 8f 3c
       -0.016880983 -0.037506767 -0.045819547 0.017514909
0001c0 42 21 90 3c 41 4f bd ba 8c 66 f9 bc f5 2e 0e bd
       0.017593984 -0.0014443175 -0.030444406 -0.03471275
0001d0 40 0d 67 bd b3 38 50 3c 40 14 bc ba 48 d1 08 bd
       -0.05640912 0.012708831 -0.0014349297 -0.03340271
0001e0 0d 17 29 bd 2e af 8b 3c 66 91 99 bd 25 96 db bc
       -0.04128175 0.017051306 -0.07498436 -0.026804993
0001f0 a3 1b 98 bb 96 02 c3 3c 60 73 6c 3c f0 22 5b bd
       -0.0046419664 0.023804944 0.014431804 -0.053500116

network_body._body_endoder.seq_layers.2.weight f4 [128, 128]
000000 18 91 14 bc 17 cb b8 3d 55 84 15 3d 4f 9e 4d 3c
       -0.009067796 0.09023111 0.036503155 0.012549951
000010 6f b6 ed 3d d8 1b 81 3c 7f 60 14 bc 94 82 66 3d
       0.11607062 0.015760347 -0.00905621 0.056276873
000020 64 99 36 bd dd 8b b0 3d c4 83 f9 3d a4 30 eb bd
       -0.04457988 0.08620427 0.121833354 -0.11483887
000030 84 46 17 3d f4 5b d4 bc 92 3e 08 be e0 c0 82 bd
       0.036932483 -0.025922753 -0.13305119 -0.06384444
000040 8e a0 58 bd e2 27 9f 3d 4e bb 38 3d 1f cf b1 bc
       -0.052887492 0.07771279 0.045100503 -0.021705208
000050 0c 49 f9 3d fd 24 f7 bd 3c 40 bb ba c1 42 41 bd
       0.12172136 -0.12067602 -0.0014286111 -0.047182802
000060 8e 63 cd bd a9 b3 54 bd 4a a9 b4 bc 6f af 7d 3d
       -0.10028754 -0.05192915 -0.02205338 0.061934885
000070 63 56 3e bd ab d5 1e 3c 3b 0d 53 3d 64 a1 9f ba
       -0.046469104 0.009694497 0.05152629 -0.0012178835
000080 6e 23 b8 bd 41 a7 a3 bd 82 64 b4 3d b5 10 61 bd
       -0.08991133 -0.079908855 0.08808233 -0.054947574
000090 0e 12 56 3d 72 0e 78 bc fc 4d 1b 3e da 0b fa 3d
       0.052263312 -0.015140163 0.15166467 0.12209292
0000a0 15 9a 20 3d 29 59 c4 3d 1a dd b7 bb 47 12 30 3e
       0.039209444 0.095873185 -0.005611074 0.17194472
0000b0 a6 94 1b be d2 ee b4 bc 89 85 a2 3d 06 db 9c bd
       -0.15193424 -0.022086535 0.07935626 -0.07658963
0000c0 b4 27 e2 3d d4 46 0b bb ec 21 b4 3c 0e 33 26 ba
       0.11042729 -0.0021251934 0.021988831 -0.0006340005
0000d0 07 e6 14 3c 9f 93 bc bd b2 c0 3c 3c e8 b5 88 3d
       0.009088046 -0.09207844 0.0115205515 0.06675321
0000e0 e3 8e 32 bd 29 4b 10 be 29 89 a6 bd 32 ce a3 3d
       -0.0435933 -0.14091171 -0.0813163 0.07998313
0000f0 0a 2d aa 3c d1 1e 58 bc db c3 16 3e 4f 36 2c bd
       0.02077343 -0.013190941 0.1472315 -0.04204398
000100 75 4d 14 bc a7 36 c4 bc ad 35 55 bd 6c ea 52 3e
       -0.00905167 -0.023951842 -0.052053142 0.20597237
000110 01 eb a0 3b f8 7f ba bd d4 16 c4 bd 4f f7 1e 3d
       0.004910827 -0.09106439 -0.095746666 0.03881007
000120 2d b6 12 3d 9e 40 df bd ec 38 02 3e ca ce 58 3e
       0.035818268 -0.109009966 0.12717026 0.21172634
000130 e5 74 71 bc b7 1d 1a bd 71 b6 a1 bd bf fd 47 bd
       -0.0147373425 -0.037625995 -0.07896126 -0.048825976
000140 73 48 bb 3c 26 2e 78 3c 5a 14 dc 3c ed 66 21 be
       0.022861695 0.015147721 0.026865173 -0.1576192
000150 a5 51 7d bc 03 0b 67 3d ff 77 00 3e dc e1 53 bd
       -0.01546136 0.056406986 0.12545775 -0.05172907
000160 59 52 a2 3d a7 c1 a2 bc 5e 1d 0b 3e 66 39 aa 3d
       0.07925863 -0.019867731 0.13585421 0.08311729
000170 91 65 4b 3c a8 e0 d7 bd 45 e6 e6 3c 17 43 11 3e
       0.012414352 -0.10540897 0.028185973 0.14185749
000180 4a df 7a bd a2 86 c3 3c 00 94 61 bc e6 ea ef 3d
       -0.0612481 0.023867909 -0.013768196 0.11714725
000190 a1 7b 57 be 0e 45 b5 3d cb 3f f2 bd de e1 87 3c
       -0.21043254 0.08851062 -0.11828574 0.016587194
0001a0 86 c9 95 bc 43 cb ea bb e0 2b 96 3d d8 c1 4b bd
       -0.01828457 -0.007165344 0.07332587 -0.04974541
0001b0 14 aa cc 3d 46 ab 81 3d 0f e9 05 3d 6d a5 dd bc
       0.09993377 0.06331496 0.032692965 -0.02705642
0001c0 ac c8 3d bc 58 62 9c bd 51 e5 e3 3c 53 39 3d 3e
       -0.011583488 -0.07635945 0.027819308 0.18478899
0001d0 90 ff c3 3d f3 99 59 bd 43 80 86 3a 7c 40 ed bd
       0.09570229 -0.053125333 0.0010261614 -0.11584565
0001e0 35 b5 f1 3d a9 37 b9 3d ca ce af bd ac 3a d1 bd
       0.118021406 0.090438195 -0.08584364 -0.10216269
0001f0 bc ea 33 bd 5a 5a d8 bd 20 2b 38 3e cd c4 cc bc
       -0.043925032 -0.10564108 0.17985201 -0.024996186
000200 85 69 35 3d 28 de 72 3d 90 d9 a7 3c b0 13 22 bc
       0.044290084 0.059293896 0.020489484 -0.009892389
000210 95 ff 16 bc 1d 70 15 3e 50 1f cf 3d 4c 3d 95 bd
       -0.009216209 0.14593549 0.10113394 -0.07287082
000220 bb d5 2c 3d 5d ac 4e bd 43 ee 1b bd 46 6b b6 bd
       0.042196017 -0.050457347 -0.03806902 -0.089071795
000230 8e 78 99 bd 5b 2a 13 3d db 15 81 bd 7f 53 9d bd
       -0.07493697 0.035929065 -0.06302997 -0.07681941
000240 44 65 9c 3c 42 42 99 bc 41 42 0a bd be 47 12 be
       0.019091256 -0.018708352 -0.03375459 -0.1428518
000250 ce bd 1a 3e d9 92 28 be d8 08 cf 3d ee 76 4e be
       0.15111467 -0.16462268 0.10109109 -0.20162556
000260 b9 5d e5 bd ab 6f 44 3d 56 1a 0b bc 11 a8 2e 3d
       -0.11199517 0.047958057 -0.008490166 0.04264075
000270 a2 ac 8f 3e 66 e4 43 bd 4b d1 5a bd 21 50 58 3d
       0.28061396 -0.04782524 -0.053422254 0.052810792
000280 11 b3 cd bd bb a3 3b bd 79 86 08 3b f1 a6 aa bd
       -0.1004392 -0.045810442 0.0020832105 -0.08332623
000290 b3 eb 0b be ab 80 a9 39 a3 b1 3f 3e c8 20 28 3e
       -0.13664131 0.00032330057 0.18720107 0.16418755
0002a0 fb ed fe 3d 01 74 c6 3c 94 06 e9 bd d1 78 9d be
       0.12447735 0.024225237 -0.11378208 -0.30756238
0002b0 87 16 fb bd 7f 4f ec 3d fb 2d 1c 3e a1 83 61 3e
       -0.12260156 0.115386 0.15251915 0.22022869
0002c0 c2 da 0a be 2a db d5 bc a2 ae 31 3e 9b 5a 0b 3e
       -0.13560012 -0.026105482 0.17351773 0.13608782
0002d0 10 87 46 ba 68 6f 84 bd c2 74 aa bc 28 76 75 3d
       -0.00075732265 -0.064665616 -0.020807628 0.059927136
0002e0 aa 18 ff 3d 5e 31 80 3d 52 fc 27 3d 3d c7 2e 3c
       0.12455876 0.06259416 0.041012116 0.010667619
0002f0 40 93 11 3d c0 b0 07 bd 28 cf b3 bd 7d ef 9f bd
       0.03554082 -0.033127546 -0.08779746 -0.07809351
000300 b5 3f a1 bd c4 df 78 bc b8 50 3c bd 0b db ba bd
       -0.07873479 -0.015190069 -0.045975417 -0.091238104
000310 34 b4 d7 3d ed 61 c0 bc 68 4d b5 bd 87 01 cf bd
       0.10532418 -0.023484195 -0.08852655 -0.10107713
000320 07 df a4 3c f8 50 a4 3c 0e cb d0 bb ad 7b 33 bc
       0.020125879 0.02005814 -0.0063718623 -0.01095478
000330 70 8f e1 bd 34 14 60 3c dd 36 8e 3d f4 f7 45 be
       -0.11013687 0.013676692 0.06944058 -0.19332868
000340 08 aa 2d bc 21 91 5f bd a2 df 1d 3e 1d dd 15 3e
       -0.010599621 -0.054581765 0.1541734 0.1463513
000350 f5 e1 0a bd 2c a9 07 be 58 5f aa 3d e9 cc 11 3c
       -0.033906896 -0.13248128 0.083189666 0.008898952
000360 3d 64 94 bd 3f 97 4f bd 0a a5 8a bc b1 84 0e be
       -0.072456814 -0.05068135 -0.0169244 -0.13917805
000370 8c 47 03 be 2b 25 30 be 98 c1 2b bd 48 de c6 bd
       -0.12820262 -0.17201678 -0.041932672 -0.097103655
000380 a8 08 b8 3c 8a fd b4 3d e7 8d ab bd d7 ab 9d bd
       0.022465065 0.08837421 -0.08376675 -0.076987915
000390 a5 aa 49 be 71 d0 1c 3d e5 37 a2 bd fa 62 de 3d
       -0.19694002 0.038284723 -0.07920817 0.10858722
0003a0 12 9d 4c 3c c9 fc 9f bd d3 56 11 3d 8c 08 e0 bd
       0.01248862 -0.07811887 0.035483193 -0.1093913
0003b0 e1 12 8c 3d 5c f2 b8 bc 7e 9f 42 bd 32 d4 d5 3d
       0.06839538 -0.022576503 -0.047515385 0.10440864
0003c0 4b a3 a1 3d fd 7f 33 3e 9c 43 d9 bd 8b 64 80 3a
       0.07892474 0.17529292 -0.106085986 0.0009795589
0003d0 9d 33 12 3d 9a 3b 16 be 4a d8 0a 3e d7 b9 05 bc
       0.035693754 -0.14671174 0.1355907 -0.008161983
0003e0 9d 62 28 be e7 d9 b9 3b a2 e5 63 bd 90 5b 84 bd
       -0.16443868 0.005671728 -0.055638917 -0.06462777
0003f0 8d 5d 19 be e7 ae 40 bd cf ae 2c 3e c2 34 aa 3a
       -0.14977093 -0.0470418 0.16863559 0.0012985694

network_body._body_endoder.seq_layers.2.bias f4 [128]
000000 75 e7 bc bb b9 cf 26 3d cc 03 1c 3d 82 b1 c0 ba
       -0.0057648965 0.040725444 0.03808956 -0.0014701339
000010 5d f5 e3 3b c1 87 43 3d 1f 72 07 3c 06 5e 5c 3c
       0.00695674 0.047736887 0.008266955 0.013450151
000020 84 c3 af bb 27 ad 57 bc 67 ff 15 bc 85 f5 f6 bb
       -0.0053638835 -0.013163841 -0.009155131 -0.0075365924
000030 80 c1 06 3d 12 65 f5 3c cf 01 32 bc b9 94 92 3d
       0.03289938 0.02995542 -0.010864689 0.07157273
000040 c8 2a 6c 3d 84 75 d8 bb bd 1f d0 bb 01 26 c9 3c
       0.057657987 -0.006605806 -0.0063514397 0.024554254
000050 31 83 64 bc 82 ee 04 bc d8 46 25 3c 07 3c 8b 3b
       -0.013947294 -0.008113505 0.010087691 0.004249099
000060 7c 9f 1a 3d 51 c1 56 bc d0 2a 74 bc cd 71 25 3b
       0.037749752 -0.013107614 -0.014902785 0.0025244833
000070 d3 81 d0 3c 1f 2c a6 bc 99 87 be bb 48 bc 8e bc
       0.02545253 -0.02028471 -0.0058145043 -0.017423764
000080 f6 1d c4 bc 53 c9 a8 bb 7a 81 ae bb 5d 6f d9 3a
       -0.023940068 -0.005150953 -0.0053254934 0.0016588975
000090 3e 88 89 ba 1c fa b8 bc 65 ec 32 bc 46 1e 91 bc
       -0.0010492874 -0.022580199 -0.010920619 -0.01771463
0000a0 45 5d 18 3c 0c f4 81 bb ea e4 27 bc fd 2f ef 3b
       0.009299581 -0.00396586 -0.010247448 0.007299422
0000b0 0a 4d 9b 3c de d1 16 bc 9c 3a 31 bc e2 46 b1 39
       0.018957634 -0.00920531 -0.010817196 0.00033812883
0000c0 f6 16 d1 3b 28 86 26 3d 95 a6 d8 3b 70 12 b4 3b
       0.006380911 0.040655285 0.006611655 0.005495362
0000d0 6c 01 47 bb 4e be b2 3b 69 7c d5 bb e8 6f df 3a
       -0.0030365838 0.005454815 -0.006515075 0.00170469
0000e0 1d e1 c1 bb 4e c3 1b 3c f8 e6 b8 3b 58 b9 8f bb
       -0.005916728 0.0095070135 0.005642768 -0.0043861084
0000f0 86 65 dd 3c 11 75 8b 3c a0 ff 74 ba 94 8b a8 bb
       0.02702595 0.017023595 -0.00093459524 -0.005143592
000100 46 8f 61 3d 7f 32 82 bc 60 93 5e 3b 29 0e 06 3b
       0.055068277 -0.015893219 0.0033962354 0.0020455217
000110 36 78 58 bc 72 21 26 3c 61 4a 35 bc ca 31 bf 3c
       -0.013212254 0.01013981 -0.011065097 0.023339171
000120 af 24 0b bc 07 03 22 bc 5f af c9 ba 98 cb 0f 3d
       -0.008492633 -0.009888417 -0.0015387348 0.03510627
000130 ae 0f d2 bb 31 b9 09 3d 06 49 51 ba 3b 30 67 bb
       -0.0064105606 0.033623878 -0.00079835986 -0.003527655
000140 d1 a8 f0 bb 33 28 bb 3c 5f e1 79 3b 3e 90 18 bb
       -0.0073443432 0.022846317 0.0038128716 -0.0023279334
000150 ad 4a 94 bc 3d 71 24 bb 2e 23 42 bc 46 6a f9 bb
       -0.018102014 -0.002509191 -0.011849208 -0.0076115457
000160 ec 79 04 bc e8 91 80 3c 94 8d 52 3c eb 76 0b 3c
       -0.008085709 0.015694574 0.012851138 0.008512239
000170 ba 07 79 bc 85 a2 3c 3c d5 94 0b 3d 85 88 1b bc
       -0.015199596 0.011513357 0.034077484 -0.009492998
000180 50 ea af bb f6 90 e9 3c 98 4e 29 bb c7 e8 4d bb
       -0.0053685084 0.028511506 -0.00258342 -0.0031419264
000190 b6 63 b0 bc b2 01 88 bb e9 4f 41 3c 30 fc ba 3c
       -0.02153192 -0.0041505927 0.011798837 0.02282533
0001a0 f0 f8 3f 3b ca b8 96 b8 ed 32 41 3c a9 2e 36 3c
       0.0029292665 -7.186977e-05 0.011791927 0.011119523
0001b0 43 5b df 3a 0d c6 99 3c fc eb 17 bb 4a 59 24 bc
       0.0017040748 0.018771196 -0.002318143 -0.010031054
0001c0 96 ef af bc 04 3d f4 3c 8d bd 47 3d 15 9d 3e bb
       -0.021476548 0.02981425 0.048764754 -0.0029085327
0001d0 8b 66 9d bb 05 ac 26 3d b9 3f 1e bb af d7 84 bb
       -0.004803484 0.040691394 -0.0024146868 -0.004054032
0001e0 5e cb 75 3c 7a 31 01 bc 78 cf 75 39 50 62 57 3b
       0.0150021 -0.007885331 0.00023442309 0.0032864995
0001f0 f2 a2 31 3c 79 65 59 bc ee 1a 66 3c 46 2f 65 bb
       0.010842072 -0.013268822 0.0140445065 -0.0034970804

action_model._continuous_distribution.log_sigma f4 [1, 2]
000000 6b b8 70 bd 23 c2 9a bd
       -0.058769625 -0.0755656

action_model._continuous_distribution.mu.weight f4 [2, 128]
000000 b9 ec 83 3c 5d b4 8a 3d e4 83 2d 3d 9d 6f f6 3c
       0.01610409 0.06772683 0.04236211 0.030082518
000010 18 25 97 bd 1c 2e cc 3d 36 c4 19 bd 23 be 4b 3c
       -0.07380122 0.09969732 -0.037540637 0.012435469
000020 b5 7a 36 3c 31 fb 1d 3c e4 7f 71 bb e0 85 04 bd
       0.011137654 0.009642408 -0.003684991 -0.032354236
000030 a7 19 35 bd 14 06 f1 bc 01 34 d5 3b 60 5a 5a 3d
       -0.044213917 -0.029421844 0.0065064435 0.053308845
000040 73 17 c5 3d 14 32 20 bc 82 e9 71 3c 51 bc 25 3d
       0.09623613 -0.009777565 0.014765145 0.040462796
000050 00 b9 ff bb 5b 8d 67 bc 35 9b df 3b 5d d8 d5 3a
       -0.007804036 -0.014132823 0.006823922 0.0016315092
000060 63 c3 1e 3d 5d 4a fd bb bd dd 74 bc a3 3e 5e bd
       0.038760554 -0.007729812 -0.014945445 -0.054258954
000070 1b 6a b4 3c 36 e0 15 bc ec 3c 14 bc 0a a7 99 3a
       0.022023251 -0.009147694 -0.009047728 0.0011722755
000080 b0 69 0f bc 1b fc 30 bb fe cc d6 bc c2 d7 85 3c
       -0.008753225 -0.0027005735 -0.026220795 0.016338233
000090 f0 3c e0 3c a6 3a 11 3c 19 f3 11 bc b5 0a bf bc
       0.027372807 0.0088640805 -0.008908057 -0.023320535
0000a0 9a 60 23 3d 7a b8 8b bb fe 87 2b 3c ba 62 06 3c
       0.03988705 -0.0042639347 0.010469435 0.008202249
0000b0 ed bf 20 bb f1 19 77 3c bf 55 3e bb d5 d6 db 3c
       -0.002452846 0.0150818685 -0.0029042808 0.026835838
0000c0 db 6c 92 bc a7 40 95 3d b2 04 93 3c e2 23 2b 3d
       -0.017874172 0.07287722 0.017946575 0.041782267
0000d0 ce 07 6f 3b 99 a7 7d bd 51 76 b0 ba 67 45 b4 3c
       0.0036473158 -0.06192741 -0.0013462995 0.02200575
0000e0 39 50 06 bb 65 b9 be 3c ec 0f 6b bd 78 ce ac bb
       -0.0020494594 0.023281762 -0.05738823 -0.0052736364
0000f0 d4 7b 19 3c fe 51 80 bd 23 6d 51 bd 42 97 87 3c
       0.009367902 -0.06265639 -0.05112947 0.016551618
000100 62 4a d5 bd 12 e1 e8 3c 2f e9 ba bb a2 03 ec 3c
       -0.10414578 0.028427634 -0.005704067 0.028810326
000110 38 0b b1 bb fa ba 8a 3c 36 24 d4 3b cf 74 8f bd
       -0.0054029487 0.01693486 0.0064740432 -0.07004701
000120 8e 4b 18 3c eb 1f 9a bc b9 1b 4d bc f7 15 99 bd
       0.009295357 -0.018814048 -0.012518817 -0.074748926
000130 27 2f c6 bc 0b ee 68 3c df 39 02 3d 0a 23 e0 bc
       -0.024192406 0.01421691 0.03179347 -0.027360458
000140 39 42 8e 3c ff 73 47 3d 82 d7 d7 bc 16 9d 9f ba
       0.017365562 0.048694607 -0.02634788 -0.0012177553
000150 1d f1 17 bc 3f e0 05 3c de 7e 16 3b 64 87 5d 3c
       -0.0092737945 0.00817114 0.0022963802 0.013521049
000160 ed d6 b3 bc c5 be 05 3d 1c 39 39 3d f2 3a 3b 3c
       -0.02195307 0.032652635 0.04522048 0.011427628
000170 a8 b1 8a bb d5 95 a1 3c 1d 13 3a 3d 23 fa 7b bc
       -0.004232604 0.019724766 0.045428384 -0.015379461
000180 bf 20 af 3c 0c e0 82 3d 59 94 9c bc 6d e2 a7 bc
       0.02137792 0.0639039 -0.019113706 -0.02049371
000190 27 47 f2 3a 83 be 11 bb 80 f3 1a 3d e0 d6 95 bd
       0.001848434 -0.0022238798 0.037829876 -0.07316375
0001a0 f7 51 c0 bc 6e 91 48 3c 3c f5 13 3d f8 73 94 3c
       -0.023476584 0.012241704 0.036122546 0.018121704
0001b0 58 98 e6 3c 8c 6b b7 bd e0 b6 f0 bc 2c 53 e9 3b
       0.028148815 -0.0895606 -0.029384077 0.0071205106
0001c0 ea 9a 69 bb 9e 19 e3 bc 32 8a 55 bd f5 49 c3 3b
       -0.0035645314 -0.027722176 -0.052133746 0.005959744
0001d0 e3 b2 61 ba 2d ca bd 3d 50 ec e4 bc 65 c5 c1 3b
       -0.0008609725 0.092670776 -0.027944714 0.005913424
0001e0 f6 86 56 bd 73 78 0a bd 7c 27 55 bc 2f da a9 3c
       -0.052374803 -0.033806276 -0.013009902 0.02073392
0001f0 6a b7 ea 3c b7 93 b9 3b 0f 3f 2c 3c 0d a6 f5 bc
       0.028651912 0.005663361 0.010513081 -0.029986406
000200 d9 07 ca 3c 80 7c 42 bb a0 e7 b0 bc 16 fc db ba
       0.024661945 -0.0029676259 -0.021594822 -0.0016783501
000210 db de a3 bc 2e 72 15 bd 21 87 75 3d 7e 96 ed bc
       -0.020003727 -0.036485843 0.059943322 -0.029002424
000220 09 de a6 bb d6 59 c5 3c 99 c9 9e bb 0e fc 41 3d
       -0.0050923866 0.024090689 -0.0048458097 0.04735952
000230 e8 89 9d bd ba 1f 8f 3d bc b7 b8 3b cd 95 e5 bd
       -0.07692319 0.06988473 0.005637137 -0.11210213
000240 f8 c0 65 3d 12 20 c3 3c 25 b3 9b 3a 1c fd 58 bd
       0.056092232 0.023819003 0.0011878951 -0.05297576
000250 42 e0 12 3b d5 c3 ce 3c c2 58 5f bd 2b 06 db bc
       0.00224115 0.025239864 -0.054528005 -0.02673634
000260 cf ab b2 3d 95 45 b8 bc 52 1d 03 bd 6a 5a 12 bc
       0.08724176 -0.022494117 -0.032010384 -0.008932689
000270 1d 32 9b bd 0f 0c 92 3c d1 92 f6 3c fa 79 05 3c
       -0.07577918 0.017828016 0.030099304 0.008146757
000280 8b 3e 40 3b 85 64 9a bc 38 32 a1 3b dd ca 91 bc
       0.0029334154 -0.01884676 0.0049193166 -0.017796928
000290 67 54 b1 bc 64 90 2e 3c 8a 88 19 3d 4d a7 1c 3c
       -0.021646691 0.010654543 0.03748373 0.009561372
0002a0 eb 51 05 bd c2 e1 dc 3c 00 a2 34 3c 9f ca 4e bd
       -0.032548826 0.026963118 0.011024952 -0.050486203
0002b0 3e b9 56 bd b3 02 25 3d 67 53 96 bb 68 9e ea 3c
       -0.052422754 0.040285777 -0.004587579 0.028639987
0002c0 c1 dd 12 3d 68 1e 40 3c 00 89 a2 3c b4 ad 8c 3c
       0.035856012 0.011725999 0.019840717 0.017172672
0002d0 5c 3e af 3c 70 78 48 bd 42 a6 bb bc b7 5b 90 bc
       0.02139204 -0.048942983 -0.022906426 -0.017621858
0002e0 61 3c a9 bb 6e 94 80 3d 1c 08 89 bc 5f 9b 2d 3d
       -0.0051646684 0.06278311 -0.0167275 0.0423845
0002f0 7b 9b ac bd df 28 90 bc f5 93 0d 3d a0 d4 60 3c
       -0.08428093 -0.017597614 0.03456493 0.013722569
000300 fc 6a 88 bd f6 0c 82 3c 04 ff f3 bc 42 d3 ee bc
       -0.06661031 0.01587532 -0.029784687 -0.02915347
000310 42 73 e6 3c 84 47 4c bc ec fe b3 3c ee 49 5a bc
       0.028131131 -0.0124682225 0.021972142 -0.01332329
000320 33 79 f7 3a f9 8e 6a 3b db aa 01 bd dc e2 a5 3d
       0.0018880725 0.0035790785 -0.03165708 0.080999106
000330 b0 0e 19 3d 03 35 e8 3d f1 0a f1 3b 50 c7 73 3c
       0.037367523 0.11338236 0.0073560406 0.014879063
000340 05 d8 c1 3b af 9c fb bc 7b a9 e6 bc 6e 44 b5 bc
       0.005915644 -0.030714361 -0.028156986 -0.022127356
000350 04 00 d1 3b bf d9 a1 3c 4c 67 f6 3a cb 48 25 3c
       0.0063781757 0.01975715 0.0018799095 0.010088156
000360 32 b5 7a 3b 2b 08 3e bc b5 e7 60 3d d9 e9 de bc
       0.0038254973 -0.011598627 0.054908473 -0.027211117
000370 e7 4c a3 3b 9d 47 b0 bc 59 56 25 bd 5d ec 86 3b
       0.0049835327 -0.021518523 -0.04036555 0.004117532
000380 80 93 8a 3b 18 55 e3 bc 2d 7c 70 bc 7f c7 e9 bc
       0.004229009 -0.027750537 -0.014678043 -0.02853751
000390 40 93 93 3b 90 d1 43 bc 0f 15 aa b9 35 aa 94 bc
       0.0045036376 -0.011951819 -0.00032440617 -0.018147567
0003a0 68 cd a8 bc ff f6 36 3d 4d 41 5d 3d c3 e7 70 bd
       -0.020605758 0.044669148 0.054017354 -0.058814775
0003b0 33 63 25 bc 73 13 1a 3d 3d 39 45 bc d5 b9 e5 bb
       -0.010094452 0.037616204 -0.012037572 -0.0070106783
0003c0 81 0d 37 bb ae 97 bb bd 2f 9c ca bd 43 53 e8 3b
       -0.0027931633 -0.0915979 -0.09893071 0.0070900037
0003d0 ed 27 d0 bb 6a 06 8e 3d b9 22 24 3d ee 0c 41 bc
       -0.006352416 0.06934817 0.040072177 -0.011782868
0003e0 c8 c4 cb bc 85 ff 70 bc a4 2c ef bc ff 07 99 bc
       -0.024874106 -0.014709358 -0.029196091 -0.01868057
0003f0 73 c0 31 bc f5 a4 bd 3c c8 7c 54 3d 99 c2 27 3d
       -0.010849106 0.023149947 0.051876813 0.040957067

action_model._continuous_distribution.mu.bias f4 [2]
000000 55 d9 da 3b c1 13 cb bb
       0.00667874 -0.006197423

exp_avg f4 [128, 8]
000000 75 d7 0f 3a 83 9a 3e 39 a4 0a d3 39 2d ee bb 39
       0.00054871227 0.00018177372 0.00040252984 0.00035844874
000010 2c 44 79 b8 b5 5f bf 39 c1 4e 61 b9 1c c4 27 39
       -5.9429716e-05 0.00036501666 -0.0002148701 0.00015999418
000020 22 48 2b 39 77 9b 1a 39 9a e8 88 39 91 52 21 39
       0.00016334702 0.000147445 0.00026113243 0.00015384915
000030 3a 90 8f 39 b2 33 73 39 96 06 fc 37 ad c8 0b 39
       0.00027382543 0.00023193544 3.0043808e-05 0.0001333083
000040 c7 10 10 b9 9d 56 8a b9 ca 9a 6b b9 cf 84 a6 39
       -0.0001373916 -0.00026385943 -0.0002246901 0.00031760937
000050 52 15 7b 39 ba e4 3f b9 7f 78 e2 39 73 ef a0 38
       0.00023945168 -0.00018300387 0.00043195856 7.6739954e-05
000060 fd 2b 81 39 b9 33 92 39 06 c1 82 38 25 2b 9b b9
       0.0002463757 0.00027885826 6.2348365e-05 -0.0002959605
000070 c8 e1 b9 b8 94 20 ef 38 02 2d 95 b9 7e 42 81 38
       -8.8635425e-05 0.00011402476 -0.00028453028 6.1635845e-05
000080 34 bc cd 36 e0 df 12 39 53 82 89 39 4f 39 71 b7
       6.131386e-06 0.00014007045 0.00026227775 -1.4378063e-05
000090 36 d5 23 37 f4 bc d9 38 00 2c 1d b9 4c d7 98 b8
       9.765199e-06 0.000103825616 -0.00014989078 -7.288027e-05
0000a0 40 58 87 b9 f3 85 b7 b6 07 7b 8c 39 e0 7f 01 b9
       -0.00025814958 -5.4694187e-06 0.00026794543 -0.00012350036
0000b0 3d e9 c7 38 e0 22 d7 37 ef 13 84 b9 4a c5 56 b9
       9.5325035e-05 2.5646237e-05 -0.00025191854 -0.00020482126
0000c0 88 e4 2d ba 4d 6f da b9 bb ca 39 b9 be 89 5c 39
       -0.000663348 -0.00041663126 -0.00017718498 0.00021032148
0000d0 fc 9b 14 3a 3e 18 63 b8 7a 4c 50 38 db f5 18 b9
       0.00056689954 -5.4143595e-05 4.966229e-05 -0.00014587438
0000e0 32 3e cd 39 b0 28 02 3a 2d 4d 0f 39 c0 84 db b9
       0.00039146986 0.00049651694 0.00013666293 -0.00041869842
0000f0 89 69 c9 b8 21 02 ab 38 44 53 17 b8 b1 5e 8f 39
       -9.604084e-05 8.154312e-05 -3.6078753e-05 0.00027345636
000100 a2 16 80 39 be 0d cf 39 39 c8 b8 b9 6f 04 63 b8
       0.00024430925 0.00039492355 -0.00035244392 -5.4125147e-05
000110 00 e7 0e 38 26 4d 70 b8 8d df 4e 39 d6 69 5a 39
       3.4070574e-05 -5.729231e-05 0.0001972897 0.00020829527
000120 90 e7 89 38 21 c5 8c 38 28 b7 63 b9 18 6a 87 b8
       6.575801e-05 6.712438e-05 -0.00021716638 -6.457063e-05
000130 df 1f 35 b9 73 a5 9a b8 e9 60 1c b5 f2 0f 88 38
       -0.00017273378 -7.3741096e-05 -5.825555e-07 6.4879554e-05
000140 54 e3 5b 3a 42 6c 05 3a 91 80 80 39 27 d5 6b b9
       0.00083880615 0.0005089679 0.00024509852 -0.00022490752
000150 24 45 9b b9 ae 6e 15 39 61 3a 84 b9 35 1a 27 39
       -0.00029615418 0.00014250979 -0.00025220498 0.00015936124
000160 0a ed 14 ba a8 b5 7e b9 58 ad ca 39 84 0a b9 b8
       -0.00056810735 -0.00024291 0.00038657594 -8.823446e-05
000170 6d 6b 2d b9 d4 37 34 38 3e 13 82 38 5b 3c 16 ba
       -0.00016538585 4.296734e-05 6.202467e-05 -0.00057310396
000180 02 b8 cc b9 1a 78 88 39 b4 6a 21 ba b3 f0 b0 b9
       -0.0003904701 0.00026029424 -0.00061575626 -0.0003374867
000190 6b da de 38 44 a5 08 b9 68 1a ee b9 7b c3 82 b9
       0.000106264684 -0.00013031537 -0.00045414572 -0.00024941177
0001a0 e8 db 8c b8 56 1c 33 b9 8e 01 94 b9 d3 63 7c 39
       -6.716681e-05 -0.00017081326 -0.00028229918 0.0002406978
0001b0 94 8d 9c 39 27 13 d4 b8 29 15 a6 39 fb 03 10 39
       0.00029860123 -0.00010112515 0.00031677753 0.00013734393
0001c0 97 b5 f9 b9 40 d1 87 b9 2c b9 8d 37 28 8e 7b b9
       -0.00047628276 -0.0002590511 1.6894737e-05 -0.00023990183
0001d0 7a 4a 36 39 df c2 93 b8 7e e9 b2 b8 ff 03 b6 b8
       0.00017384617 -7.045804e-05 -8.531193e-05 -8.6791806e-05
0001e0 10 8d 2a 3a 42 58 21 3a a3 2d f5 b8 27 7e 68 b9
       0.00065060053 0.0006154814 -0.00011691011 -0.0002217224
0001f0 7c 0e 42 b9 5c e5 29 37 0b dd 3c b9 7b 01 3c 39
       -0.00018506678 1.0126587e-05 -0.00018011422 0.00017929629
000200 af 0e 6f 3a aa 8b 33 39 95 b8 77 39 df 6d e4 39
       0.00091193145 0.00017122799 0.00023624518 0.0004356941
000210 8e f3 0e 39 3a ef 40 39 8c 08 bd 39 e7 49 c5 39
       0.00013632906 0.00018399666 0.00036055257 0.0003762983
000220 87 c7 26 3a 87 7d 44 39 fb 9b 07 b7 da b2 8e b9
       0.00063621294 0.00018738779 -8.082944e-06 -0.00027217605
000230 ee 1c 4d b9 65 53 bb 38 35 59 f4 b9 a2 b0 01 39
       -0.000195611 8.932388e-05 -0.0004660577 0.000123682
000240 1d d1 11 3a d9 68 43 3a b9 63 18 3a f2 9d 3e ba
       0.00055624713 0.0007454283 0.00058131997 -0.00072714605
000250 46 a8 38 ba 67 4b c3 39 04 a0 8e ba 13 ad d0 b8
       -0.00070441177 0.00037249477 -0.0010881429 -9.9504505e-05
000260 c3 05 58 b9 b9 05 85 39 7e 2f 51 b8 af ef fa b9
       -0.00020601512 0.00025372 -4.9873714e-05 -0.00047862294
000270 2c 5f 79 b9 d3 01 09 b9 00 b6 c2 b9 66 04 80 b9
       -0.00023781945 -0.00013066018 -0.00037138164 -0.0002441734
000280 dd 31 70 39 3e 81 0e b9 07 a1 ad b8 22 c6 b7 b8
       0.00022906759 -0.00013590322 -8.2792765e-05 -8.763025e-05
000290 e8 30 88 b8 59 82 11 39 49 4a 2f b8 35 34 33 39
       -6.494095e-05 0.00013876836 -4.1792435e-05 0.00017090219
0002a0 10 12 89 ba ae 0a 96 39 cb 80 c9 b9 5d 9f 89 ba
       -0.0010457654 0.00028618186 -0.00038433666 -0.0010499764
0002b0 ca d6 2d 37 58 c7 02 ba db fd 29 ba ae a0 08 ba
       1.0361613e-05 -0.0004988811 -0.0006484666 -0.00052119314
0002c0 76 20 29 b9 b5 7b 25 b9 45 48 25 39 41 b3 90 39
       -0.00016129189 -0.0001578171 0.00015762549 0.00027599375
0002d0 97 74 e0 38 ec 91 a7 b7 13 a6 d0 b8 1a ac b4 b8
       0.00010702869 -1.9975902e-05 -9.9491466e-05 -8.615125e-05
0002e0 54 69 8d b9 f7 2b 90 39 8e c3 38 b9 83 79 cf b9
       -0.0002697209 0.00027498577 -0.00017620457 -0.0003957265
0002f0 78 a1 3b b9 eb 36 ec b8 47 7a ca b9 09 4d df b7
       -0.00017893862 -0.00011263586 -0.00038619546 -2.6619544e-05
000300 34 30 33 39 4e 10 a9 38 4f ed 6c b9 eb c4 86 39
       0.00017088727 8.061585e-05 -0.00022595118 0.00025705187
000310 25 2a 65 38 1c 6d 93 b7 f5 26 79 39 e0 72 56 39
       5.4637105e-05 -1.7574574e-05 0.00023761003 0.00020451425
000320 78 2b b3 b9 1b d2 19 38 70 75 9d 38 64 5f 12 ba
       -0.00034173927 3.667372e-05 7.508218e-05 -0.00055836723
000330 24 5d 8e b7 7a 9f 83 b7 47 f7 cc b9 75 29 24 b9
       -1.6971091e-05 -1.5690679e-05 -0.00039094148 -0.00015655703
000340 31 03 40 3a 72 7a ba 39 4e 77 70 39 df 4f 04 39
       0.00073246943 0.00035567913 0.00022932628 0.00012618255
000350 69 a1 eb b8 dc 9a 1a 39 99 24 b1 39 da a2 ab 39
       -0.00011235738 0.00014744274 0.00033787338 0.00032736995
000360 03 4b 86 b9 01 bd 91 39 be fc c9 b8 36 26 16 ba
       -0.0002561436 0.00027797374 -9.631504e-05 -0.000572774
000370 b4 e7 40 b9 d8 96 a2 b9 24 ec fe b9 49 1f aa b9
       -0.00018396863 -0.00031011435 -0.00048622594 -0.00032448236
000380 e6 1d e6 39 f6 4d e1 39 4e 34 44 b9 61 af c9 b9
       0.00043891295 0.0004297343 -0.00018711502 -0.00038468375
000390 47 48 48 b9 09 80 c6 37 24 9b 22 ba dd aa bd 38
       -0.00019100412 2.366306e-05 -0.00062029273 9.044048e-05
0003a0 ea fb 50 ba 79 19 3c ba e7 ca 09 ba 67 dd 76 b9
       -0.00079721084 -0.00071754266 -0.000525637 -0.00023542867
0003b0 22 f8 2c 3a bc 35 13 b9 26 5f 5d b9 68 aa 13 37
       0.0006598254 -0.0001403903 -0.00021111648 8.801559e-06
0003c0 5d b2 1b b7 bc ea 16 38 53 9f 9f b8 60 64 99 39
       -9.280248e-06 3.59814e-05 -7.611387e-05 0.0002925722
0003d0 ba 53 a5 38 55 74 26 39 94 3c 56 39 4f 10 b2 38
       7.8834084e-05 0.0001587433 0.00020431197 8.490739e-05
0003e0 c7 35 13 b8 3e f1 da 36 87 f5 bf 35 f6 e8 95 b8
       -3.5097615e-05 6.5249906e-06 1.4302067e-06 -7.148266e-05
0003f0 74 5a 5a b8 b1 29 ec b8 e6 bc 3c b8 01 5f 7d b8
       -5.205949e-05 -0.000112611226 -4.499862e-05 -6.040838e-05

exp_avg_sq f4 [128, 8]
000000 ca 55 57 35 6c cc 09 35 1e 72 73 35 cf b4 9c 35
       8.021858e-07 5.133395e-07 9.0690617e-07 1.1675528e-06
000010 61 83 4d 35 d3 e0 bf 34 d6 a0 eb 35 8e 22 90 34
       7.655963e-07 3.5740103e-07 1.7555674e-06 2.6847232e-07
000020 2b 36 7e 35 09 26 25 35 9a 17 7c 35 ee e9 d8 35
       9.47012e-07 6.152264e-07 9.391166e-07 1.6161337e-06
000030 59 c3 66 35 8d 6c ac 34 70 ee c0 35 dd 72 9e 34
       8.5965945e-07 3.2116478e-07 1.4374509e-06 2.9513367e-07
000040 f4 29 0c 35 22 cb d0 34 68 8b 30 35 51 58 73 35
       5.2215114e-07 3.8890818e-07 6.576797e-07 9.065307e-07
000050 48 1e 83 35 06 53 ba 34 77 06 d3 35 84 6f d7 34
       9.769074e-07 3.4705607e-07 1.5722607e-06 4.012801e-07
000060 2a b0 0c 35 69 f7 db 34 48 ca 21 35 29 af b5 34
       5.2410417e-07 4.0971943e-07 6.027153e-07 3.3841323e-07
000070 34 c6 25 35 59 30 05 35 46 6e 4e 35 fc 12 b9 34
       6.1755713e-07 4.9616716e-07 7.690145e-07 3.4472748e-07
000080 6c d4 58 34 d7 d6 23 34 c2 b6 37 34 e8 c5 4a 34
       2.0193846e-07 1.5258716e-07 1.710969e-07 1.8884714e-07
000090 38 e7 4b 34 24 0a e0 33 06 41 6e 34 00 5f c4 33
       1.8989965e-07 1.04326574e-07 2.2189133e-07 9.1442416e-08
0000a0 0a 3b 0b 35 9f 7e d6 34 2b d4 29 35 84 9c 3a 35
       5.186745e-07 3.9952735e-07 6.326615e-07 6.951816e-07
0000b0 b0 bc 11 35 74 69 96 34 e0 52 61 35 d5 9d 8a 34
       5.4291286e-07 2.8016404e-07 8.393963e-07 2.581934e-07
0000c0 61 5a 2f 36 de 55 0b 36 8f ca 39 36 63 64 84 36
       2.612964e-06 2.0762595e-06 2.7685053e-06 3.945593e-06
0000d0 39 78 2a 36 e1 e6 c2 35 aa 1d 30 36 d6 43 6d 35
       2.5401953e-06 1.4521321e-06 2.624331e-06 8.8388094e-07
0000e0 fe 79 e5 35 be 1f ce 35 44 22 06 36 86 5d 3b 36
       1.7097334e-06 1.5357434e-06 1.9987501e-06 2.791961e-06
0000f0 6f 91 12 36 e5 52 81 35 be f8 02 36 09 b4 62 35
       2.1840349e-06 9.635374e-07 1.9516297e-06 8.4453546e-07
000100 dc 04 7b 35 77 02 8c 35 18 cd b4 35 bf 33 94 35
       9.351186e-07 1.043153e-06 1.3470735e-06 1.1041919e-06
000110 e0 e9 ac 35 74 b3 3c 35 f2 8a a8 35 12 e4 05 35
       1.2883065e-06 7.0296596e-07 1.2557414e-06 4.9878247e-07
000120 4d 0e 81 34 6c be 6c 34 3c 97 cb 34 25 d1 55 34
       2.4038528e-07 2.2048488e-07 3.7921734e-07 1.9913257e-07
000130 d3 a6 af 34 a5 71 ac 34 02 2a d5 34 8b f6 32 34
       3.271767e-07 3.2120184e-07 3.9704906e-07 1.6667234e-07
000140 b4 64 01 36 27 6a f3 35 1f 6c 24 36 09 a2 37 36
       1.9281115e-06 1.8135805e-06 2.450084e-06 2.7363442e-06
000150 94 31 2c 36 55 39 b8 35 ef 34 23 36 68 7a 65 35
       2.5658856e-06 1.3725754e-06 2.4319704e-06 8.548727e-07
000160 85 e7 32 36 ae c3 0e 36 2f ac 56 36 64 f4 8b 36
       2.665883e-06 2.127355e-06 3.198871e-06 4.1709736e-06
000170 be a8 45 36 7e 9a a7 35 d9 bc b5 36 cb de 8c 35
       2.9453508e-06 1.2487433e-06 5.416205e-06 1.0495654e-06
000180 9e 32 b0 36 49 97 34 36 a3 0a 90 36 38 ec 60 36
       5.2511014e-06 2.691015e-06 4.2927727e-06 3.3516098e-06
000190 8a 7b 61 36 b5 b6 34 36 46 2c db 36 b8 42 d9 35
       3.3599522e-06 2.692844e-06 6.5318627e-06 1.6187178e-06
0001a0 87 c3 b5 35 79 26 7f 35 13 c4 a2 35 56 1d 71 35
       1.3542457e-06 9.505089e-07 1.2127006e-06 8.9822186e-07
0001b0 ed 14 d7 35 1f 50 78 35 8a 59 c8 35 20 92 2f 35
       1.6024838e-06 9.250379e-07 1.492722e-06 6.540522e-07
0001c0 2d 7c a0 35 aa 18 ab 35 e3 5c b4 35 69 19 b1 35
       1.1957069e-06 1.2747671e-06 1.3438079e-06 1.3194923e-06
0001d0 64 5b 06 36 d4 83 4a 35 5d 70 ee 35 f9 e9 2c 35
       2.0020752e-06 7.54427e-07 1.7765084e-06 6.441547e-07
0001e0 fa 66 d0 35 e1 75 ba 35 d1 ac 20 36 ab 03 00 36
       1.5527178e-06 1.3892387e-06 2.394245e-06 1.9075621e-06
0001f0 38 c3 13 36 a9 ca 9c 35 f5 86 2f 36 1b e8 5b 35
       2.201834e-06 1.1681888e-06 2.6155587e-06 8.1921615e-07
000200 35 b8 21 36 cd 18 ec 35 cf 5b e1 35 1c 13 c6 35
       2.4098092e-06 1.7590588e-06 1.6790526e-06 1.4757711e-06
000210 cc 4d f2 35 06 8d 47 35 ef 03 e7 35 ec b8 80 35
       1.8053047e-06 7.4338493e-07 1.7211986e-06 9.590563e-07
000220 60 40 c2 35 ff 24 9c 35 9b 05 e8 35 d4 20 0c 36
       1.4472862e-06 1.1633673e-06 1.7286978e-06 2.0880734e-06
000230 dc 67 e3 35 bc 09 43 35 9a b6 1f 36 50 23 32 35
       1.6943045e-06 7.2657326e-07 2.3799134e-06 6.6361554e-07
000240 3b 82 5b 36 76 ea 12 36 f1 11 4d 36 3b 70 86 36
       3.2709347e-06 2.189217e-06 3.0557824e-06 4.0065765e-06
000250 c9 16 47 36 06 f8 c1 35 69 72 96 36 b4 cb 91 35
       2.9666573e-06 1.4451805e-06 4.4836675e-06 1.0862627e-06
000260 07 99 ec 35 b0 ab 9c 35 b0 22 d8 35 f6 32 2b 36
       1.7627907e-06 1.1672873e-06 1.610335e-06 2.5510649e-06
000270 7b 13 d6 35 f2 ce 66 35 eb 7b 09 36 51 42 13 35
       1.5949912e-06 8.598282e-07 2.048672e-06 5.485827e-07
000280 a9 6f 8e 35 92 71 24 35 9b bd 58 35 92 81 5f 35
       1.0612322e-06 6.126003e-07 8.074218e-07 8.3262523e-07
000290 95 b1 4b 35 da 73 cc 34 16 1d cc 35 29 b9 d4 34
       7.588181e-07 3.8082254e-07 1.520765e-06 3.96228e-07
0002a0 94 cd 86 36 08 cc 01 36 86 b9 45 36 5c 94 9a 36
       4.0174436e-06 1.934126e-06 2.9463276e-06 4.606829e-06
0002b0 bd e9 3f 36 1b 7a c0 35 7f 6c b7 36 be 40 8c 35
       2.8597271e-06 1.4340652e-06 5.4664556e-06 1.0449655e-06
0002c0 ed 8e 1b 35 a7 71 08 35 d8 46 56 35 e2 5d c9 34
       5.7949984e-07 5.0829334e-07 7.9824304e-07 3.7507476e-07
0002d0 59 93 3e 35 bc d9 52 35 3a a2 1e 35 c4 28 fe 34
       7.0994935e-07 7.854794e-07 5.909566e-07 4.7340848e-07
0002e0 7e ac 06 36 4d fd ae 35 65 7d 0f 36 c7 dd f4 35
       2.006796e-06 1.303773e-06 2.138165e-06 1.8243962e-06
0002f0 5b ab 2d 36 18 3c a5 35 e7 c6 9b 36 6a 3c 7b 35
       2.587875e-06 1.2310948e-06 4.6425153e-06 9.35927e-07
000300 50 cc 23 35 d0 08 02 35 41 8a 0b 35 be 91 15 35
       6.1019546e-07 4.84416e-07 5.198272e-07 5.571891e-07
000310 fc 6b 23 35 88 b2 c3 34 76 ec 3d 35 29 32 b8 34
       6.087937e-07 3.645148e-07 7.075208e-07 3.4309167e-07
000320 03 26 43 35 d1 63 0b 35 26 ce 30 35 f7 cc a8 35
       7.2698475e-07 5.1926787e-07 6.5865095e-07 1.2576628e-06
000330 d4 3c 35 35 9a 5a 93 34 62 6e e2 35 bd 48 52 34
       6.751627e-07 2.7446805e-07 1.6870438e-06 1.9584236e-07
000340 72 22 ef 35 63 62 96 35 e6 8d b5 35 c7 39 97 35
       1.7816913e-06 1.1204505e-06 1.3526849e-06 1.1267192e-06
000350 0e 02 ba 35 1b 78 43 35 e6 6a b2 35 04 fb 48 35
       1.3858678e-06 7.281794e-07 1.3293145e-06 7.487108e-07
000360 0a cc f7 35 c8 da 87 35 16 ef be 35 09 2f 1d 36
       1.8462317e-06 1.0121958e-06 1.4225686e-06 2.3422201e-06
000370 29 08 b7 35 e3 6a 53 35 87 42 05 36 64 9e ec 34
       1.3636937e-06 7.8759166e-07 1.9857268e-06 4.407367e-07
000380 ad 17 97 35 5d a0 8e 35 25 91 e8 35 66 49 0e 36
       1.1257267e-06 1.0626496e-06 1.732759e-06 2.1202372e-06
000390 85 46 d2 35 35 0b 2f 35 94 67 6e 36 d8 7e 03 35
       1.5666743e-06 6.520889e-07 3.5525054e-06 4.8985885e-07
0003a0 7f 38 7e 36 14 e9 33 36 29 ab 71 36 e6 32 8d 36
       3.7881834e-06 2.6808748e-06 3.6011427e-06 4.208053e-06
0003b0 f8 52 78 36 d0 cb 17 36 9c dc 6c 36 9c 22 b9 35
       3.7003174e-06 2.2619388e-06 3.5295152e-06 1.3793647e-06
0003c0 1e 44 38 35 78 95 f4 34 36 42 20 35 29 26 6c 35
       6.8644465e-07 4.5557294e-07 5.9700994e-07 8.797238e-07
0003d0 ea 4e 2a 35 d0 30 bb 34 25 28 7d 35 f9 29 9c 34
       6.344477e-07 3.486698e-07 9.430826e-07 2.9087803e-07
0003e0 41 d7 12 35 06 5f 0c 35 3c 39 20 35 e5 fd ec 34
       5.4702474e-07 5.229234e-07 5.968793e-07 4.4143158e-07
0003f0 e5 3f 3d 35 d4 9e 0e 35 0f 23 62 35 de fb 0d 35
       7.0500965e-07 5.313025e-07 8.424258e-07 5.289311e-07

exp_avg f4 [128]
000000 95 00 a9 39 9d 50 b6 38 c7 97 f5 b7 53 18 ad 36
       0.00032234626 8.693452e-05 -2.9276953e-05 5.1586335e-06
000010 68 45 76 b9 7b 80 03 ba 48 ce f3 b9 f1 65 49 39
       -0.00023486244 -0.00050163985 -0.00046502263 0.0001920683
000020 04 6a d3 39 a1 3f 94 39 27 9e 8d 39 29 a5 33 ba
       0.00040324044 0.00028276167 0.00027011448 -0.0006852919
000030 8d 53 15 3a 69 70 23 39 38 ed e4 b9 ca 31 d7 39
       0.0005696349 0.00015586767 -0.0004366429 0.0004104509
000040 85 6f 1f 3a 93 05 d0 39 f4 d0 b9 b8 34 dd de b8
       0.00060819864 0.00039677005 -8.860408e-05 -0.00010626987
000050 38 00 57 39 0a 4b 1d ba 68 31 a0 b9 e5 3e 8a 39
       0.0002050408 -0.00060002564 -0.0003055439 0.0002636827
000060 8c 1f 72 39 e6 9c 88 b9 30 b6 fc 39 c3 fc ad b8
       0.0002309067 -0.0002605684 0.00048200926 -8.2963634e-05
000070 db 08 9c 39 4c c0 4e ba ab 5d f2 38 c5 be 85 38
       0.00029761237 -0.0007886931 0.00011556906 6.377468e-05
000080 64 c8 9a 39 44 d8 fd b8 97 a1 22 3a ea b4 43 b9
       0.00029522472 -0.00012104263 0.00062038883 -0.00018664045
000090 62 da f3 b9 42 4e f5 b9 fd 94 33 39 c3 31 81 39
       -0.0004651128 -0.00046788348 0.00017126273 0.00024641873
0000a0 9f 4a 44 39 24 a4 16 3a b0 97 8e b9 e0 c3 f4 b9
       0.00018719815 0.0005746505 -0.00027197367 -0.00046685245
0000b0 4a 76 a7 b9 f9 58 81 39 53 55 35 38 18 bf 18 ba
       -0.00031940854 0.00024671087 4.3233227e-05 -0.0005826815
0000c0 7a 35 41 38 01 5e 7e 39 20 6e 14 38 84 a0 30 38
       4.606459e-05 0.00024258347 3.538851e-05 4.211116e-05
0000d0 8f 75 11 b8 63 44 9e b8 e1 18 c4 39 04 74 57 39
       -3.468018e-05 -7.546765e-05 0.0003740257 0.00020547217
0000e0 a7 61 59 ba 9c 01 cb b9 a6 92 3b 39 e4 a3 d7 b9
       -0.00082924444 -0.00038720376 0.0001788834 -0.00041130104
0000f0 a8 d2 8e 39 fc cb 14 39 aa 42 49 b9 54 8b 18 3a
       0.00027241302 0.0001419037 -0.00019193688 0.00058191014
000100 a8 f2 98 39 f7 45 5b b9 e2 b1 9c 39 43 a0 68 38
       0.00029172492 -0.00020911531 0.00029887172 5.5462366e-05
000110 99 8d 16 ba 57 c5 41 b9 df 4c bd b9 ac f6 d9 b8
       -0.00057431456 -0.00018479429 -0.00036106163 -0.000103933126
000120 c1 41 87 b9 ac e9 c0 39 39 29 55 3a 4b 81 72 39
       -0.00025798197 0.00036795193 0.0008131448 0.00023127084
000130 ab 9c 6a b9 7f 7c bd 38 d1 5a 17 39 81 54 89 38
       -0.00022374342 9.0354115e-05 0.00014434314 6.548409e-05
000140 7c af 62 b8 cd 3f c4 37 72 a0 92 b9 8b 6c 7f 39
       -5.404603e-05 2.339473e-05 -0.0002796683 0.0002435913
000150 e3 ad 87 38 29 8a 0c ba 85 66 a8 b8 96 94 cb 39
       6.4696906e-05 -0.00053611636 -8.02996e-05 0.00038829882
000160 c3 13 00 3a 68 c3 cf 39 38 39 e1 38 c9 77 bb b9
       0.0004885757 0.00039627706 0.00010739494 -0.00035756666
000170 ae df be b9 f0 f8 1b b7 19 51 e9 b8 81 b6 84 37
       -0.00036406278 -9.29668e-06 -0.000111254114 1.5820611e-05
000180 37 75 57 b8 a0 ed 7c b9 63 32 f2 38 9a 99 92 b8
       -5.136916e-05 -0.00024121115 0.000115488445 -6.990433e-05
000190 ca 3d 6c b9 db 26 83 38 ec 07 80 37 dc 55 20 38
       -0.00022529732 6.253804e-05 1.5262478e-05 3.8226935e-05
0001a0 45 bd 98 39 80 10 c1 39 2f 17 94 39 37 67 64 39
       0.00029132716 0.00036824122 0.00028246033 0.00021782225
0001b0 4b 37 54 b9 1a cb 3f 38 e3 57 a3 39 cc 52 86 39
       -0.00020238494 4.57271e-05 0.00031155263 0.0002562016
0001c0 56 a2 a8 39 ee b8 44 b9 e1 34 34 39 a1 da 80 39
       0.00032164407 -0.00018760908 0.00017185837 0.00024576954
0001d0 b6 cd ba 39 68 77 38 38 8c 6f 83 38 44 8b 24 39
       0.0003562995 4.3980224e-05 6.267344e-05 0.0001569214
0001e0 cb 9a 4b 39 16 b3 bb 39 e5 6d b2 b9 24 c6 b3 b9
       0.00019417253 0.0003580085 -0.00034032683 -0.00034289167
0001f0 00 11 ae b9 e5 7a b0 39 3d 70 e8 39 a0 d7 83 39
       -0.00033200532 0.000336609 0.00044334112 0.0002514692
