results/hallway_test/Hallway/Hallway-156357.onnx (onnx, 328989 bytes, 9 tensors)

network_body._body_endoder.seq_layers.0.weight f4 [128, 108]
00000000: 75ae bc3d fb0a 163d 0d1f 2ebe 07a6 10bd
00000010: 3f1d a73d 358d 51bd ea47 683d 2edd 65bc
00000020: cf66 5fbd 6de9 273c c25f a53e e1f8 a33d
00000030: 3108 86bd 2afe b83c dfdc 153c 8fdb 2b3d
00000040: 7090 843d 3d1e be3c b7a2 47be a797 3bbd
00000050: 5b4b c13d 5bdb a73d 2aae b9bd 4fe6 f2bd
00000060: 5674 b7bd 1b8b e6bc 7b66 57bc 76c1 0c3e
00000070: 4ead 85bd d22c 143e b687 653e cf59 8dbd
00000080: 2fea 2fbd 916d 633c f634 da3d ad2d 563d
00000090: b5e4 3d3d c03a e8bd 0673 213e fc6f 983d
000000a0: 3ccb 413e b9d8 5d3e c6b5 1fbe 12bf 96bd
000000b0: 1d94 1fbe b543 d63c 0655 0e3e 86bd d43c
000000c0: 1288 e43c 56e3 ef3d bde8 af3d 676c 933d
000000d0: 36aa 5b3d 975b ec3d e8ba 533e 494f 72bd
000000e0: 2f5c 553d 27f4 b13d 4b7f d0bd 0c02 77bd
000000f0: ac3a 603e 0dee c7bd 842b b83d 8f5a 2cbd
00000100: b30d 0ebe f3c6 95bd 721d 673e 99cb d4bd
00000110: 99af 1a3e 1917 863c 1ee9 57be 7d40 5d3d
00000120: 7df5 96bd dedf 643d 7387 203e e1cf 0cbe
00000130: d62c 9cbd 59e9 dbbd 5bb7 0d3e 80b1 8c3d
00000140: 3af4 66ba 515e 863c 06c6 89bc ebda 233d
00000150: 90d0 9f3d 485c 8e3d 942c 293e f4a0 b1bd
00000160: 0392 d93d 5151 553d a888 13bd 0e2b bebd
00000170: 98f0 75be 9fee a9bc 5e2b 563c f799 243e
00000180: df55 efbd f8cb 18bd 75fd 283d fdcd 113e
00000190: 12d1 26bd ae2c 29be 1ba8 65bd 8d90 4abe
000001a0: b600 f9bd 862f 7ebb 6580 18be b86f 053d
000001b0: 585f adbe a9df 12be c9fc 413d a279 433d
000001c0: 8e93 51bd d657 cfbd 0771 143e 1c15 6abb
000001d0: 2af2 1bbd d8dd 073d 9dc1 a5bd 5fe8 3c3e
000001e0: 60b7 da3c afd3 ae3c f1d3 c23d 3a4d a3bd
000001f0: 0fdb 1f3d 1164 79bc 774c 26bd f4f4 c8bc
00000200: 5b0f 3e3d 41fd 023e 6677 2e3d bcbe debc
00000210: a262 6bbe 366b 663e 6f33 683d 31b4 adbd
00000220: aad5 023d 2d12 b9bd 4d6f cfba 9507 c2bc
00000230: da36 cb3d 2cd8 a3bd 108c 0f3c fd1f 12bd
00000240: ea2d 743e 0c9e 6c3d bc94 543e 5017 1f3e
00000250: addf 6bbe f6b6 c8bd 9aa2 023b 16a9 2c3e
00000260: 400e 103e 6809 343d 1b17 c6bd 99db 0ebd
00000270: 4960 683d 54bf 7cbd 4dc2 14bd 65b9 95bd
00000280: 682c 853d a116 cc3d b057 c9bd a7b2 f2bd
00000290: 9096 19be 36b6 803d 46ee 3b3d fa65 c3bc
000002a0: 720e a93d 1b30 b53d 1b5f 4e3d 42e7 cfbd
000002b0: ced6 2e3d aef6 373d 9fcd 0bbe 04c6 a33d
000002c0: 00c7 543d 9849 a23d 14e7 30bd 7c3d 5fbe
000002d0: 4f7b e5bd 7137 1dbe 64a5 0b3e a47d a23d
000002e0: aab0 acbc 1db2 47bd f2cc 553e 55c9 febd
000002f0: 655c 1ebe 495f 3d3e b5de 63bd f319 0cbd
00000300: dcf9 e6bd eb82 4fbe b72c 59bd 157f 953d
00000310: 1664 e23c 33c1 4d3d c913 2abc 5fb4 883c
00000320: ff6f b6bd 0b4c ffbc 39a8 cebb 8188 11bd
00000330: 0591 2abb 4359 f73d b742 aabd a018 2ebd
00000340: 092b af3d 74fe d5bd 3297 a43d ad6a 313d
00000350: a9b0 643d c745 2bbc 5d7a d13d f619 963d
00000360: 5e9c 713d 6928 073e ba1c c8bd dc96 04be
00000370: c613 47be 54c1 9a3d 188d c2bd b336 b3bd
00000380: 22cd 99be 7455 41bc 4283 0dbb 69e5 a83c
00000390: 9a3b 93bc 0616 28bd 1eba a4bd 733c fdbd
000003a0: 52a6 623d 19c6 85bd 03dc 0d3e f157 a6bd
000003b0: f60f 023e 4505 25be 9d01 03be d7ad b73a
000003c0: 6c69 9ebd f61c e9bd df18 7bbe 019b fc3d
000003d0: 45c5 083e 7ee6 aabd 36be edbd 187a c9bd
000003e0: 6577 053e 4651 8f3c 188f 2cbc 17a8 90bb
000003f0: 5fa8 38be 9c39 1abd 181f 363c a9c1 60bb
0.092129625 0.036631566 -0.17004032 -0.035314586 0.08159875 -0.051160056 0.056709208 -0.014029784
-0.054541405 0.010248524 0.3229962 0.08006454 -0.06544531 0.022582132 0.009146898 0.041957434
0.06472862 0.023207778 -0.19495665 -0.045798924 0.09438201 0.081961356 -0.09066422 -0.11860334
-0.08957736 -0.028142503 -0.013146992 0.13745674 -0.06527196 0.14470223 0.22415051 -0.06901895
-0.042947944 0.013881103 0.10654633 0.052289654 0.04636069 -0.11339331 0.15766534 0.07443234
0.18925184 0.21664704 -0.15596685 -0.073606625 -0.15583844 0.026155332 0.13899621 0.025969278
0.027896915 0.11713283 0.08589313 0.071984105 0.053629123 0.11540907 0.20676768 -0.059157643
0.052089866 0.086891465 -0.10180529 -0.060304686 0.21897382 -0.097622015 0.08992675 -0.04207855
-0.13872413 -0.07313337 0.22569826 -0.10390396 0.15106048 0.016368436 -0.21085021 0.05401658
-0.07371042 0.05587756 0.1567667 -0.13751175 -0.07625739 -0.10737867 0.13839476 0.06869793
-0.00088101963 0.016402395 -0.016818058 0.0400037 0.07803452 0.06951195 0.16520911 -0.086732775
0.10623553 0.052079502 -0.036018997 -0.09285556 -0.2401756 -0.020743666 0.013071863 0.16074358
-0.116863005 -0.037303895 0.04125734 0.14238735 -0.04072673 -0.1652095 -0.05606852 -0.19781704
-0.12158339 -0.003878565 -0.14892729 0.032577246 -0.33861804 -0.14343132 0.047360215 0.04772342
-0.05116611 -0.10124175 0.14496242 -0.0035718149 -0.038072743 0.03317055 -0.080935694 0.18448018
0.026698768 0.021341173 0.09513081 -0.07973714 0.03902727 -0.015221612 -0.040600266 -0.024530865
0.046401363 0.12791921 0.042594336 -0.027190559 -0.22986844 0.22501835 0.056689676 -0.084816344
0.031942047 -0.0903667 -0.0015826017 -0.023685256 0.099225715 -0.08000216 0.008761421 -0.035675038
0.2384564 0.057767913 0.20759863 0.15536237 -0.23034544 -0.09800522 0.0019933344 0.16861376
0.14067936 0.043954283 -0.09672376 -0.034877393 0.05673245 -0.061705902 -0.036318112 -0.07310752
0.065026104 0.099652536 -0.09831178 -0.118504815 -0.14998841 0.06284754 0.045881532 -0.023852337
0.08254708 0.08847066 0.05038367 -0.10151531 0.042685322 0.044912986 -0.13652657 0.07996753
0.051947594 0.07924193 -0.043189123 -0.21800798 -0.1120516 -0.1535318 0.1363731 0.0793412
-0.021080334 -0.048753846 0.20878962 -0.12440745 -0.15464933 0.1849338 -0.05563231 -0.034204435
-0.11278126 -0.20264785 -0.05302116 0.072996296 0.027635615 0.050233077 -0.010380694 0.01668757
-0.0890808 -0.03116419 -0.006306675 -0.03553057 -0.002602638 0.12077572 -0.08313506 -0.042503953
0.0855313 -0.10448924 0.08036651 0.043314625 0.05583254 -0.010453648 0.10228417 0.073291704
0.058987014 0.13199009 -0.09771104 -0.12948173 -0.19441137 0.07556406 -0.09499568 -0.087506674
-0.30039316 -0.011800159 -0.0021593128 0.020617204 -0.017972756 -0.04103663 -0.080433115 -0.123650454
0.055334397 -0.06531925 0.13853459 -0.08122242 0.12701401 -0.16115291 -0.12793584 0.00140136
-0.077349514 -0.11382477 -0.24521206 0.12334252 0.13356502 -0.08344744 -0.116085455 -0.09837741
0.13033827 0.017494809 -0.010532163 -0.004414569 -0.18032978 -0.037652597 0.011115812 -0.0034295118

network_body._body_endoder.seq_layers.0.bias f4 [128]
00000000: 7942 933c d427 133c a53a 9d3b 5d4b 603c
00000010: 1791 ce3c e96e 83bb 62e9 3bba 6bf2 3aba
00000020: 08b3 0d3c deff f7ba 0b20 64bb 0bff c139
00000030: ad97 823c 7d65 e13b aeaa 5cbc 5958 593c
00000040: c8fe 3a3c 9b7d 383b 903f ba3a 8ba1 663b
00000050: 245a 973c d0c6 b33b 02eb 28ba 7299 813c
00000060: 9032 9e3c a1b5 8abb da2d c13c 8635 0bbc
00000070: ba05 9ebc c66b a23c c82e 193c 1cd8 1e3b
00000080: 5f0a f73c 73ac 253c e923 cfb9 1779 18bc
00000090: 6e5c 433c 3728 b43b 3a0b 5c3c 2e96 5c3c
000000a0: 9512 203c ef22 693c d5d1 3c3c bc16 ee3b
000000b0: d7e6 1fbc e9a5 563a 140c af3a 0317 a63c
000000c0: 181c 093c 6155 1a3b cf40 873c 7d8e 613c
000000d0: 4a61 b03b fc5e 13bc 6be4 723b 4d86 e63a
000000e0: babd 1fba 78cc 863c 0370 993c cff3 f4bb
000000f0: a801 833c 3bb7 d6bb 6461 2a3c bc9d 713c
00000100: 15cf 1e3c 06f0 153c 2466 9c3b 5bef e8bb
00000110: 9c43 ea3b 7834 aa3a aa60 8c3b d7a7 033b
00000120: 96dd 603c 3e17 463c 6f93 2c3c d6d6 043d
00000130: d59d e53b 4b74 2a3c 99fe 873c 72d3 183c
00000140: 40ce 783b ae68 173c 23bb fc3c 60d2 363c
00000150: 3d6c 113c 7848 bb3c a0b5 433b fecf 24bc
00000160: 770d 9b3b 9b84 123c aa71 10bb b7d1 a0bb
00000170: 6c42 5a3c 78f3 0bbc 441c 2fbc 8325 c33b
00000180: 6760 d43b d3ab b23c bda6 963b 2d11 2d3b
00000190: c2d8 df3b cf49 9c3b 80f6 8a3b 97d3 833c
000001a0: 3bab baba af27 00bc a8f5 f53b c8bb c43b
000001b0: 8c82 7a3c 4a0c 86bb 9679 cabb 4a07 1c3c
000001c0: 07c6 4bbb ec5b bf3b 1dac 573c 5b67 c33b
000001d0: 73a8 a03a bae5 2a3c a62a fa3b 81a7 1e3c
000001e0: 5095 faba b9bc 893b d1ba 12bc d9a8 703c
000001f0: ba04 3c3b 30b0 a03c 2802 f53c f383 f83b
0.017976033 0.008981664 0.0047982507 0.013689843 0.025215669 -0.0040110243 -0.00071682606 -0.000713146
0.008648641 -0.0018920859 -0.0034809138 0.0003700185 0.015941465 0.0068785534 -0.013468428 0.013265693
0.011413284 0.0028151039 0.0014209617 0.0035191502 0.0184756 0.005486347 -0.00064437103 0.015820239
0.01931122 -0.0042330776 0.023581434 -0.008496648 -0.01928984 0.019826781 0.009349532 0.0024237698
0.030156313 0.010111916 -0.00039508872 -0.009306214 0.011923892 0.005497958 0.013430411 0.01346354
0.009770055 0.01422952 0.011524637 0.0072658937 -0.009759626 0.00081881747 0.001335504 0.020274645
0.0083685145 0.0023549425 0.016510395 0.013766882 0.0053826915 -0.008994814 0.0037062417 0.0017587632
-0.000609364 0.01645492 0.01873017 -0.0074753533 0.015992 -0.0065526045 0.010399196 0.014747079
0.009692927 0.009151464 0.0047729183 -0.0071086115 0.007149173 0.0012985608 0.004283984 0.0020089054
0.013724705 0.012090502 0.010533198 0.032431446 0.0070073404 0.010403703 0.016600894 0.009327756
0.0037964731 0.009241266 0.030850952 0.011158556 0.008875904 0.022861704 0.0029862896 -0.010059355
0.0047318297 0.008942748 -0.0022040405 -0.0049078125 0.0133215 -0.008541934 -0.010687891 0.0059553995
0.0064812186 0.021810448 0.0045975135 0.0026407943 0.0068312595 0.004769541 0.004240811 0.016092105
-0.0014241704 -0.007821961 0.007506091 0.0060038306 0.015289914 -0.0040908204 -0.006179045 0.009523222
-0.0031093375 0.0058398154 0.013163594 0.0059632487 0.0012257233 0.010430748 0.0076344786 0.009683491
-0.0019117985 0.0042034057 -0.008955673 0.014688694 0.002868934 0.019615263 0.029908255 0.007584089

network_body._body_endoder.seq_layers.2.weight f4 [128, 128]
00000000: 132d 5f3d a82d 75bc 448c 6fbd 3136 263e
00000010: 97e8 5dbd 8671 b33d 8a5f f6bd 105f 4cbd
00000020: 64af eabd 4abf 1fbe 7cfe 07be d261 b8bd
00000030: 0913 5d3d 6c90 a63c 4784 07bd 9000 adbc
00000040: fd0f 70bd 46a1 0fbd ff53 8f3c 331c 943d
00000050: 66f5 493c dfe5 0f3e 68b7 d9bd f40a 283e
00000060: 54e6 cfbd c372 173e 7aa5 80bc 5238 d83c
00000070: 6f65 9d3c 278f 0a3e 096b 3abe 2831 243e
00000080: 2f71 78bd 944f 5b3d 291e 00bd 2187 633d
00000090: d271 62be 0958 f13d 0abc be3d 22e8 0cbe
000000a0: 8538 c7bc 3e4a cdbd c010 43bd adf1 2abe
000000b0: 9175 19be c091 afbd 076a 623c b88f c93d
000000c0: b535 18be 10ff 38be ce30 c63c d3e0 dbbb
000000d0: 4d73 0d3e fa69 afbb a41a a03a 9c8d ac3d
000000e0: c3d5 c0bd 7395 f9bc c34a b93c 2eec b7bc
000000f0: d7c5 aabc 15de 983d a8e3 303e f822 1cbe
00000100: 79cb 323d c6af afbc 8bd7 b83d a825 9c3d
00000110: 0b89 633d 3d4b 20be 8478 663d 9d99 b33b
00000120: 4beb efbd cd3a 483d f54e b43d f5f0 4cbe
00000130: 6980 b4bc 9f01 95bb 6291 d3bd 4d02 083c
00000140: df1d 8539 ac67 99bd b2e2 8439 3640 44be
00000150: 2821 f43d ef8d 2b3d d503 c23c c490 6a3d
00000160: 76a5 b43d dda3 1f3d a9c6 06bd 7bed f63c
00000170: d5d5 91bd 166b 603c 8037 f93c c03e 4e3d
00000180: 97da 0f3d 885c a53d fc00 2d3d 6158 a3bd
00000190: 2556 46bc ec82 773d 4f04 a2bc 0972 abbd
000001a0: 3f3f e2bd 470b 2c3c 2d11 35bd 7935 0abe
000001b0: a0ee 1e3e 835a 8bbd 50e6 ea3d 1f00 773d
000001c0: b19b 633e 19d2 ba3d 7d41 0e3d 6eb1 943d
000001d0: 8805 c0bd 2ea6 663d 1e25 9dbd 1b19 133d
000001e0: 9f49 c9bd 9174 cebd a433 10bd 7fd3 453d
000001f0: d47f 4fbc f147 97bd 7f57 e63d 3fb7 9f3d
00000200: d6f1 33bd 2a2c 373d 6040 383b 572e fc3c
00000210: 1587 053d 664e b53d fb09 073e a1e3 2fbd
00000220: 7720 033b ba02 4f3d e9f4 df3d bdb0 ee3d
00000230: c63b bd3d 8eac 65bc f058 90bc 5b43 d73d
00000240: 0be6 76bd 7408 913d 190b 57be 49be 3abe
00000250: db34 883d b616 3bbc a877 8f3c 89c7 abbd
00000260: 6b69 a5bd f37b 99bd 5eed 093d ac6f a43c
00000270: 6516 90bd 2f53 0ebd 15b8 93bd 6343 80bd
00000280: c995 b73d acdb b6bd be1f 92be 6827 4abd
00000290: 20d7 103d 86b0 a13c d42d 7b3d 41c3 e43c
000002a0: 9979 7d3c 2a1c c4bc 34e1 d53c a022 00bd
000002b0: c473 08be a5f2 2a3e d126 4c3c b473 f7bc
000002c0: 5d19 133c a646 b5bd 5001 0d3e 232c f6bd
000002d0: 0c35 09be fa1b adbb a4c3 f63d c27c 743d
000002e0: f1b3 d9bd f670 fdbd 8ea5 f4bc 7c20 e63d
000002f0: ae49 bdbd 3f73 473d 8bf3 353e 75af 2a3e
00000300: b341 95bc b649 553e a77d 16bd d431 0fbe
00000310: f2ad bd3c 669c 72bd d42f 943d c976 453d
00000320: aff4 053d 82a3 903e 4dbc 933d b9d0 e13d
00000330: 0411 9cbc aa74 af3d bd59 d83d c3c4 a93d
00000340: 9fce 273d 1b35 2abe fa31 843d b77c e7bc
00000350: 78b4 39bb bc46 203d df23 a0bd c784 853c
00000360: 188c bfbd 4c06 ad3c 5877 1abd 1478 f83d
00000370: 0a4a 23bd a1ec 5cbc 0fce 6e3d 2278 e3bd
00000380: 448a e73d e937 22be d452 8c3d 1100 2b3d
00000390: 8997 1b3d db2e f03d 31fb 8a3b e10f efbc
000003a0: 7c81 e0bc 6935 a6bc 5328 cfbd 0f49 8c3d
000003b0: 400a 2f3d 47ab a0ba 655f 3f3e 3251 203e
000003c0: 8dff 0f3d 8c22 f23c ecae 773d 0af6 6cbd
000003d0: 4cd1 4dbe a5bc 83bd 2f5e 9d3d 3614 ab3b
000003e0: 30ba a13b f835 98bd 2eac 8e3d 8901 dc3d
000003f0: de16 84bc bb1a 173d 3d42 2e3c d59d b8bd
0.054486345 -0.014964499 -0.058483377 0.1623161 -0.054176893 0.08761887 -0.120299414 -0.049895346
-0.11459234 -0.15600315 -0.13280672 -0.09003033 0.05397323 0.020332538 -0.033085134 -0.021118432
-0.058608998 -0.03506591 0.017496107 0.07231941 0.012326574 0.14052533 -0.10630685 0.16410428
-0.101513535 0.14789872 -0.015703905 0.026394043 0.019213406 0.13531171 -0.18204893 0.16034377
-0.060654815 0.05354269 -0.031278763 0.05554879 -0.22113732 0.117843695 0.09313209 -0.13760427
-0.024318943 -0.10023926 -0.047623396 -0.16693754 -0.14986254 -0.085727215 0.013819224 0.09841865
-0.14864238 -0.18066049 0.024193194 -0.0067101507 0.13813515 -0.0053532096 0.0012214971 0.08425447
-0.09415772 -0.03046677 0.022618657 -0.022451486 -0.02084629 0.07464234 0.17274344 -0.15247715
0.043651078 -0.02144612 0.090254866 0.0762437 0.055550616 -0.15653701 0.056267276 0.0054809586
-0.117148004 0.0488842 0.08804122 -0.20013793 -0.022033887 -0.0045473124 -0.10330464 0.00830133
0.00025389993 -0.07490477 0.00025345903 -0.1916512 0.119203866 0.041883405 0.023683468 0.057266966
0.08820622 0.03897463 -0.0329043 0.030142536 -0.07120863 0.013697406 0.030421972 0.05035281
0.035120573 0.080742896 0.042237267 -0.07975841 -0.012105499 0.06042759 -0.019777445 -0.0837136
-0.110472195 0.010500736 -0.044205833 -0.1349696 0.15520716 -0.06804373 0.1146971 0.06030285
0.2222736 0.09122104 0.034730423 0.072604045 -0.09376055 0.056310825 -0.07673095 0.035912614
-0.09828495 -0.10080827 -0.0352055 0.0482974 -0.012664754 -0.073867686 0.11247157 0.07798623
-0.043931805 0.044719853 0.0028114542 0.030783815 0.032599527 0.08852844 0.13187401 -0.042941693
0.0020008364 0.05053971 0.10935385 0.11654804 0.092399165 -0.014018191 -0.017620534 0.10510894
-0.06027798 0.070816904 -0.21000327 -0.1823665 0.066507064 -0.011418989 0.017513111 -0.08387668
-0.080767475 -0.074943446 0.033673637 0.02007278 -0.070355214 -0.0347473 -0.07212845 -0.06262853
0.08964116 -0.08928618 -0.28539842 -0.049353987 0.03536141 0.019737493 0.061323002 0.027925136
0.015470886 -0.02393921 0.026108362 -0.03128302 -0.13325411 0.16694124 0.012460426 -0.030206539
0.008978215 -0.08851366 0.13770032 -0.12020137 -0.13399142 -0.005282876 0.12049034 0.05968929
-0.10630024 -0.12375061 -0.029864099 0.11236665 -0.09242569 0.04869389 0.17768686 0.16668494
-0.018219804 0.208289 -0.036740925 -0.13983852 0.023154233 -0.059231184 0.07235685 0.048208985
0.03270405 0.28249747 0.0721365 0.11026139 -0.019051082 0.08567174 0.10563991 0.082894824
0.040968534 -0.1662182 0.06454845 -0.02825771 -0.0028336328 0.039129958 -0.07819342 0.016298665
-0.09352893 0.021121167 -0.03771147 0.12132278 -0.03986553 -0.013484151 0.05830198 -0.11106898
0.11305669 -0.1584164 0.06851736 0.04174811 0.037986312 0.11727687 0.00424137 -0.029182376
-0.027405493 -0.02028914 -0.10115113 0.06849872 0.042734385 -0.0012258076 0.18688734 0.15655974
0.03515582 0.029557489 0.060469553 -0.05785183 -0.20099372 -0.064324655 0.0768398 0.005220915
0.0049355254 -0.07432169 0.069664344 0.1074248 -0.016124185 0.036890727 0.01063591 -0.09014479

network_body._body_endoder.seq_layers.2.bias f4 [128]
00000000: 2844 9aba 1a5c 7b3c e533 ae3b d26f 58bc
00000010: 0781 1f3a 0ccf 2fbb c8c5 97bc 61e4 713c
00000020: 3f15 c23c f16c 8a3c f1df c93b 5d4f 493b
00000030: dfa2 d23c dc53 9c3c ebce fa3c 53c8 863b
00000040: 86ce b6bb 63e2 89bc 7a12 8b3b 8db0 253c
00000050: e743 383b acf2 2b3c 5ab9 8c3b 72cc 613c
00000060: 2efb a83c 1886 ab3c 4ebd 143c 84f8 7cbb
00000070: 77e4 00bc 534c 883c 062d 79bb 67f1 b03b
00000080: 3780 95bb 004e 45bc 4cff 8039 31cc 5a3c
00000090: 7370 2d3c 0b95 d23b 04b9 a3bb ca9d 82bb
000000a0: dff1 67bc 4da0 143d df5e a9bb 30ac e439
000000b0: 9dfc 263c 9e96 283c eebe 89bc edcb 6a3b
000000c0: d04a 923c 9ff5 123b 51a9 193c 70dc c33b
000000d0: a3eb 473c 1a6d 983b 197b 473c bbb4 a43c
000000e0: b9a3 80bc f42a ab3c 0169 b13b be13 ae3b
000000f0: a92a 233c 6ee9 893c 9007 e5b9 32a0 ca3b
00000100: f062 413c f0a5 02bc 1e84 18bc 9065 343c
00000110: a51f 85bc ca0c 373c cb96 3cbc c06d 8e3b
00000120: c962 8b3c 3de4 94bc 434d 253c 6cb8 8b3a
00000130: 8aad d33a cb97 fbbb 140c 6bbc 24e0 aabb
00000140: d8f7 f23b ca28 aabc 55c0 17bb ad84 453b
00000150: 15d3 4e3c 4cec c13b 63fa 8b3b 74aa 0a3b
00000160: e00d 2f3c 7cc9 bc3b db1c c03c e02d 3e3b
00000170: cf91 ed3c 52f2 54bc c805 20bc 85be 3b3c
00000180: 101c 9f3b a488 c43b 349d 853c a605 023c
00000190: c5ab 823b b765 863b fd9f 123b c9eb 86bc
000001a0: 31fb d63c cf4a 043c 5b69 333c b3ea 8cbb
000001b0: 2507 9c3a f0b6 d43c 90cf 933a ec47 ccbb
000001c0: a8bd 83ba 8f0d e4bb 3ed9 833c 0d3a 73bc
000001d0: 0007 53bc 0ca6 d43c df79 c63b fc05 4abc
000001e0: f77d 19bc 9c98 c2bb 0718 7bbc dd1f 97bc
000001f0: 59b6 4a3c 1dfb 043b 29d5 a43b 6e3d 88bb
-0.001176958 0.015341783 0.005316245 -0.013210254 0.0006084595 -0.002682629 -0.018526927 0.014763922
0.023691772 0.01689765 0.006160729 0.003071747 0.025712429 0.019082956 0.030616244 0.004113236
-0.0055788187 -0.016831582 0.004244146 0.010112894 0.0028116645 0.010494869 0.0042945566 0.013781654
0.020627584 0.020937964 0.009078337 -0.0038600275 -0.00786697 0.016637957 -0.003802122 0.005399871
-0.0045624035 -0.012042522 0.00024604273 0.013354347 0.010585892 0.0064264587 -0.004996421 -0.003986095
-0.014156788 0.036285687 -0.00516878 0.00043615839 0.010192064 0.010289816 -0.016814675 0.0035827116
0.017857939 0.0022424234 0.009378747 0.005977206 0.012202176 0.004651678 0.012175345 0.02010571
-0.015703069 0.020894505 0.005414129 0.005312412 0.009958901 0.01683494 -0.00043683918 0.0061836476
0.011803374 -0.007974133 -0.009308843 0.0110105425 -0.01625044 0.011172483 -0.011510561 0.0043465793
0.017014878 -0.018175239 0.010089221 0.001065982 0.0016149741 -0.0076780072 -0.014346141 -0.005214708
0.007414799 -0.020771403 -0.002315541 0.0030138895 0.012623568 0.0059180614 0.004271792 0.0021158727
0.01068446 0.0057613235 0.02345126 0.0029019043 0.029000191 -0.012997227 -0.009767003 0.011458998
0.00485564 0.005997734 0.016310312 0.007935917 0.0039877617 0.004101481 0.0022373192 -0.016469853
0.026242824 0.008074476 0.010950412 -0.0043004393 0.0011903985 0.025966138 0.0011277068 -0.0062341597
-0.0010051029 -0.006959624 0.0160948 -0.014845383 -0.012880087 0.025958084 0.0060570086 -0.012330528
-0.009368411 -0.0059386026 -0.015325553 -0.01844781 0.012372577 0.0020291277 0.0050302935 -0.0041577136

action_model._discrete_distribution.branches.0.weight f4 [5, 64]
00000000: ba13 ad3c 12b6 fcbc f1b3 5e3c 4f71 a8bb
00000010: 9e41 9dbb 49fc 123d a7e3 5b3c 309f 07bc
00000020: 5535 1bbc 6903 a8bb 9d78 34bb 822c 8cbc
00000030: d6de 07bc aec8 09bd 1080 153d 3a45 3bbc
00000040: 9bce ab3b ef4f 003b d2d4 fd3c 896e d8bb
00000050: 3dc9 663c c7fa 573c 541d 68bc ca2e e2bc
00000060: 9718 3ebc 09e2 c3bc 9f05 bdbc e351 8c3a
00000070: 825d 92bc 2fb2 c1bc e7cb adbb a991 01bd
00000080: 1289 0fbd a252 2cbc edb6 f6bb 0449 50bc
00000090: bb59 f4bc d335 413c 15f9 38bd 3515 ea3c
000000a0: 4cef b4bc 792c 9dbc 6f81 163d 45bd 433b
000000b0: 4e8e 153c a075 e23c 725d 9e3c 3f63 593c
000000c0: 8c3f a03c a3e2 e03b bb13 a4bb cf36 24bc
000000d0: 4b34 053c 8c53 cdbb 3a62 c03c c3d0 edbb
000000e0: 3911 9338 a2bc b7bb 0f5b dcbc 9305 b4bc
000000f0: aad9 1e3d 22d9 813c da28 0a3c 9cae 6c3c
00000100: 2e5b 14bc ae21 9ebc 35e4 013d ea78 3d3b
00000110: fcba 813c 2b4e c23c 6170 983c 5c0d acbc
00000120: 37e8 22bd a9f9 153c fbbe 68bd aac9 bbbc
00000130: d3b3 febc 51e6 e43a dded 6c3c 16b7 a33c
00000140: 6b1a 07bc 7b32 873c fb1b 74bc 54df 343c
00000150: 63f2 323d 2892 15bd 27b7 e3bc d099 3dbd
00000160: 2190 cebc 1efd d13c 2603 383d 076e 0bbd
00000170: ebfa c9bc 6770 d13a fbf6 323a 8573 9c3c
00000180: 7c4e 01bd 3e7b 59bd 1aef 41bd 1d49 80bd
00000190: 8ffc 8abc 52dc 32bd 0a19 b83c b5a1 72bc
000001a0: 4f6b 2cbd 8fc0 6b3c 3fd3 c03b ba98 123d
000001b0: b464 c13c 0ac4 dd3b 808a 3ebd e07e f73c
000001c0: ffef 37bb e770 7c3b e958 423d fffe ae3c
000001d0: 0c8d 77bc fb9f e93c f3ad 01bd 8e28 bfbc
000001e0: a81d 2a3b 5c98 6f3c 7abe 063d b9f8 bebc
000001f0: 9763 d43b e2f2 3dbd fd80 823c 572f 6e3c
00000200: 45e2 6d3b 5366 373d b819 71bc 1493 173d
00000210: 494a 50bc 1dda 73bd 6b77 1dbd b568 243c
00000220: 045e ab3c f8cc 0abd 9c4b 203d 9682 883d
00000230: f118 bb3c 24ba 84bb 3b7f 35bd dffa f6bc
00000240: 8666 813c b33e 0abd 2c48 843c 7460 e13c
00000250: 9b2a 5dbd f987 253c 5e62 e83c 9948 053d
00000260: 7356 d53c 4469 bb3c 686c 94bc 6ede 213c
00000270: 1446 2d3c 1cbb 163d 6f72 803b fcd3 04bd
00000280: 43b2 e63a 6782 703d 2a8d e23c df8a 853d
00000290: dd19 d23b c37f 063d 97b6 4f3b a1e7 5e3a
000002a0: 69c9 903c 5e66 b6bc cac0 82bd 89da 10bd
000002b0: 3509 c1bc 0fd3 e2bc d016 01bc 98e8 ebbc
000002c0: 370e cf3b 5c13 503d 6268 7abd 9c47 92bc
000002d0: c0e5 33bc e6b4 1ebd a61e 7c3c 1987 853c
000002e0: 8f4c 8f3c ab19 9cbc 94d4 a73c b8f8 213c
000002f0: b8dc 31bd 92a4 b13c 6f97 21bd e77a 57bc
00000300: ff4f 733c e34a 1338 a1ba 10bc 2f13 733d
00000310: b904 a73d 5a6d f6bc 7a34 803d d17b dcbc
00000320: 5459 3abb 9a33 43bc 6366 1abd 18df 3abb
00000330: 53b3 acbc 317d bb3c 26ac c1bc ee49 13bd
00000340: 957b 0dbd 1935 f13c 1a83 57bc 6d0f 1d3d
00000350: f16b 82bd d34c e8bb 368f f139 7723 ac3c
00000360: 5198 a7bc 1c4f 583d ebed 4e3d 7d2e afbd
00000370: 889c 3b3d 62fd 613c 3951 133b ca87 46bd
00000380: ba01 36bd d377 60bd 78cd 1dbd 14f0 a1bd
00000390: 1dd8 40bd cc9f fa3c 6c00 28bd e3d6 38bd
000003a0: eaf4 9fbc 963c ea3d 845a 75bb 87c0 c73c
000003b0: 269e 68bc c995 4f3d f486 8b3c c9df a3bc
000003c0: 4116 bb3c aa80 3e3d 02e6 73bc e54e 2d3d
000003d0: 7786 dcbc 3f56 aa3c 7833 3e3c bba2 67b9
000003e0: e186 9b3b 8fc6 7a3d 8cda f73c 3691 21bd
000003f0: 3432 d6bc 2b58 013d ebf6 44bc 0ca6 f9bc
0.02112757 -0.030848537 0.013592706 -0.0051404606 -0.004799082 0.03588513 0.013420976 -0.008277699
-0.009473165 -0.0051273596 -0.0027537711 -0.017111067 -0.008292874 -0.03363865 0.036499083 -0.011430079
0.005243135 0.0019578894 0.03098527 -0.0066049737 0.014086065 0.013182349 -0.014167149 -0.027610201
-0.011602542 -0.023911493 -0.02307397 0.0010705556 -0.017866854 -0.023644535 -0.005303848 -0.031633053
-0.03504283 -0.010517748 -0.0075291307 -0.012712721 -0.029827943 0.011792618 -0.045159418 0.028574565
-0.022086762 -0.019186245 0.03674453 0.0029867452 0.009128166 0.027643979 0.019331668 0.013268291
0.019561552 0.0068629547 -0.005007235 -0.010022833 0.008130143 -0.006266063 0.023484338 -0.0072575524
7.012714e-05 -0.0056072036 -0.026898889 -0.021975314 0.0387818 0.015850607 0.008432591 0.014445927
-0.009054942 -0.01930317 0.031711776 0.0028911182 0.015836231 0.023718914 0.018608274 -0.021002464
-0.03977224 0.009153762 -0.05682276 -0.02292331 -0.031091606 0.0017463659 0.014461008 0.019984763
-0.008246045 0.016503563 -0.014899249 0.011039574 0.04368819 -0.03651634 -0.027797295 -0.046289265
-0.02521521 0.025633391 0.044924878 -0.034040477 -0.02465578 0.0015978933 0.0006826964 0.019098053
-0.03156899 -0.05309605 -0.047347166 -0.06263945 -0.016966132 -0.043667145 0.022472877 -0.014809062
-0.042094525 0.014389171 0.0058845575 0.035790183 0.02360759 0.0067677544 -0.046518803 0.030211866
-0.0028066633 0.0038519443 0.047448073 0.021361826 -0.015109312 0.028518667 -0.03166003 -0.023334768
0.0025957618 0.014623728 0.032896496 -0.02331196 0.0064815986 -0.04637421 0.015930647 0.014537654
0.0036298197 0.04477532 -0.0147156045 0.0370055 -0.012713023 -0.05953418 -0.038443964 0.01003473
0.020918854 -0.03388688 0.039134607 0.06665532 0.022839041 -0.00405051 -0.04431079 -0.030148922
0.015795957 -0.0337512 0.016147695 0.027511813 -0.05399571 0.010103219 0.028367218 0.032539938
0.026042199 0.022877343 -0.018118098 0.0098796915 0.01057579 0.036799535 0.0039198915 -0.032428727
0.0017600734 0.05871811 0.027655203 0.06520628 0.0064117745 0.032836687 0.0031694525 0.00085031433
0.017674165 -0.02226561 -0.06384428 -0.03536466 -0.02356396 -0.027688531 -0.007878974 -0.028797433
0.006318833 0.050799713 -0.061134703 -0.017856412 -0.01098007 -0.038746737 0.0153881665 0.016299771
0.01749256 -0.019055208 0.020487107 0.009885959 -0.043423384 0.021684919 -0.03945106 -0.013151861
0.0148506155 3.5117275e-05 -0.008833558 0.059344467 0.08155198 -0.03008144 0.06260009 -0.026914509
-0.0028434591 -0.011914158 -0.0376953 -0.0028514322 -0.021081602 0.022886844 -0.023641657 -0.035959177
-0.034541685 0.029444264 -0.013153816 0.03834479 -0.063682444 -0.0070892363 0.00046073803 0.021013005
-0.020458372 0.05280982 0.050519865 -0.08553789 0.045803577 0.013793321 0.0022478832 -0.048469342
-0.04443524 -0.054801773 -0.03852603 -0.079071194 -0.0470811 0.030593775 -0.041016027 -0.045126807
-0.019525964 0.11437337 -0.0037437985 0.024383796 -0.014197862 0.050679956 0.017032124 -0.02000417
0.02283776 0.046509422 -0.014886381 0.042311568 -0.026919587 0.020793078 0.011608951 -0.00022090499
0.0047463034 0.061224516 0.030255578 -0.039445125 -0.026146986 0.031578224 -0.01202176 -0.030474685

action_model._discrete_distribution.branches.0.bias f4 [5]
00000000: 01b0 313c cee0 73bc cc86 533b 62eb d13b
00000010: 16ba 14ba
0.010845185 -0.014885141 0.003227639 0.0064062336 -0.0005673481

onnx::LSTM_99 f4 [1, 256, 128]
00000000: c88a 833c 7c4b 2c3e 0f1a e53c 7259 183e
00000010: a7aa dcbd 245d 233e 4ced 273e 3770 233d
00000020: 13f6 273e c45d 86bd 535b 7b3c 6f81 793d
00000030: 698f 05bd 8cb8 c33d e17c ab3d 0990 4c3d
00000040: d01e f1bd 2793 19be 555f dabb ddec 253d
00000050: 68f0 e0bc 91c8 19be 672b a8bd 6f35 e3bd
00000060: 9654 3abe 6459 6dbd 1319 e43d 05e4 b4bd
00000070: 036e d33c 4511 903d d996 0d3e 88a5 873d
00000080: 3f56 dbbc 6cf0 22be f70b 3a3d 5ee9 89bb
00000090: 1f3e 8e3d ca0d 5abd 402f 1fbe ee66 fa3d
000000a0: 4203 023e abb9 dbbb cb25 3bbe 46a7 cabd
000000b0: c526 fc3d b587 ab3d 475b f0bd ec6c cbbd
000000c0: 4a68 0a3e b217 04be 9610 84bc a277 f63d
000000d0: ac03 35be 4d65 27be 5fac 3fbd ec6f e1bd
000000e0: df5e debd 1e1d 19bd 5ed5 393d 7a5d 27be
000000f0: b6e1 8a3c 6bd2 28bd f272 e7bd c085 fdbc
00000100: d366 573d f113 2bbe 55ec cfbd 48ad 48bd
00000110: 87ac fdbd 79a7 0cbe 7ed5 193d c1d8 163e
00000120: 7c20 983c 5dc2 05be 6351 15bd 0fc9 94bd
00000130: 734b 96bc dde8 cd3d ea0d 9f3d 373e 89bd
00000140: 65ad aebd f242 9e3d 8e68 a93c e56b 11bd
00000150: 76fd cdbc 2638 e63d b9a0 fcbc 6c23 fe3d
00000160: 005e ba3d 638b d8bd bb03 1cbe 3887 f43d
00000170: bae5 983d 1ad4 3b3d 06cc 1bbd 1979 f8bb
00000180: 927c 3ebe 0eb9 1c3e 9cbd aebd 41e0 02be
00000190: 2f4b 5ebd 07bf 3ebe c3eb 363d c517 db3d
000001a0: 8623 8e3d c83f 013d 5674 9bbd 5efb 35be
000001b0: d7bf fe3d 87aa e13d bac7 9ebd 93e8 ff3d
000001c0: 40c6 1bbe 95d9 293d 1009 e9bd 09b1 93bc
000001d0: 8210 b83b dae1 c6bd d240 7cbd c7fa f73c
000001e0: de57 07be efc4 37be 80ed c53c 7da8 9cbd
000001f0: 2d82 d63d 1897 24bc da5e 823d 6e9b 20be
00000200: 88de 2e3e 5c95 19be 6b9d 9a3d 16ae 0abe
00000210: 7b92 69ba db90 29be 6101 5c3d e639 25be
00000220: aacb d73d 827b a3bc d19e 383d fad9 32bc
00000230: d371 1dbe 3f7b a33d 8741 153e 154a b83d
00000240: e287 34be 0cdb 1e3e c599 aa3d cb71 ff3d
00000250: bfda f53d e9dc 153e 6f81 d9bd 8216 3bbd
00000260: ef40 eb3d bdef 3bbe 15b8 bb3d 1776 11be
00000270: 244d ca3d ef47 433c 2556 2cbd 05b7 583d
00000280: a184 633d 2399 c0bd 39ca 983c 28de f0bc
00000290: 4429 db3c 3cf0 1ebe 1ed1 21be 152a 143d
000002a0: de69 c93d d463 c3bd 10cd 95bd 5a01 83bd
000002b0: 3010 e33d 9562 9fbd 01fe 92bd 7293 39be
000002c0: 733f 163e ddd2 453d f557 febd 6f60 81bc
000002d0: eff8 c23d c29e d73b 09a9 143e 89ce be3c
000002e0: 01d0 613d 2fa1 2a3e 9c57 97bd 59c9 fa3d
000002f0: ef6a 973d 9457 df3d d943 10bc 7a83 a73d
00000300: 6f88 473b 3da1 1e3c c2f4 05be dd52 e5bd
00000310: cb36 95bd 3e23 1ebd 8343 e4bd 525c 1c3d
00000320: 70d2 a9bd 2e2b 053c 70be 93bd c337 873d
00000330: 6db1 dc3b a616 e3bd 6ee3 03be c922 103e
00000340: 5f1b 4e3d 41b2 d93c 0ee6 49bd f8f5 bdbd
00000350: 9a6b 15bd 8925 be3d cf97 0b3e fc31 f8bc
00000360: 6d8e b8bc 9aa1 0b3e 1a63 babd ca8b 033e
00000370: 4c85 e8bd 616b 91bd 9e88 993d 279f fbbd
00000380: 9209 21bd 1607 043e b308 ddbd c6c0 263e
00000390: 3d8d 3a3e 6442 ebbc cab1 a93d f2a3 b5bd
000003a0: 3ec2 8d3d 553f c4bd e524 4c3d 3333 f63b
000003b0: ec68 bb3d b1a9 2cbe 97b3 24be dbb6 10be
000003c0: 6193 93ba d315 2cbe 3a10 0bbe 0f73 d9bd
000003d0: d929 193e 386e d1bd 149a bc3d 57d2 89bc
000003e0: 7796 f3bd 35f4 883c bb85 aa3d 986e cc3d
000003f0: ef99 1d3d 7fbe d23c cb5a a7bd 9c3d a4bd
0.016057387 0.1682567 0.027966527 0.1487787 -0.10774737 0.15953499 0.16399115 0.03990194
0.16402464 -0.06560853 0.015341598 0.060914453 -0.03260747 0.09556684 0.08373428 0.04994205
-0.11773455 -0.1499754 -0.0066641965 0.040509094 -0.027458385 -0.15017916 -0.08211403 -0.11094176
-0.1819633 -0.057946578 0.11137595 -0.08832554 0.025809294 0.07034544 0.13827075 0.066233695
-0.026774524 -0.15912026 0.045421567 -0.0042087277 0.069454424 -0.053235807 -0.15545368 0.122266635
0.12696555 -0.006705483 -0.18276136 -0.09895186 0.12312082 0.083754934 -0.1173616 -0.099328846
0.13516346 -0.12899664 -0.01612119 0.12034537 -0.17677182 -0.16347237 -0.046795245 -0.110076755
-0.10857939 -0.037381284 0.0453695 -0.16344252 0.01695333 -0.041216295 -0.11301221 -0.030947566
0.052588295 -0.16706826 -0.10152499 -0.04899338 -0.123864226 -0.13735761 0.037557118 0.14731123
0.018570177 -0.13062425 -0.03645457 -0.072649114 -0.018346524 0.10054181 0.07766326 -0.0670132
-0.08529166 0.077276126 0.020679738 -0.035503287 -0.025145274 0.11241178 -0.030838357 0.124091
0.0909996 -0.10573461 -0.15235798 0.119398534 0.07465692 0.045856573 -0.03803637 -0.0075827953
-0.18602207 0.15304968 -0.08532259 -0.12780859 -0.05427092 -0.18627559 0.044658434 0.10697893
0.06940369 0.031554967 -0.07590549 -0.1777167 0.12438934 0.11018854 -0.077529386 0.12495532
-0.15212345 0.041467268 -0.11378682 -0.018028753 0.0056172023 -0.097110465 -0.061585255 0.030270947
-0.13217112 -0.17946218 0.0241611 -0.07649324 0.10474048 -0.010045789 0.06365748 -0.15684292
0.17077076 -0.14998382 0.07549556 -0.13542971 -0.0008910072 -0.16559164 0.053712253 -0.16135368
0.10536893 -0.019956354 0.045073334 -0.0109162275 -0.15375452 0.07982492 0.14575778 0.08998505
-0.1762996 0.15513247 0.083301105 0.12472876 0.12004613 0.14635052 -0.106203906 -0.045675762
0.114869945 -0.18353172 0.0916597 -0.14205204 0.09877995 0.011919006 -0.04207434 0.052908916
0.055546407 -0.094042085 0.018651115 -0.029402807 0.026753075 -0.1552133 -0.15802428 0.036172945
0.09834646 -0.09540525 -0.07314503 -0.06396742 0.11087072 -0.07782475 -0.07177354 -0.18122652
0.14672641 0.048296798 -0.1241912 -0.015793053 0.095201366 0.0065802047 0.14517607 0.023291843
0.05513001 0.16663049 -0.07389757 0.12245435 0.07393443 0.10905376 -0.008805239 0.08179374
0.003044631 0.009681997 -0.13081649 -0.111974455 -0.072858416 -0.03860783 -0.11145689 0.03817398
-0.08292091 0.008127971 -0.072140574 0.066024326 0.006735018 -0.11088304 -0.12879726 0.1407577
0.05031907 0.026574256 -0.049291663 -0.092754304 -0.03647957 0.09284503 0.13632129 -0.030297272
-0.022528851 0.13635865 -0.091009334 0.12846294 -0.11353549 -0.07100559 0.07496761 -0.12286215
-0.039315768 0.12893328 -0.10792675 0.16284475 0.1821794 -0.028718181 0.08285864 -0.08869161
0.069218144 -0.09582392 0.049839873 0.0075134276 0.09150872 -0.16861607 -0.16084133 -0.14132254
-0.0011259132 -0.168052 -0.13580409 -0.10617649 0.1495737 -0.10226101 0.092090756 -0.01682393
-0.11893933 0.01671801 0.08326288 0.099820316 0.03847688 0.025725601 -0.08171614 -0.080195636

onnx::LSTM_100 f4 [1, 256, 64]
00000000: fde6 4e3d 8a25 433e 9318 61bd 0444 9c3c
00000010: ecb1 d4bc 4402 943d fd2a c0bd 75e7 eb3d
00000020: 8dbd 15be 210a d0bd 4f72 16be 01a2 41bd
00000030: ed0b b0bc c012 2cbe f73b 553e 0dd4 09be
00000040: f39a 6b3e f0e9 673c 9572 3d3e 6393 513b
00000050: b96e b13d 2f06 08bd 3035 15be 4615 00be
00000060: d17d 37bc 12b8 9dbd 0e0b 523e cd67 49be
00000070: 72da d1bd 78d6 103e 7f86 043e a781 8c3d
00000080: eb49 163e a689 6cbe 52c1 153e d9b5 2fbe
00000090: 0360 11be dea3 693d 6415 00be 26e3 0e3e
000000a0: 112c 013e 0a1a 95bd c7b7 3b3e cfdd 43be
000000b0: 5898 85bd 278c 32be 2b7d 603d 7fed fe3c
000000c0: 7362 2f3d 0a74 993d cd54 a3bd 2ecf a83d
000000d0: af63 89bd 81dc 9b3d 87b4 7b3d ea2c 383e
000000e0: 0a36 b93d 8898 613d a41a f53d 0813 333e
000000f0: 2ae6 543e ad90 463e 9cdb 69bd 0eeb 903d
00000100: 21f5 31bd 1049 283e d3a2 743b 8a79 2cbe
00000110: 19f5 463e 0d10 2cbe a768 163e 0047 45be
00000120: c0d1 183e 402d 3bbe e354 45bd 25c0 03be
00000130: 3bd1 e03d 3f15 86bb 6229 813d 3b40 383e
00000140: 5e6d 4e3e c733 843d 4794 4e3e 0f48 04bd
00000150: b087 9cbd 45cf 1e3e 851d 02be 60e4 08bd
00000160: 97d4 443e 4b4f 0e3e 3da4 803d befd 483e
00000170: d6bc 213e 39af 5d3d 2395 eb3c 0c70 44be
00000180: c3bc 21be a265 2cbe d2bd 2dbe 6f17 0ebe
00000190: 3f5c 133d eb93 62be e669 61bd 37f9 983d
000001a0: 0717 06bd c2a5 553d 7537 d23d a359 4b3e
000001b0: 7620 af3c f48a 0d3e f214 17bc e59e c6bd
000001c0: 64e3 1ebe 8d0d c53d 7381 bcbd a2ee 863d
000001d0: d79e bdbc c0af 4b3e 9a7d 95bd 3176 133e
000001e0: 25fd 2e3e 98b5 02bd ea40 d33d 5033 fbbc
000001f0: 4f82 f8bd 8989 813d b582 003d cdfa ac3c
00000200: e929 483e 600b 00be c593 6bbe 7549 253e
00000210: d4d0 94bd 21d8 293e 3c4d a7bd 6250 13be
00000220: d1fc 9a3d ebbe ed3d ff2d 653d 1ea0 f33d
00000230: 6eb1 7b3d f8ce 4c3e 5244 dfbd 912b 69be
00000240: 4f25 5fbd 1d7b 153e 9db4 c4bc 44d8 0a3d
00000250: 5555 2bbe d329 6e3e 1fa5 2b3e 6445 c5bd
00000260: c90b bebd 0159 31be 00fa 20be 1be8 32be
00000270: 1b93 0b3e 092c ccbd e392 f43d 3ca8 013e
00000280: 356e 26bd be56 ffbc d218 773e c739 5d3e
00000290: 44bf 38be decb fabc 37a2 3b3e 07ee 10be
000002a0: f951 7d3e 2eb2 0b3e 93e8 30bd 8322 9c3d
000002b0: 991e a03d ea59 3cbe c4ae 493e dea4 53bd
000002c0: 8f84 5d3d cf24 8fbd 8f05 033e 3d96 313e
000002d0: 4416 493e 520d 3cbd dded 483e d9ad 6dbd
000002e0: fb1c 643e 128f 203d 2414 bb3d e56b 87bd
000002f0: d9f7 33bd 7fa9 cf3d 0bfd a3bd a70b 0b3e
00000300: b1a3 623e 21f1 e9bd 6d35 20bb 93ef 59bd
00000310: 2727 183e aab6 2abd 0151 0a3e 3aaf d7bd
00000320: 078e 18bd 2767 69bd 567e 25be dd2e 523d
00000330: 704f 493e 3eab e03d 0360 143e 0236 3bbe
00000340: 487b c33d 1e96 af38 e580 bdbd 594e 8abd
00000350: e166 91bd 92e8 1ebd 8236 a1bd 5abd fbbb
00000360: 9cc2 d53d 6205 b03d b2a9 1b3d 143f 29be
00000370: 8d00 ccbd 3324 283e d84c bdbc bf56 543e
00000380: e775 2fbe deea 5b3e 098f 3a3b 9f38 91bc
00000390: cfb3 18bb 41f1 bd3c d2be 2a3e 5abd 9dbc
000003a0: 34a0 ae3d 139c e9bd b5a2 a5bd fe72 9ebc
000003b0: bdbe ad3d f523 4cbe 100c 17bd faeb 1c3d
000003c0: 8a87 b4bd d388 97bd 7063 943d e238 4dbe
000003d0: df0b fbbd 27ae d5bd f4ff 15be 7eeb 993c
000003e0: e0ae 463e 03b4 37bc f7c6 64be 00b2 0e3e
000003f0: 12a1 bdbd a28f 28be 7925 37be 7b9f 14be
0.050513256 0.19057289 -0.054955076 0.019075401 -0.025963746 0.07226995 -0.09383199 0.11518756
-0.14623089 -0.10158182 -0.14692043 -0.04727364 -0.021490062 -0.16804028 0.20823656 -0.13459797
0.23008327 0.014154896 0.18500741 0.0031978718 0.08663697 -0.033209022 -0.1457107 -0.12508115
-0.011199431 -0.07701124 0.2051203 -0.19668503 -0.10246743 0.14144313 0.12941931 0.06860667
0.14676635 -0.23099384 0.14624527 -0.17159213 -0.14196782 0.05704104 -0.1250816 0.13953838
0.12614466 -0.07280357 0.18331824 -0.19127582 -0.06523198 -0.17436276 0.05480687 0.031119106
0.042818498 0.07492836 -0.07975159 0.082426414 -0.06708466 0.07610417 0.06145146 0.17985883
0.0904351 0.055077106 0.11967972 0.17487729 0.20790926 0.19391127 -0.0570942 0.07076083
-0.043446664 0.16434121 0.0037328496 -0.16843238 0.19429435 -0.16802998 0.14688359 -0.19265366
0.14923763 -0.1827898 -0.048176657 -0.12866266 0.109774075 -0.004091888 0.06306721 0.17993252
0.20158908 0.06455188 0.20173751 -0.032295283 -0.07643068 0.15508755 -0.12706573 -0.03342092
0.19221722 0.13897435 0.06281326 0.19628045 0.15794691 0.054122183 0.028757637 -0.19183367
-0.15794663 -0.16835645 -0.16966942 -0.13876127 0.035976645 -0.22126739 -0.055032633 0.07469409
-0.032736804 0.052160032 0.10264484 0.19858412 0.021377783 0.13822538 -0.009221302 -0.096982755
-0.1551643 0.09621725 -0.09204378 0.06588484 -0.02314703 0.19891262 -0.07299347 0.14400555
0.17088754 -0.031911463 0.10315116 -0.030664116 -0.121342294 0.06325061 0.031374652 0.021115685
0.19547237 -0.12504339 -0.23005588 0.16141303 -0.07266393 0.16586353 -0.08169028 -0.14386132
0.07567752 0.1160868 0.05595207 0.11895774 0.061448507 0.20000827 -0.10901703 -0.22770526
-0.05447894 0.14597745 -0.024011904 0.033897653 -0.1673177 0.23258142 0.16762207 -0.09632376
-0.092795916 -0.17319109 -0.15720367 -0.17471354 0.13630335 -0.099693365 0.11942079 0.12661833
-0.040632445 -0.031169292 0.24130562 0.21604072 -0.18041712 -0.03061479 0.18323599 -0.141533
0.24738301 0.13642189 -0.04319055 0.0762377 0.07818336 -0.18393674 0.19695574 -0.0516709
0.054081496 -0.069894426 0.12795089 0.17342468 0.196374 -0.04591114 0.19621988 -0.058027122
0.2227668 0.039198942 0.09134701 -0.06612376 -0.043937538 0.10139751 -0.080072485 0.13578664
0.22132756 -0.11422945 -0.0024445907 -0.05320699 0.14858685 -0.04167811 0.13507463 -0.10531469
-0.037244823 -0.05698314 -0.16161475 0.051314224 0.19659209 0.10970162 0.1448975 -0.18282321
0.095449984 8.372612e-05 -0.092531 -0.06753225 -0.07099701 -0.038796015 -0.07871725 -0.0076824846
0.104375094 0.08594777 0.03800363 -0.16527969 -0.099610426 0.16420059 -0.023107931 0.20736216
-0.1713482 0.21476313 0.0028466603 -0.017727194 -0.0023300534 0.023186328 0.16674355 -0.019255329
0.0852665 -0.11406722 -0.080876745 -0.019341942 0.08483646 -0.19935592 -0.036876738 0.038310982
-0.088149145 -0.07399144 0.07245529 -0.2004123 -0.122581236 -0.104336075 -0.1464842 0.01878905
0.19402647 -0.011212352 -0.22341524 0.13935089 -0.09259237 -0.16461042 -0.17885388 -0.14513962

onnx::LSTM_101 f4 [1, 512]
00000000: 94f1 2cbc 84ae 033b 51d4 8a3c fc45 a03c
00000010: 1962 853b 09a5 a03c 039e d43c 379f c8bb
00000020: cae4 88ba 5ea6 97bc 6a7c 7c3c e4dc 53bb
00000030: d9c8 273c 8193 013c 99e7 313b 24b2 de3c
00000040: 6eea 0ebd 4cfd a23c e1b5 6e3b 231b 263d
00000050: c6c9 373c d606 7a3c 1b99 db3c 9bef fd3c
00000060: de78 40bc 8d15 713d 6f20 2a3d 63e1 033c
00000070: fe6e 7dbc 2130 803d cf5d 4cbd 95b3 173d
00000080: e8c0 b3bc da0d 2dbc eb90 fb3b af89 da3c
00000090: 086b ba3c 8c0c 8a3b b873 b53c 7db0 b0bc
000000a0: 34d8 e73b 577c b83c 1e99 823c 77f3 f7b9
000000b0: 11ba bcbc 6a84 a43c 47cd 28ba 4ed0 a9bc
000000c0: 85e4 ee3b a068 f63c 7d7e c03c 163b 753c
000000d0: aca1 a83b 4513 a13c fc0e 7f3c fe7a 373c
000000e0: a869 b7bc 9f74 b43c 9f46 473c 15b4 893b
000000f0: 4d6a 983c 23f1 e63b 76f5 183b 5572 d53b
00000100: 810c 89bb be45 ca3a 6f07 b2bb 42e0 133d
00000110: a121 3d3d 4556 df3b e260 153d a71b 9b3b
00000120: d5c3 b2ba c1a0 33bc 5614 aa3c 6071 c23c
00000130: a611 33bc 0a8f a4bb 36d8 383c 7280 54bc
00000140: c74f 263b 01a9 3f3c 6db3 39bc 4d82 573d
00000150: 45ee f43c e6ab b03a 4611 ea3c 0393 f13c
00000160: 04d7 f3bb e1c9 693d b4ae d73c 2b8e 363c
00000170: 8830 683a 991a 2b3c 4449 87bc 50ab 4e3d
00000180: 8dd0 253c d06b c43c b635 fe3b 8ee8 503d
00000190: 2145 a63c a549 513a 377d f83c 02ff 99ba
000001a0: 4cc5 3c3c 5aca 8c3d 0321 3d3c 7b38 2cbc
000001b0: 5a08 38bc c8e4 593c 053d 89bb 0fb8 94bc
000001c0: 8e7e 14bc aa03 3c3d d244 563c 572b 15bb
000001d0: 8b6d 04bc 04e8 adbb a225 dbbb df7a 033c
000001e0: 2219 fabc 5273 e73c 572e bd3a ca9f 103d
000001f0: c2a7 2d3d 74fb 15bc 9fb8 3abb efb9 403c
00000200: 7546 7c3f e4f2 813f a0e3 813f 6565 833f
00000210: 8679 813f b5b3 7b3f bc40 7a3f 7288 813f
00000220: b9aa 803f 6923 803f 4aed 7a3f 3883 7d3f
00000230: 7248 7d3f a20c 7f3f 8e15 7a3f 86cf 7f3f
00000240: 34d2 743f d06a 813f 1780 803f 68af 7f3f
00000250: c896 783f 2663 813f fb2f 843f 2c95 793f
00000260: dcfc 7b3f 1f57 7a3f 9ce6 833f 4ee5 7f3f
00000270: be4f 7c3f 0290 7a3f e936 783f e814 823f
00000280: e202 7b3f 620a 783f d33a 823f 0730 763f
00000290: 9f3f 833f ca71 813f 08a8 813f ec98 813f
000002a0: bf39 7c3f cb58 7f3f f03a 7e3f 119a 793f
000002b0: 263e 7d3f 09ad 7c3f 89f6 7f3f 58bb 793f
000002c0: db10 823f f637 803f fa0e 7b3f 8b88 7c3f
000002d0: f2f1 7c3f ebfc 783f cd48 823f 47dd 813f
000002e0: 3e08 7a3f 5d45 803f dca5 7d3f f359 813f
000002f0: b223 843f 7121 773f f541 753f 79a4 803f
00000300: 8a2b 6c3a 8c7e 35bc bc5a 3cbb 9ad3 753c
00000310: 4dca 0dbc 1f50 83bb f83a 883b 637d bf3c
00000320: bac0 193c 6e4c ae3a 8681 de3b 0396 58bc
00000330: c06a e3bb 3150 4abc 657b 21ba 6469 92bb
00000340: e447 1abb 1747 8c3c 9cf1 353b 346d cd3c
00000350: b02c 753b c9cd 183c 1339 10bb 47de 593c
00000360: 3753 dfbc 43bd 8b3c a1c0 0abc 72fa c33a
00000370: 44ee 4abb fb41 da3b e6a0 f23a b70a 80bc
00000380: 6184 a13b 092a a73b c2cc d43b 1b27 3c3a
00000390: b8e6 70bc 7699 6a3c f5fb 97bc 2f2d ec3a
000003a0: 7a39 383c 5187 bebb a454 51ba 2b35 0f3c
000003b0: 9133 10ba c830 103c 27b7 c6bb 6293 533c
000003c0: 369f 8e3c 4c2e 1fbc 25ce 9a3b e3a8 32bc
000003d0: 2700 07bc 3032 f7bb 3ec8 b43b c6b4 183c
000003e0: 8991 edbb 1437 34bb 83c0 b0bb df75 7cbc
000003f0: daff 163c 2d8f de3b 151d b63b 717d a0ba
-0.010555644 0.0020093033 0.016946943 0.019564621 0.004070532 0.019609945 0.025954252 -0.0061224955
-0.0010444161 -0.018511947 0.015410522 -0.0032327706 0.010240757 0.007908703 0.00271461 0.027184553
-0.03489154 0.019896172 0.0036424326 0.040553223 0.01121754 0.015260419 0.026806405 0.030998042
-0.011747567 0.058858443 0.041534837 0.008049342 -0.015468357 0.0625918 -0.04989415 0.037036497
-0.02194257 -0.0105623845 0.0076771877 0.02667698 0.022756115 0.0042129215 0.022149906 -0.021568531
0.007075334 0.022520227 0.015942153 -0.00047292907 -0.023037942 0.020082671 -0.000643928 -0.02072921
0.0072904252 0.030079186 0.023497814 0.0149677005 0.005146226 0.019662509 0.015567537 0.011198757
-0.022389248 0.022028266 0.0121628335 0.0042023757 0.018605376 0.0070477887 0.0023339665 0.0065138736
-0.004182399 0.0015432162 -0.005433015 0.03610254 0.04617465 0.006815704 0.036469348 0.004733521
-0.0013638685 -0.01096362 0.02076165 0.023735702 -0.010929501 -0.0050219344 0.011282017 -0.012970077
0.002537714 0.0116980085 -0.011334282 0.0526145 0.029898772 0.0013478964 0.02857269 0.029489046
-0.0074414033 0.057077292 0.026328422 0.011142294 0.00088573294 0.010443353 -0.016514428 0.050456345
0.010120523 0.02397719 0.0077578677 0.05100303 0.020296635 0.0007983691 0.030333145 -0.0011748972
0.011521649 0.06874533 0.011543515 -0.010511513 -0.01123246 0.013299175 -0.0041881823 -0.018154172
-0.009063376 0.04590193 0.0130779315 -0.0022761428 -0.008082758 -0.0053071994 -0.006687836 0.0080249
-0.030529562 0.028253231 0.0014433366 0.035308637 0.042396314 -0.009154189 -0.002849139 0.01176308
0.9854501 1.0152249 1.0147591 1.0265318 1.0115211 0.98321086 0.97755027 1.0119765
1.00521 1.0010806 0.98018324 0.9902835 0.9893867 0.9962865 0.9768914 0.9992603
0.95633245 1.0110722 1.003909 0.99877024 0.97105074 1.0108383 1.0327142 0.97493243
0.9843271 0.97789186 1.0304751 0.99959266 0.98559177 0.9787599 0.96958786 1.016263
0.98051274 0.9689084 1.0174202 0.96167034 1.0253791 1.0112851 1.0129404 1.0124793
0.98525614 0.9974486 0.9930868 0.9750071 0.98922956 0.9870153 0.9998556 0.9755149
1.0161394 1.0017078 0.9806973 0.9864585 0.9880668 0.9726092 1.0178467 1.0145653
0.97668827 1.0021168 0.99081206 1.0105575 1.0323393 0.965354 0.9580377 1.0050193
0.00090091734 -0.011077534 -0.0028740605 0.015004063 -0.008654189 -0.004007354 0.0041574202 0.023375219
0.0093843285 0.0013297924 0.0067903427 -0.013219359 -0.006940216 -0.012348221 -0.000616005 -0.00446813
-0.0023541385 0.017123742 0.0027762419 0.025076486 0.003741067 0.009326407 -0.0022006675 0.013297624
-0.02726136 0.01705802 -0.008468778 0.0014951958 -0.0030964771 0.0066606975 0.0018511086 -0.01563011
0.004929111 0.0051014465 0.0064941356 0.0007177458 -0.014703445 0.0143188145 -0.01855276 0.0018018837
0.011244172 -0.005814471 -0.000798533 0.008740704 -0.0005500848 0.008800693 -0.006064314 0.012913557
0.017409902 -0.009715628 0.0047242814 -0.010904524 -0.008239782 -0.0075438246 0.005517035 0.0093204435
-0.007250015 -0.002749865 -0.005394043 -0.015408962 0.009216273 0.00679197 0.005557666 -0.0012244416
